<?xml version="1.0" ?>
<net name="torch-jit-export" version="11">
	<layers>
		<layer id="144" name="image" type="Parameter" version="opset1">
			<data shape="1,3,256,448" element_type="f32"/>
			<rt_info>
				<attribute name="old_api_map_element_type" version="0" value="f16"/>
			</rt_info>
			<output>
				<port id="0" precision="FP32" names="image">
					<dim>1</dim>
					<dim>3</dim>
					<dim>256</dim>
					<dim>448</dim>
					<rt_info>
						<attribute name="layout" version="0" layout="[N,C,H,W]"/>
					</rt_info>
				</port>
			</output>
		</layer>
		<layer id="0" name="123581236242077" type="Const" version="opset1">
			<data offset="0" size="4" shape="" element_type="f32"/>
			<output>
				<port id="0" precision="FP32"/>
			</output>
		</layer>
		<layer id="1" name="123591236341168" type="Const" version="opset1">
			<data offset="4" size="4" shape="" element_type="f32"/>
			<output>
				<port id="0" precision="FP32"/>
			</output>
		</layer>
		<layer id="2" name="123601236439485" type="Const" version="opset1">
			<data offset="0" size="4" shape="" element_type="f32"/>
			<output>
				<port id="0" precision="FP32"/>
			</output>
		</layer>
		<layer id="3" name="123611236539506" type="Const" version="opset1">
			<data offset="4" size="4" shape="" element_type="f32"/>
			<output>
				<port id="0" precision="FP32"/>
			</output>
		</layer>
		<layer id="4" name="Constant_3188320943151" type="Const" version="opset1">
			<data offset="8" size="16" shape="2" element_type="i64"/>
			<output>
				<port id="0" precision="I64">
					<dim>2</dim>
				</port>
			</output>
		</layer>
		<layer id="5" name="107181072239521" type="Const" version="opset1">
			<data offset="24" size="4" shape="" element_type="f32"/>
			<output>
				<port id="0" precision="FP32"/>
			</output>
		</layer>
		<layer id="6" name="107191072342710" type="Const" version="opset1">
			<data offset="28" size="4" shape="" element_type="f32"/>
			<output>
				<port id="0" precision="FP32"/>
			</output>
		</layer>
		<layer id="7" name="107201072438936" type="Const" version="opset1">
			<data offset="24" size="4" shape="" element_type="f32"/>
			<output>
				<port id="0" precision="FP32"/>
			</output>
		</layer>
		<layer id="8" name="107211072539425" type="Const" version="opset1">
			<data offset="28" size="4" shape="" element_type="f32"/>
			<output>
				<port id="0" precision="FP32"/>
			</output>
		</layer>
		<layer id="9" name="7571757340466" type="Const" version="opset1">
			<data offset="32" size="128" shape="1,32,1,1" element_type="f32"/>
			<output>
				<port id="0" precision="FP32">
					<dim>1</dim>
					<dim>32</dim>
					<dim>1</dim>
					<dim>1</dim>
				</port>
			</output>
		</layer>
		<layer id="10" name="123781238243415" type="Const" version="opset1">
			<data offset="0" size="4" shape="" element_type="f32"/>
			<output>
				<port id="0" precision="FP32"/>
			</output>
		</layer>
		<layer id="11" name="123791238339473" type="Const" version="opset1">
			<data offset="160" size="4" shape="" element_type="f32"/>
			<output>
				<port id="0" precision="FP32"/>
			</output>
		</layer>
		<layer id="12" name="123801238443556" type="Const" version="opset1">
			<data offset="0" size="4" shape="" element_type="f32"/>
			<output>
				<port id="0" precision="FP32"/>
			</output>
		</layer>
		<layer id="13" name="123811238541357" type="Const" version="opset1">
			<data offset="160" size="4" shape="" element_type="f32"/>
			<output>
				<port id="0" precision="FP32"/>
			</output>
		</layer>
		<layer id="14" name="Constant_3091319743349" type="Const" version="opset1">
			<data offset="8" size="16" shape="2" element_type="i64"/>
			<output>
				<port id="0" precision="I64">
					<dim>2</dim>
				</port>
			</output>
		</layer>
		<layer id="15" name="106081061239578" type="Const" version="opset1">
			<data offset="164" size="4" shape="" element_type="f32"/>
			<output>
				<port id="0" precision="FP32"/>
			</output>
		</layer>
		<layer id="16" name="106091061339704" type="Const" version="opset1">
			<data offset="168" size="4" shape="" element_type="f32"/>
			<output>
				<port id="0" precision="FP32"/>
			</output>
		</layer>
		<layer id="17" name="106101061439221" type="Const" version="opset1">
			<data offset="164" size="4" shape="" element_type="f32"/>
			<output>
				<port id="0" precision="FP32"/>
			</output>
		</layer>
		<layer id="18" name="106111061540724" type="Const" version="opset1">
			<data offset="168" size="4" shape="" element_type="f32"/>
			<output>
				<port id="0" precision="FP32"/>
			</output>
		</layer>
		<layer id="19" name="7567756938852" type="Const" version="opset1">
			<data offset="32" size="128" shape="1,32,1,1" element_type="f32"/>
			<output>
				<port id="0" precision="FP32">
					<dim>1</dim>
					<dim>32</dim>
					<dim>1</dim>
					<dim>1</dim>
				</port>
			</output>
		</layer>
		<layer id="20" name="127681277240859" type="Const" version="opset1">
			<data offset="0" size="4" shape="" element_type="f32"/>
			<output>
				<port id="0" precision="FP32"/>
			</output>
		</layer>
		<layer id="21" name="127691277340892" type="Const" version="opset1">
			<data offset="172" size="4" shape="" element_type="f32"/>
			<output>
				<port id="0" precision="FP32"/>
			</output>
		</layer>
		<layer id="22" name="127701277439491" type="Const" version="opset1">
			<data offset="0" size="4" shape="" element_type="f32"/>
			<output>
				<port id="0" precision="FP32"/>
			</output>
		</layer>
		<layer id="23" name="127711277540862" type="Const" version="opset1">
			<data offset="172" size="4" shape="" element_type="f32"/>
			<output>
				<port id="0" precision="FP32"/>
			</output>
		</layer>
		<layer id="24" name="Constant_2994318542731" type="Const" version="opset1">
			<data offset="8" size="16" shape="2" element_type="i64"/>
			<output>
				<port id="0" precision="I64">
					<dim>2</dim>
				</port>
			</output>
		</layer>
		<layer id="25" name="124381244242974" type="Const" version="opset1">
			<data offset="176" size="4" shape="" element_type="f32"/>
			<output>
				<port id="0" precision="FP32"/>
			</output>
		</layer>
		<layer id="26" name="124391244339830" type="Const" version="opset1">
			<data offset="180" size="4" shape="" element_type="f32"/>
			<output>
				<port id="0" precision="FP32"/>
			</output>
		</layer>
		<layer id="27" name="124401244440421" type="Const" version="opset1">
			<data offset="176" size="4" shape="" element_type="f32"/>
			<output>
				<port id="0" precision="FP32"/>
			</output>
		</layer>
		<layer id="28" name="124411244542320" type="Const" version="opset1">
			<data offset="180" size="4" shape="" element_type="f32"/>
			<output>
				<port id="0" precision="FP32"/>
			</output>
		</layer>
		<layer id="29" name="7563756541267" type="Const" version="opset1">
			<data offset="32" size="128" shape="1,32,1,1" element_type="f32"/>
			<output>
				<port id="0" precision="FP32">
					<dim>1</dim>
					<dim>32</dim>
					<dim>1</dim>
					<dim>1</dim>
				</port>
			</output>
		</layer>
		<layer id="30" name="125581256240070" type="Const" version="opset1">
			<data offset="0" size="4" shape="" element_type="f32"/>
			<output>
				<port id="0" precision="FP32"/>
			</output>
		</layer>
		<layer id="31" name="125591256339590" type="Const" version="opset1">
			<data offset="184" size="4" shape="" element_type="f32"/>
			<output>
				<port id="0" precision="FP32"/>
			</output>
		</layer>
		<layer id="32" name="125601256441558" type="Const" version="opset1">
			<data offset="0" size="4" shape="" element_type="f32"/>
			<output>
				<port id="0" precision="FP32"/>
			</output>
		</layer>
		<layer id="33" name="125611256543706" type="Const" version="opset1">
			<data offset="184" size="4" shape="" element_type="f32"/>
			<output>
				<port id="0" precision="FP32"/>
			</output>
		</layer>
		<layer id="34" name="Constant_2897317341993" type="Const" version="opset1">
			<data offset="8" size="16" shape="2" element_type="i64"/>
			<output>
				<port id="0" precision="I64">
					<dim>2</dim>
				</port>
			</output>
		</layer>
		<layer id="35" name="122281223241690" type="Const" version="opset1">
			<data offset="188" size="4" shape="" element_type="f32"/>
			<output>
				<port id="0" precision="FP32"/>
			</output>
		</layer>
		<layer id="36" name="122291223339146" type="Const" version="opset1">
			<data offset="192" size="4" shape="" element_type="f32"/>
			<output>
				<port id="0" precision="FP32"/>
			</output>
		</layer>
		<layer id="37" name="122301223440343" type="Const" version="opset1">
			<data offset="188" size="4" shape="" element_type="f32"/>
			<output>
				<port id="0" precision="FP32"/>
			</output>
		</layer>
		<layer id="38" name="122311223542989" type="Const" version="opset1">
			<data offset="192" size="4" shape="" element_type="f32"/>
			<output>
				<port id="0" precision="FP32"/>
			</output>
		</layer>
		<layer id="39" name="7559756139281" type="Const" version="opset1">
			<data offset="32" size="128" shape="1,32,1,1" element_type="f32"/>
			<output>
				<port id="0" precision="FP32">
					<dim>1</dim>
					<dim>32</dim>
					<dim>1</dim>
					<dim>1</dim>
				</port>
			</output>
		</layer>
		<layer id="40" name="102281023238603" type="Const" version="opset1">
			<data offset="196" size="4" shape="" element_type="f32"/>
			<output>
				<port id="0" precision="FP32"/>
			</output>
		</layer>
		<layer id="41" name="102291023338699" type="Const" version="opset1">
			<data offset="200" size="4" shape="" element_type="f32"/>
			<output>
				<port id="0" precision="FP32"/>
			</output>
		</layer>
		<layer id="42" name="102301023441444" type="Const" version="opset1">
			<data offset="196" size="4" shape="" element_type="f32"/>
			<output>
				<port id="0" precision="FP32"/>
			</output>
		</layer>
		<layer id="43" name="102311023541801" type="Const" version="opset1">
			<data offset="200" size="4" shape="" element_type="f32"/>
			<output>
				<port id="0" precision="FP32"/>
			</output>
		</layer>
		<layer id="44" name="112881129241405" type="Const" version="opset1">
			<data offset="204" size="4" shape="" element_type="f32"/>
			<output>
				<port id="0" precision="FP32"/>
			</output>
		</layer>
		<layer id="45" name="112891129340208" type="Const" version="opset1">
			<data offset="208" size="4" shape="" element_type="f32"/>
			<output>
				<port id="0" precision="FP32"/>
			</output>
		</layer>
		<layer id="46" name="112901129443682" type="Const" version="opset1">
			<data offset="204" size="4" shape="" element_type="f32"/>
			<output>
				<port id="0" precision="FP32"/>
			</output>
		</layer>
		<layer id="47" name="112911129539005" type="Const" version="opset1">
			<data offset="208" size="4" shape="" element_type="f32"/>
			<output>
				<port id="0" precision="FP32"/>
			</output>
		</layer>
		<layer id="48" name="108181082238600" type="Const" version="opset1">
			<data offset="212" size="4" shape="" element_type="f32"/>
			<output>
				<port id="0" precision="FP32"/>
			</output>
		</layer>
		<layer id="49" name="108191082338384" type="Const" version="opset1">
			<data offset="216" size="4" shape="" element_type="f32"/>
			<output>
				<port id="0" precision="FP32"/>
			</output>
		</layer>
		<layer id="50" name="108201082443661" type="Const" version="opset1">
			<data offset="212" size="4" shape="" element_type="f32"/>
			<output>
				<port id="0" precision="FP32"/>
			</output>
		</layer>
		<layer id="51" name="108211082541951" type="Const" version="opset1">
			<data offset="216" size="4" shape="" element_type="f32"/>
			<output>
				<port id="0" precision="FP32"/>
			</output>
		</layer>
		<layer id="52" name="107381074238357" type="Const" version="opset1">
			<data offset="220" size="4" shape="" element_type="f32"/>
			<output>
				<port id="0" precision="FP32"/>
			</output>
		</layer>
		<layer id="53" name="107391074340241" type="Const" version="opset1">
			<data offset="224" size="4" shape="" element_type="f32"/>
			<output>
				<port id="0" precision="FP32"/>
			</output>
		</layer>
		<layer id="54" name="107401074443154" type="Const" version="opset1">
			<data offset="220" size="4" shape="" element_type="f32"/>
			<output>
				<port id="0" precision="FP32"/>
			</output>
		</layer>
		<layer id="55" name="107411074539911" type="Const" version="opset1">
			<data offset="224" size="4" shape="" element_type="f32"/>
			<output>
				<port id="0" precision="FP32"/>
			</output>
		</layer>
		<layer id="56" name="106981070240517" type="Const" version="opset1">
			<data offset="228" size="4" shape="" element_type="f32"/>
			<output>
				<port id="0" precision="FP32"/>
			</output>
		</layer>
		<layer id="57" name="106991070341525" type="Const" version="opset1">
			<data offset="232" size="4" shape="" element_type="f32"/>
			<output>
				<port id="0" precision="FP32"/>
			</output>
		</layer>
		<layer id="58" name="107001070441567" type="Const" version="opset1">
			<data offset="228" size="4" shape="" element_type="f32"/>
			<output>
				<port id="0" precision="FP32"/>
			</output>
		</layer>
		<layer id="59" name="107011070540481" type="Const" version="opset1">
			<data offset="232" size="4" shape="" element_type="f32"/>
			<output>
				<port id="0" precision="FP32"/>
			</output>
		</layer>
		<layer id="60" name="105281053241960" type="Const" version="opset1">
			<data offset="0" size="4" shape="" element_type="f32"/>
			<output>
				<port id="0" precision="FP32"/>
			</output>
		</layer>
		<layer id="61" name="105291053342272" type="Const" version="opset1">
			<data offset="236" size="4" shape="" element_type="f32"/>
			<output>
				<port id="0" precision="FP32"/>
			</output>
		</layer>
		<layer id="62" name="105301053439095" type="Const" version="opset1">
			<data offset="0" size="4" shape="" element_type="f32"/>
			<output>
				<port id="0" precision="FP32"/>
			</output>
		</layer>
		<layer id="63" name="105311053542656" type="Const" version="opset1">
			<data offset="236" size="4" shape="" element_type="f32"/>
			<output>
				<port id="0" precision="FP32"/>
			</output>
		</layer>
		<layer id="64" name="108481085241459" type="Const" version="opset1">
			<data offset="240" size="768" shape="1,192,1,1" element_type="f32"/>
			<output>
				<port id="0" precision="FP32">
					<dim>1</dim>
					<dim>192</dim>
					<dim>1</dim>
					<dim>1</dim>
				</port>
			</output>
		</layer>
		<layer id="65" name="108491085343601" type="Const" version="opset1">
			<data offset="1008" size="768" shape="1,192,1,1" element_type="f32"/>
			<output>
				<port id="0" precision="FP32">
					<dim>1</dim>
					<dim>192</dim>
					<dim>1</dim>
					<dim>1</dim>
				</port>
			</output>
		</layer>
		<layer id="66" name="108501085440523" type="Const" version="opset1">
			<data offset="240" size="768" shape="1,192,1,1" element_type="f32"/>
			<output>
				<port id="0" precision="FP32">
					<dim>1</dim>
					<dim>192</dim>
					<dim>1</dim>
					<dim>1</dim>
				</port>
			</output>
		</layer>
		<layer id="67" name="108511085540685" type="Const" version="opset1">
			<data offset="1008" size="768" shape="1,192,1,1" element_type="f32"/>
			<output>
				<port id="0" precision="FP32">
					<dim>1</dim>
					<dim>192</dim>
					<dim>1</dim>
					<dim>1</dim>
				</port>
			</output>
		</layer>
		<layer id="68" name="107081071240262" type="Const" version="opset1">
			<data offset="1776" size="4" shape="" element_type="f32"/>
			<output>
				<port id="0" precision="FP32"/>
			</output>
		</layer>
		<layer id="69" name="107091071341909" type="Const" version="opset1">
			<data offset="1780" size="4" shape="" element_type="f32"/>
			<output>
				<port id="0" precision="FP32"/>
			</output>
		</layer>
		<layer id="70" name="107101071442467" type="Const" version="opset1">
			<data offset="1776" size="4" shape="" element_type="f32"/>
			<output>
				<port id="0" precision="FP32"/>
			</output>
		</layer>
		<layer id="71" name="107111071542446" type="Const" version="opset1">
			<data offset="1780" size="4" shape="" element_type="f32"/>
			<output>
				<port id="0" precision="FP32"/>
			</output>
		</layer>
		<layer id="72" name="102881029238864" type="Const" version="opset1">
			<data offset="1784" size="4" shape="" element_type="f32"/>
			<output>
				<port id="0" precision="FP32"/>
			</output>
		</layer>
		<layer id="73" name="102891029340979" type="Const" version="opset1">
			<data offset="1788" size="4" shape="" element_type="f32"/>
			<output>
				<port id="0" precision="FP32"/>
			</output>
		</layer>
		<layer id="74" name="102901029441834" type="Const" version="opset1">
			<data offset="1784" size="4" shape="" element_type="f32"/>
			<output>
				<port id="0" precision="FP32"/>
			</output>
		</layer>
		<layer id="75" name="102911029542140" type="Const" version="opset1">
			<data offset="1788" size="4" shape="" element_type="f32"/>
			<output>
				<port id="0" precision="FP32"/>
			</output>
		</layer>
		<layer id="76" name="100781008243679" type="Const" version="opset1">
			<data offset="0" size="4" shape="" element_type="f32"/>
			<output>
				<port id="0" precision="FP32"/>
			</output>
		</layer>
		<layer id="77" name="100791008342956" type="Const" version="opset1">
			<data offset="1792" size="4" shape="" element_type="f32"/>
			<output>
				<port id="0" precision="FP32"/>
			</output>
		</layer>
		<layer id="78" name="100801008439317" type="Const" version="opset1">
			<data offset="0" size="4" shape="" element_type="f32"/>
			<output>
				<port id="0" precision="FP32"/>
			</output>
		</layer>
		<layer id="79" name="100811008539776" type="Const" version="opset1">
			<data offset="1792" size="4" shape="" element_type="f32"/>
			<output>
				<port id="0" precision="FP32"/>
			</output>
		</layer>
		<layer id="80" name="110481105243082" type="Const" version="opset1">
			<data offset="240" size="768" shape="1,192,1,1" element_type="f32"/>
			<output>
				<port id="0" precision="FP32">
					<dim>1</dim>
					<dim>192</dim>
					<dim>1</dim>
					<dim>1</dim>
				</port>
			</output>
		</layer>
		<layer id="81" name="110491105341969" type="Const" version="opset1">
			<data offset="1796" size="768" shape="1,192,1,1" element_type="f32"/>
			<output>
				<port id="0" precision="FP32">
					<dim>1</dim>
					<dim>192</dim>
					<dim>1</dim>
					<dim>1</dim>
				</port>
			</output>
		</layer>
		<layer id="82" name="110501105441678" type="Const" version="opset1">
			<data offset="240" size="768" shape="1,192,1,1" element_type="f32"/>
			<output>
				<port id="0" precision="FP32">
					<dim>1</dim>
					<dim>192</dim>
					<dim>1</dim>
					<dim>1</dim>
				</port>
			</output>
		</layer>
		<layer id="83" name="110511105541093" type="Const" version="opset1">
			<data offset="1796" size="768" shape="1,192,1,1" element_type="f32"/>
			<output>
				<port id="0" precision="FP32">
					<dim>1</dim>
					<dim>192</dim>
					<dim>1</dim>
					<dim>1</dim>
				</port>
			</output>
		</layer>
		<layer id="84" name="102981030243208" type="Const" version="opset1">
			<data offset="2564" size="4" shape="" element_type="f32"/>
			<output>
				<port id="0" precision="FP32"/>
			</output>
		</layer>
		<layer id="85" name="102991030342227" type="Const" version="opset1">
			<data offset="2568" size="4" shape="" element_type="f32"/>
			<output>
				<port id="0" precision="FP32"/>
			</output>
		</layer>
		<layer id="86" name="103001030441870" type="Const" version="opset1">
			<data offset="2564" size="4" shape="" element_type="f32"/>
			<output>
				<port id="0" precision="FP32"/>
			</output>
		</layer>
		<layer id="87" name="103011030540820" type="Const" version="opset1">
			<data offset="2568" size="4" shape="" element_type="f32"/>
			<output>
				<port id="0" precision="FP32"/>
			</output>
		</layer>
		<layer id="88" name="119481195240910" type="Const" version="opset1">
			<data offset="0" size="4" shape="" element_type="f32"/>
			<output>
				<port id="0" precision="FP32"/>
			</output>
		</layer>
		<layer id="89" name="119491195340919" type="Const" version="opset1">
			<data offset="2572" size="4" shape="" element_type="f32"/>
			<output>
				<port id="0" precision="FP32"/>
			</output>
		</layer>
		<layer id="90" name="119501195440607" type="Const" version="opset1">
			<data offset="0" size="4" shape="" element_type="f32"/>
			<output>
				<port id="0" precision="FP32"/>
			</output>
		</layer>
		<layer id="91" name="119511195540112" type="Const" version="opset1">
			<data offset="2572" size="4" shape="" element_type="f32"/>
			<output>
				<port id="0" precision="FP32"/>
			</output>
		</layer>
		<layer id="92" name="125381254242509" type="Const" version="opset1">
			<data offset="2576" size="576" shape="1,144,1,1" element_type="f32"/>
			<output>
				<port id="0" precision="FP32">
					<dim>1</dim>
					<dim>144</dim>
					<dim>1</dim>
					<dim>1</dim>
				</port>
			</output>
		</layer>
		<layer id="93" name="125391254339128" type="Const" version="opset1">
			<data offset="3152" size="576" shape="1,144,1,1" element_type="f32"/>
			<output>
				<port id="0" precision="FP32">
					<dim>1</dim>
					<dim>144</dim>
					<dim>1</dim>
					<dim>1</dim>
				</port>
			</output>
		</layer>
		<layer id="94" name="125401254441393" type="Const" version="opset1">
			<data offset="2576" size="576" shape="1,144,1,1" element_type="f32"/>
			<output>
				<port id="0" precision="FP32">
					<dim>1</dim>
					<dim>144</dim>
					<dim>1</dim>
					<dim>1</dim>
				</port>
			</output>
		</layer>
		<layer id="95" name="125411254540961" type="Const" version="opset1">
			<data offset="3152" size="576" shape="1,144,1,1" element_type="f32"/>
			<output>
				<port id="0" precision="FP32">
					<dim>1</dim>
					<dim>144</dim>
					<dim>1</dim>
					<dim>1</dim>
				</port>
			</output>
		</layer>
		<layer id="96" name="9898990238927" type="Const" version="opset1">
			<data offset="3728" size="4" shape="" element_type="f32"/>
			<output>
				<port id="0" precision="FP32"/>
			</output>
		</layer>
		<layer id="97" name="9899990340547" type="Const" version="opset1">
			<data offset="3732" size="4" shape="" element_type="f32"/>
			<output>
				<port id="0" precision="FP32"/>
			</output>
		</layer>
		<layer id="98" name="9900990440049" type="Const" version="opset1">
			<data offset="3728" size="4" shape="" element_type="f32"/>
			<output>
				<port id="0" precision="FP32"/>
			</output>
		</layer>
		<layer id="99" name="9901990539566" type="Const" version="opset1">
			<data offset="3732" size="4" shape="" element_type="f32"/>
			<output>
				<port id="0" precision="FP32"/>
			</output>
		</layer>
		<layer id="100" name="101181012243502" type="Const" version="opset1">
			<data offset="3736" size="4" shape="" element_type="f32"/>
			<output>
				<port id="0" precision="FP32"/>
			</output>
		</layer>
		<layer id="101" name="101191012343355" type="Const" version="opset1">
			<data offset="3740" size="4" shape="" element_type="f32"/>
			<output>
				<port id="0" precision="FP32"/>
			</output>
		</layer>
		<layer id="102" name="101201012442785" type="Const" version="opset1">
			<data offset="3736" size="4" shape="" element_type="f32"/>
			<output>
				<port id="0" precision="FP32"/>
			</output>
		</layer>
		<layer id="103" name="101211012539833" type="Const" version="opset1">
			<data offset="3740" size="4" shape="" element_type="f32"/>
			<output>
				<port id="0" precision="FP32"/>
			</output>
		</layer>
		<layer id="104" name="125781258242977" type="Const" version="opset1">
			<data offset="0" size="4" shape="" element_type="f32"/>
			<output>
				<port id="0" precision="FP32"/>
			</output>
		</layer>
		<layer id="105" name="125791258342968" type="Const" version="opset1">
			<data offset="3744" size="4" shape="" element_type="f32"/>
			<output>
				<port id="0" precision="FP32"/>
			</output>
		</layer>
		<layer id="106" name="125801258443379" type="Const" version="opset1">
			<data offset="0" size="4" shape="" element_type="f32"/>
			<output>
				<port id="0" precision="FP32"/>
			</output>
		</layer>
		<layer id="107" name="125811258538564" type="Const" version="opset1">
			<data offset="3744" size="4" shape="" element_type="f32"/>
			<output>
				<port id="0" precision="FP32"/>
			</output>
		</layer>
		<layer id="108" name="109981100240667" type="Const" version="opset1">
			<data offset="2576" size="576" shape="1,144,1,1" element_type="f32"/>
			<output>
				<port id="0" precision="FP32">
					<dim>1</dim>
					<dim>144</dim>
					<dim>1</dim>
					<dim>1</dim>
				</port>
			</output>
		</layer>
		<layer id="109" name="109991100340025" type="Const" version="opset1">
			<data offset="3748" size="576" shape="1,144,1,1" element_type="f32"/>
			<output>
				<port id="0" precision="FP32">
					<dim>1</dim>
					<dim>144</dim>
					<dim>1</dim>
					<dim>1</dim>
				</port>
			</output>
		</layer>
		<layer id="110" name="110001100442437" type="Const" version="opset1">
			<data offset="2576" size="576" shape="1,144,1,1" element_type="f32"/>
			<output>
				<port id="0" precision="FP32">
					<dim>1</dim>
					<dim>144</dim>
					<dim>1</dim>
					<dim>1</dim>
				</port>
			</output>
		</layer>
		<layer id="111" name="110011100540085" type="Const" version="opset1">
			<data offset="3748" size="576" shape="1,144,1,1" element_type="f32"/>
			<output>
				<port id="0" precision="FP32">
					<dim>1</dim>
					<dim>144</dim>
					<dim>1</dim>
					<dim>1</dim>
				</port>
			</output>
		</layer>
		<layer id="112" name="101281013238597" type="Const" version="opset1">
			<data offset="4324" size="4" shape="" element_type="f32"/>
			<output>
				<port id="0" precision="FP32"/>
			</output>
		</layer>
		<layer id="113" name="101291013340598" type="Const" version="opset1">
			<data offset="4328" size="4" shape="" element_type="f32"/>
			<output>
				<port id="0" precision="FP32"/>
			</output>
		</layer>
		<layer id="114" name="101301013442791" type="Const" version="opset1">
			<data offset="4324" size="4" shape="" element_type="f32"/>
			<output>
				<port id="0" precision="FP32"/>
			</output>
		</layer>
		<layer id="115" name="101311013541630" type="Const" version="opset1">
			<data offset="4328" size="4" shape="" element_type="f32"/>
			<output>
				<port id="0" precision="FP32"/>
			</output>
		</layer>
		<layer id="116" name="126281263241756" type="Const" version="opset1">
			<data offset="0" size="4" shape="" element_type="f32"/>
			<output>
				<port id="0" precision="FP32"/>
			</output>
		</layer>
		<layer id="117" name="126291263343442" type="Const" version="opset1">
			<data offset="4332" size="4" shape="" element_type="f32"/>
			<output>
				<port id="0" precision="FP32"/>
			</output>
		</layer>
		<layer id="118" name="126301263442194" type="Const" version="opset1">
			<data offset="0" size="4" shape="" element_type="f32"/>
			<output>
				<port id="0" precision="FP32"/>
			</output>
		</layer>
		<layer id="119" name="126311263539986" type="Const" version="opset1">
			<data offset="4332" size="4" shape="" element_type="f32"/>
			<output>
				<port id="0" precision="FP32"/>
			</output>
		</layer>
		<layer id="120" name="122581226242365" type="Const" version="opset1">
			<data offset="4336" size="384" shape="1,96,1,1" element_type="f32"/>
			<output>
				<port id="0" precision="FP32">
					<dim>1</dim>
					<dim>96</dim>
					<dim>1</dim>
					<dim>1</dim>
				</port>
			</output>
		</layer>
		<layer id="121" name="122591226341822" type="Const" version="opset1">
			<data offset="4720" size="384" shape="1,96,1,1" element_type="f32"/>
			<output>
				<port id="0" precision="FP32">
					<dim>1</dim>
					<dim>96</dim>
					<dim>1</dim>
					<dim>1</dim>
				</port>
			</output>
		</layer>
		<layer id="122" name="122601226439359" type="Const" version="opset1">
			<data offset="4336" size="384" shape="1,96,1,1" element_type="f32"/>
			<output>
				<port id="0" precision="FP32">
					<dim>1</dim>
					<dim>96</dim>
					<dim>1</dim>
					<dim>1</dim>
				</port>
			</output>
		</layer>
		<layer id="123" name="122611226540220" type="Const" version="opset1">
			<data offset="4720" size="384" shape="1,96,1,1" element_type="f32"/>
			<output>
				<port id="0" precision="FP32">
					<dim>1</dim>
					<dim>96</dim>
					<dim>1</dim>
					<dim>1</dim>
				</port>
			</output>
		</layer>
		<layer id="124" name="124981250239080" type="Const" version="opset1">
			<data offset="5104" size="4" shape="" element_type="f32"/>
			<output>
				<port id="0" precision="FP32"/>
			</output>
		</layer>
		<layer id="125" name="124991250339743" type="Const" version="opset1">
			<data offset="5108" size="4" shape="" element_type="f32"/>
			<output>
				<port id="0" precision="FP32"/>
			</output>
		</layer>
		<layer id="126" name="125001250443106" type="Const" version="opset1">
			<data offset="5104" size="4" shape="" element_type="f32"/>
			<output>
				<port id="0" precision="FP32"/>
			</output>
		</layer>
		<layer id="127" name="125011250542185" type="Const" version="opset1">
			<data offset="5108" size="4" shape="" element_type="f32"/>
			<output>
				<port id="0" precision="FP32"/>
			</output>
		</layer>
		<layer id="128" name="109381094242080" type="Const" version="opset1">
			<data offset="0" size="4" shape="" element_type="f32"/>
			<output>
				<port id="0" precision="FP32"/>
			</output>
		</layer>
		<layer id="129" name="109391094340307" type="Const" version="opset1">
			<data offset="5112" size="4" shape="" element_type="f32"/>
			<output>
				<port id="0" precision="FP32"/>
			</output>
		</layer>
		<layer id="130" name="109401094439761" type="Const" version="opset1">
			<data offset="0" size="4" shape="" element_type="f32"/>
			<output>
				<port id="0" precision="FP32"/>
			</output>
		</layer>
		<layer id="131" name="109411094543190" type="Const" version="opset1">
			<data offset="5112" size="4" shape="" element_type="f32"/>
			<output>
				<port id="0" precision="FP32"/>
			</output>
		</layer>
		<layer id="132" name="118481185242317" type="Const" version="opset1">
			<data offset="32" size="128" shape="1,32,1,1" element_type="f32"/>
			<output>
				<port id="0" precision="FP32">
					<dim>1</dim>
					<dim>32</dim>
					<dim>1</dim>
					<dim>1</dim>
				</port>
			</output>
		</layer>
		<layer id="133" name="118491185342653" type="Const" version="opset1">
			<data offset="5116" size="128" shape="1,32,1,1" element_type="f32"/>
			<output>
				<port id="0" precision="FP32">
					<dim>1</dim>
					<dim>32</dim>
					<dim>1</dim>
					<dim>1</dim>
				</port>
			</output>
		</layer>
		<layer id="134" name="118501185438774" type="Const" version="opset1">
			<data offset="32" size="128" shape="1,32,1,1" element_type="f32"/>
			<output>
				<port id="0" precision="FP32">
					<dim>1</dim>
					<dim>32</dim>
					<dim>1</dim>
					<dim>1</dim>
				</port>
			</output>
		</layer>
		<layer id="135" name="118511185539407" type="Const" version="opset1">
			<data offset="5116" size="128" shape="1,32,1,1" element_type="f32"/>
			<output>
				<port id="0" precision="FP32">
					<dim>1</dim>
					<dim>32</dim>
					<dim>1</dim>
					<dim>1</dim>
				</port>
			</output>
		</layer>
		<layer id="136" name="109581096242806" type="Const" version="opset1">
			<data offset="0" size="4" shape="" element_type="f32"/>
			<output>
				<port id="0" precision="FP32"/>
			</output>
		</layer>
		<layer id="137" name="109591096342542" type="Const" version="opset1">
			<data offset="5244" size="4" shape="" element_type="f32"/>
			<output>
				<port id="0" precision="FP32"/>
			</output>
		</layer>
		<layer id="138" name="109601096440463" type="Const" version="opset1">
			<data offset="0" size="4" shape="" element_type="f32"/>
			<output>
				<port id="0" precision="FP32"/>
			</output>
		</layer>
		<layer id="139" name="109611096538834" type="Const" version="opset1">
			<data offset="5244" size="4" shape="" element_type="f32"/>
			<output>
				<port id="0" precision="FP32"/>
			</output>
		</layer>
		<layer id="140" name="118281183239596" type="Const" version="opset1">
			<data offset="0" size="4" shape="" element_type="f32"/>
			<output>
				<port id="0" precision="FP32"/>
			</output>
		</layer>
		<layer id="141" name="118291183338942" type="Const" version="opset1">
			<data offset="5248" size="4" shape="" element_type="f32"/>
			<output>
				<port id="0" precision="FP32"/>
			</output>
		</layer>
		<layer id="142" name="118301183438444" type="Const" version="opset1">
			<data offset="0" size="4" shape="" element_type="f32"/>
			<output>
				<port id="0" precision="FP32"/>
			</output>
		</layer>
		<layer id="143" name="118311183539071" type="Const" version="opset1">
			<data offset="5248" size="4" shape="" element_type="f32"/>
			<output>
				<port id="0" precision="FP32"/>
			</output>
		</layer>
		<layer id="145" name="Constant_66047274940475" type="Const" version="opset1">
			<data offset="5252" size="2" shape="1,1,1,1" element_type="f16"/>
			<output>
				<port id="0" precision="FP16">
					<dim>1</dim>
					<dim>1</dim>
					<dim>1</dim>
					<dim>1</dim>
				</port>
			</output>
		</layer>
		<layer id="146" name="Constant_66047274923292/restored_convert" type="Convert" version="opset1">
			<data destination_type="f32"/>
			<rt_info>
				<attribute name="decompression" version="0"/>
			</rt_info>
			<input>
				<port id="0">
					<dim>1</dim>
					<dim>1</dim>
					<dim>1</dim>
					<dim>1</dim>
				</port>
			</input>
			<output>
				<port id="1" precision="FP32">
					<dim>1</dim>
					<dim>1</dim>
					<dim>1</dim>
					<dim>1</dim>
				</port>
			</output>
		</layer>
		<layer id="147" name="Divide_12332" type="Multiply" version="opset1">
			<data auto_broadcast="numpy"/>
			<rt_info>
				<attribute name="preprocessing" version="0"/>
			</rt_info>
			<input>
				<port id="0">
					<dim>1</dim>
					<dim>3</dim>
					<dim>256</dim>
					<dim>448</dim>
				</port>
				<port id="1">
					<dim>1</dim>
					<dim>1</dim>
					<dim>1</dim>
					<dim>1</dim>
				</port>
			</input>
			<output>
				<port id="2" precision="FP32">
					<dim>1</dim>
					<dim>3</dim>
					<dim>256</dim>
					<dim>448</dim>
				</port>
			</output>
		</layer>
		<layer id="148" name="Multiply_62261/fq_input_0" type="FakeQuantize" version="opset1">
			<data levels="256" auto_broadcast="numpy"/>
			<input>
				<port id="0">
					<dim>1</dim>
					<dim>3</dim>
					<dim>256</dim>
					<dim>448</dim>
				</port>
				<port id="1"/>
				<port id="2"/>
				<port id="3"/>
				<port id="4"/>
			</input>
			<output>
				<port id="5" precision="FP32">
					<dim>1</dim>
					<dim>3</dim>
					<dim>256</dim>
					<dim>448</dim>
				</port>
			</output>
		</layer>
		<layer id="149" name="Multiply_62261/fq_weights_1/scale2724242761" type="Const" version="opset1">
			<data offset="5254" size="128" shape="32,1,1,1" element_type="f32"/>
			<output>
				<port id="0" precision="FP32">
					<dim>32</dim>
					<dim>1</dim>
					<dim>1</dim>
					<dim>1</dim>
				</port>
			</output>
		</layer>
		<layer id="150" name="Gather_66046275223293/restored_convert/quantized2723440988" type="Const" version="opset1">
			<data offset="5382" size="864" shape="32,3,3,3" element_type="i8"/>
			<output>
				<port id="0" precision="I8">
					<dim>32</dim>
					<dim>3</dim>
					<dim>3</dim>
					<dim>3</dim>
				</port>
			</output>
		</layer>
		<layer id="151" name="Gather_66046275223293/restored_convert/quantized/to_f32" type="Convert" version="opset1">
			<data destination_type="f32"/>
			<input>
				<port id="0">
					<dim>32</dim>
					<dim>3</dim>
					<dim>3</dim>
					<dim>3</dim>
				</port>
			</input>
			<output>
				<port id="1" precision="FP32">
					<dim>32</dim>
					<dim>3</dim>
					<dim>3</dim>
					<dim>3</dim>
				</port>
			</output>
		</layer>
		<layer id="152" name="Multiply_62261/fq_weights_1/mulpiply_by_scale" type="Multiply" version="opset1">
			<data auto_broadcast="numpy"/>
			<input>
				<port id="0">
					<dim>32</dim>
					<dim>3</dim>
					<dim>3</dim>
					<dim>3</dim>
				</port>
				<port id="1">
					<dim>32</dim>
					<dim>1</dim>
					<dim>1</dim>
					<dim>1</dim>
				</port>
			</input>
			<output>
				<port id="2" precision="FP32">
					<dim>32</dim>
					<dim>3</dim>
					<dim>3</dim>
					<dim>3</dim>
				</port>
			</output>
		</layer>
		<layer id="153" name="Multiply_62261" type="Convolution" version="opset1">
			<data auto_pad="explicit" strides="2,2" dilations="1,1" pads_begin="1,1" pads_end="1,1"/>
			<rt_info>
				<attribute name="preprocessing" version="0"/>
			</rt_info>
			<input>
				<port id="0">
					<dim>1</dim>
					<dim>3</dim>
					<dim>256</dim>
					<dim>448</dim>
				</port>
				<port id="1">
					<dim>32</dim>
					<dim>3</dim>
					<dim>3</dim>
					<dim>3</dim>
				</port>
			</input>
			<output>
				<port id="2" precision="FP32">
					<dim>1</dim>
					<dim>32</dim>
					<dim>128</dim>
					<dim>224</dim>
				</port>
			</output>
		</layer>
		<layer id="154" name="Constant_62266275538405" type="Const" version="opset1">
			<data offset="6246" size="64" shape="1,32,1,1" element_type="f16"/>
			<output>
				<port id="0" precision="FP16">
					<dim>1</dim>
					<dim>32</dim>
					<dim>1</dim>
					<dim>1</dim>
				</port>
			</output>
		</layer>
		<layer id="155" name="Constant_62266275523294/restored_convert" type="Convert" version="opset1">
			<data destination_type="f32"/>
			<rt_info>
				<attribute name="decompression" version="0"/>
			</rt_info>
			<input>
				<port id="0">
					<dim>1</dim>
					<dim>32</dim>
					<dim>1</dim>
					<dim>1</dim>
				</port>
			</input>
			<output>
				<port id="1" precision="FP32">
					<dim>1</dim>
					<dim>32</dim>
					<dim>1</dim>
					<dim>1</dim>
				</port>
			</output>
		</layer>
		<layer id="156" name="BatchNormalization_7" type="Add" version="opset1">
			<data auto_broadcast="numpy"/>
			<input>
				<port id="0">
					<dim>1</dim>
					<dim>32</dim>
					<dim>128</dim>
					<dim>224</dim>
				</port>
				<port id="1">
					<dim>1</dim>
					<dim>32</dim>
					<dim>1</dim>
					<dim>1</dim>
				</port>
			</input>
			<output>
				<port id="2" precision="FP32" names="371">
					<dim>1</dim>
					<dim>32</dim>
					<dim>128</dim>
					<dim>224</dim>
				</port>
			</output>
		</layer>
		<layer id="157" name="Clip_8" type="Clamp" version="opset1">
			<data max="6" min="0"/>
			<input>
				<port id="0">
					<dim>1</dim>
					<dim>32</dim>
					<dim>128</dim>
					<dim>224</dim>
				</port>
			</input>
			<output>
				<port id="1" precision="FP32" names="372">
					<dim>1</dim>
					<dim>32</dim>
					<dim>128</dim>
					<dim>224</dim>
				</port>
			</output>
		</layer>
		<layer id="158" name="Multiply_62268/fq_input_0" type="FakeQuantize" version="opset1">
			<data levels="256" auto_broadcast="numpy"/>
			<input>
				<port id="0">
					<dim>1</dim>
					<dim>32</dim>
					<dim>128</dim>
					<dim>224</dim>
				</port>
				<port id="1"/>
				<port id="2"/>
				<port id="3"/>
				<port id="4"/>
			</input>
			<output>
				<port id="5" precision="FP32">
					<dim>1</dim>
					<dim>32</dim>
					<dim>128</dim>
					<dim>224</dim>
				</port>
			</output>
		</layer>
		<layer id="159" name="Multiply_62268/fq_weights_1/scale2688238552" type="Const" version="opset1">
			<data offset="6310" size="128" shape="32,1,1,1" element_type="f32"/>
			<output>
				<port id="0" precision="FP32">
					<dim>32</dim>
					<dim>1</dim>
					<dim>1</dim>
					<dim>1</dim>
				</port>
			</output>
		</layer>
		<layer id="160" name="Multiply_62661275923295/restored_convert/quantized2687441201" type="Const" version="opset1">
			<data offset="6438" size="1024" shape="32,32,1,1" element_type="i8"/>
			<output>
				<port id="0" precision="I8">
					<dim>32</dim>
					<dim>32</dim>
					<dim>1</dim>
					<dim>1</dim>
				</port>
			</output>
		</layer>
		<layer id="161" name="Multiply_62661275923295/restored_convert/quantized/to_f32" type="Convert" version="opset1">
			<data destination_type="f32"/>
			<input>
				<port id="0">
					<dim>32</dim>
					<dim>32</dim>
					<dim>1</dim>
					<dim>1</dim>
				</port>
			</input>
			<output>
				<port id="1" precision="FP32">
					<dim>32</dim>
					<dim>32</dim>
					<dim>1</dim>
					<dim>1</dim>
				</port>
			</output>
		</layer>
		<layer id="162" name="Multiply_62268/fq_weights_1/mulpiply_by_scale" type="Multiply" version="opset1">
			<data auto_broadcast="numpy"/>
			<input>
				<port id="0">
					<dim>32</dim>
					<dim>32</dim>
					<dim>1</dim>
					<dim>1</dim>
				</port>
				<port id="1">
					<dim>32</dim>
					<dim>1</dim>
					<dim>1</dim>
					<dim>1</dim>
				</port>
			</input>
			<output>
				<port id="2" precision="FP32">
					<dim>32</dim>
					<dim>32</dim>
					<dim>1</dim>
					<dim>1</dim>
				</port>
			</output>
		</layer>
		<layer id="163" name="Multiply_62268" type="Convolution" version="opset1">
			<data auto_pad="explicit" strides="1,1" dilations="1,1" pads_begin="0,0" pads_end="0,0"/>
			<input>
				<port id="0">
					<dim>1</dim>
					<dim>32</dim>
					<dim>128</dim>
					<dim>224</dim>
				</port>
				<port id="1">
					<dim>32</dim>
					<dim>32</dim>
					<dim>1</dim>
					<dim>1</dim>
				</port>
			</input>
			<output>
				<port id="2" precision="FP32">
					<dim>1</dim>
					<dim>32</dim>
					<dim>128</dim>
					<dim>224</dim>
				</port>
			</output>
		</layer>
		<layer id="164" name="Constant_62273276240469" type="Const" version="opset1">
			<data offset="7462" size="64" shape="1,32,1,1" element_type="f16"/>
			<output>
				<port id="0" precision="FP16">
					<dim>1</dim>
					<dim>32</dim>
					<dim>1</dim>
					<dim>1</dim>
				</port>
			</output>
		</layer>
		<layer id="165" name="Constant_62273276223296/restored_convert" type="Convert" version="opset1">
			<data destination_type="f32"/>
			<rt_info>
				<attribute name="decompression" version="0"/>
			</rt_info>
			<input>
				<port id="0">
					<dim>1</dim>
					<dim>32</dim>
					<dim>1</dim>
					<dim>1</dim>
				</port>
			</input>
			<output>
				<port id="1" precision="FP32">
					<dim>1</dim>
					<dim>32</dim>
					<dim>1</dim>
					<dim>1</dim>
				</port>
			</output>
		</layer>
		<layer id="166" name="BatchNormalization_10" type="Add" version="opset1">
			<data auto_broadcast="numpy"/>
			<input>
				<port id="0">
					<dim>1</dim>
					<dim>32</dim>
					<dim>128</dim>
					<dim>224</dim>
				</port>
				<port id="1">
					<dim>1</dim>
					<dim>32</dim>
					<dim>1</dim>
					<dim>1</dim>
				</port>
			</input>
			<output>
				<port id="2" precision="FP32" names="374">
					<dim>1</dim>
					<dim>32</dim>
					<dim>128</dim>
					<dim>224</dim>
				</port>
			</output>
		</layer>
		<layer id="167" name="Clip_11" type="Clamp" version="opset1">
			<data max="6" min="0"/>
			<input>
				<port id="0">
					<dim>1</dim>
					<dim>32</dim>
					<dim>128</dim>
					<dim>224</dim>
				</port>
			</input>
			<output>
				<port id="1" precision="FP32" names="375">
					<dim>1</dim>
					<dim>32</dim>
					<dim>128</dim>
					<dim>224</dim>
				</port>
			</output>
		</layer>
		<layer id="168" name="Multiply_62275/fq_input_0" type="FakeQuantize" version="opset1">
			<data levels="256" auto_broadcast="numpy"/>
			<input>
				<port id="0">
					<dim>1</dim>
					<dim>32</dim>
					<dim>128</dim>
					<dim>224</dim>
				</port>
				<port id="1">
					<dim>1</dim>
					<dim>32</dim>
					<dim>1</dim>
					<dim>1</dim>
				</port>
				<port id="2">
					<dim>1</dim>
					<dim>32</dim>
					<dim>1</dim>
					<dim>1</dim>
				</port>
				<port id="3">
					<dim>1</dim>
					<dim>32</dim>
					<dim>1</dim>
					<dim>1</dim>
				</port>
				<port id="4">
					<dim>1</dim>
					<dim>32</dim>
					<dim>1</dim>
					<dim>1</dim>
				</port>
			</input>
			<output>
				<port id="5" precision="FP32">
					<dim>1</dim>
					<dim>32</dim>
					<dim>128</dim>
					<dim>224</dim>
				</port>
			</output>
		</layer>
		<layer id="169" name="Multiply_62275/fq_weights_1/scale2778238723" type="Const" version="opset1">
			<data offset="7526" size="128" shape="32,1,1,1" element_type="f32"/>
			<output>
				<port id="0" precision="FP32">
					<dim>32</dim>
					<dim>1</dim>
					<dim>1</dim>
					<dim>1</dim>
				</port>
			</output>
		</layer>
		<layer id="170" name="Multiply_62670276623297/restored_convert/quantized2777438855" type="Const" version="opset1">
			<data offset="7654" size="288" shape="32,1,3,3" element_type="i8"/>
			<output>
				<port id="0" precision="I8">
					<dim>32</dim>
					<dim>1</dim>
					<dim>3</dim>
					<dim>3</dim>
				</port>
			</output>
		</layer>
		<layer id="171" name="Multiply_62670276623297/restored_convert/quantized/to_f32" type="Convert" version="opset1">
			<data destination_type="f32"/>
			<input>
				<port id="0">
					<dim>32</dim>
					<dim>1</dim>
					<dim>3</dim>
					<dim>3</dim>
				</port>
			</input>
			<output>
				<port id="1" precision="FP32">
					<dim>32</dim>
					<dim>1</dim>
					<dim>3</dim>
					<dim>3</dim>
				</port>
			</output>
		</layer>
		<layer id="172" name="Multiply_62275/fq_weights_1/mulpiply_by_scale" type="Multiply" version="opset1">
			<data auto_broadcast="numpy"/>
			<input>
				<port id="0">
					<dim>32</dim>
					<dim>1</dim>
					<dim>3</dim>
					<dim>3</dim>
				</port>
				<port id="1">
					<dim>32</dim>
					<dim>1</dim>
					<dim>1</dim>
					<dim>1</dim>
				</port>
			</input>
			<output>
				<port id="2" precision="FP32">
					<dim>32</dim>
					<dim>1</dim>
					<dim>3</dim>
					<dim>3</dim>
				</port>
			</output>
		</layer>
		<layer id="173" name="Multiply_62275/GOI_weights_part3448339923" type="Const" version="opset1">
			<data offset="7942" size="24" shape="3" element_type="i64"/>
			<output>
				<port id="0" precision="I64">
					<dim>3</dim>
				</port>
			</output>
		</layer>
		<layer id="174" name="Multiply_62275/WeightsShape" type="ShapeOf" version="opset3">
			<data output_type="i64"/>
			<input>
				<port id="0">
					<dim>32</dim>
					<dim>1</dim>
					<dim>3</dim>
					<dim>3</dim>
				</port>
			</input>
			<output>
				<port id="1" precision="I64">
					<dim>4</dim>
				</port>
			</output>
		</layer>
		<layer id="175" name="Multiply_62275/XY_weights_part_input_port_1/value3447942083" type="Const" version="opset1">
			<data offset="8" size="16" shape="2" element_type="i64"/>
			<output>
				<port id="0" precision="I64">
					<dim>2</dim>
				</port>
			</output>
		</layer>
		<layer id="176" name="Multiply_62275/XY_weights_part_input_port_2/value3448140838" type="Const" version="opset1">
			<data offset="7966" size="8" shape="" element_type="i64"/>
			<output>
				<port id="0" precision="I64"/>
			</output>
		</layer>
		<layer id="177" name="Multiply_62275/XY_weights_part" type="Gather" version="opset8">
			<data batch_dims="0"/>
			<input>
				<port id="0">
					<dim>4</dim>
				</port>
				<port id="1">
					<dim>2</dim>
				</port>
				<port id="2"/>
			</input>
			<output>
				<port id="3" precision="I64">
					<dim>2</dim>
				</port>
			</output>
		</layer>
		<layer id="178" name="Multiply_62275/weights_shape" type="Concat" version="opset1">
			<data axis="0"/>
			<input>
				<port id="0">
					<dim>3</dim>
				</port>
				<port id="1">
					<dim>2</dim>
				</port>
			</input>
			<output>
				<port id="2" precision="I64">
					<dim>5</dim>
				</port>
			</output>
		</layer>
		<layer id="179" name="34485" type="Reshape" version="opset1">
			<data special_zero="true"/>
			<input>
				<port id="0">
					<dim>32</dim>
					<dim>1</dim>
					<dim>3</dim>
					<dim>3</dim>
				</port>
				<port id="1">
					<dim>5</dim>
				</port>
			</input>
			<output>
				<port id="2" precision="FP32">
					<dim>32</dim>
					<dim>1</dim>
					<dim>1</dim>
					<dim>3</dim>
					<dim>3</dim>
				</port>
			</output>
		</layer>
		<layer id="180" name="Multiply_62275" type="GroupConvolution" version="opset1">
			<data auto_pad="explicit" strides="1,1" dilations="1,1" pads_begin="1,1" pads_end="1,1"/>
			<input>
				<port id="0">
					<dim>1</dim>
					<dim>32</dim>
					<dim>128</dim>
					<dim>224</dim>
				</port>
				<port id="1">
					<dim>32</dim>
					<dim>1</dim>
					<dim>1</dim>
					<dim>3</dim>
					<dim>3</dim>
				</port>
			</input>
			<output>
				<port id="2" precision="FP32" names="376">
					<dim>1</dim>
					<dim>32</dim>
					<dim>128</dim>
					<dim>224</dim>
				</port>
			</output>
		</layer>
		<layer id="181" name="Constant_62280276941639" type="Const" version="opset1">
			<data offset="7974" size="64" shape="1,32,1,1" element_type="f16"/>
			<output>
				<port id="0" precision="FP16">
					<dim>1</dim>
					<dim>32</dim>
					<dim>1</dim>
					<dim>1</dim>
				</port>
			</output>
		</layer>
		<layer id="182" name="Constant_62280276923298/restored_convert" type="Convert" version="opset1">
			<data destination_type="f32"/>
			<rt_info>
				<attribute name="decompression" version="0"/>
			</rt_info>
			<input>
				<port id="0">
					<dim>1</dim>
					<dim>32</dim>
					<dim>1</dim>
					<dim>1</dim>
				</port>
			</input>
			<output>
				<port id="1" precision="FP32">
					<dim>1</dim>
					<dim>32</dim>
					<dim>1</dim>
					<dim>1</dim>
				</port>
			</output>
		</layer>
		<layer id="183" name="BatchNormalization_13" type="Add" version="opset1">
			<data auto_broadcast="numpy"/>
			<input>
				<port id="0">
					<dim>1</dim>
					<dim>32</dim>
					<dim>128</dim>
					<dim>224</dim>
				</port>
				<port id="1">
					<dim>1</dim>
					<dim>32</dim>
					<dim>1</dim>
					<dim>1</dim>
				</port>
			</input>
			<output>
				<port id="2" precision="FP32" names="377">
					<dim>1</dim>
					<dim>32</dim>
					<dim>128</dim>
					<dim>224</dim>
				</port>
			</output>
		</layer>
		<layer id="184" name="Clip_14" type="Clamp" version="opset1">
			<data max="6" min="0"/>
			<input>
				<port id="0">
					<dim>1</dim>
					<dim>32</dim>
					<dim>128</dim>
					<dim>224</dim>
				</port>
			</input>
			<output>
				<port id="1" precision="FP32" names="378">
					<dim>1</dim>
					<dim>32</dim>
					<dim>128</dim>
					<dim>224</dim>
				</port>
			</output>
		</layer>
		<layer id="185" name="Multiply_62282/fq_input_0" type="FakeQuantize" version="opset1">
			<data levels="256" auto_broadcast="numpy"/>
			<input>
				<port id="0">
					<dim>1</dim>
					<dim>32</dim>
					<dim>128</dim>
					<dim>224</dim>
				</port>
				<port id="1"/>
				<port id="2"/>
				<port id="3"/>
				<port id="4"/>
			</input>
			<output>
				<port id="5" precision="FP32">
					<dim>1</dim>
					<dim>32</dim>
					<dim>128</dim>
					<dim>224</dim>
				</port>
			</output>
		</layer>
		<layer id="186" name="Multiply_62282/fq_weights_1/scale2772239152" type="Const" version="opset1">
			<data offset="8038" size="64" shape="16,1,1,1" element_type="f32"/>
			<output>
				<port id="0" precision="FP32">
					<dim>16</dim>
					<dim>1</dim>
					<dim>1</dim>
					<dim>1</dim>
				</port>
			</output>
		</layer>
		<layer id="187" name="Multiply_62678277323299/restored_convert/quantized2771438360" type="Const" version="opset1">
			<data offset="8102" size="512" shape="16,32,1,1" element_type="i8"/>
			<output>
				<port id="0" precision="I8">
					<dim>16</dim>
					<dim>32</dim>
					<dim>1</dim>
					<dim>1</dim>
				</port>
			</output>
		</layer>
		<layer id="188" name="Multiply_62678277323299/restored_convert/quantized/to_f32" type="Convert" version="opset1">
			<data destination_type="f32"/>
			<input>
				<port id="0">
					<dim>16</dim>
					<dim>32</dim>
					<dim>1</dim>
					<dim>1</dim>
				</port>
			</input>
			<output>
				<port id="1" precision="FP32">
					<dim>16</dim>
					<dim>32</dim>
					<dim>1</dim>
					<dim>1</dim>
				</port>
			</output>
		</layer>
		<layer id="189" name="Multiply_62282/fq_weights_1/mulpiply_by_scale" type="Multiply" version="opset1">
			<data auto_broadcast="numpy"/>
			<input>
				<port id="0">
					<dim>16</dim>
					<dim>32</dim>
					<dim>1</dim>
					<dim>1</dim>
				</port>
				<port id="1">
					<dim>16</dim>
					<dim>1</dim>
					<dim>1</dim>
					<dim>1</dim>
				</port>
			</input>
			<output>
				<port id="2" precision="FP32">
					<dim>16</dim>
					<dim>32</dim>
					<dim>1</dim>
					<dim>1</dim>
				</port>
			</output>
		</layer>
		<layer id="190" name="Multiply_62282" type="Convolution" version="opset1">
			<data auto_pad="explicit" strides="1,1" dilations="1,1" pads_begin="0,0" pads_end="0,0"/>
			<input>
				<port id="0">
					<dim>1</dim>
					<dim>32</dim>
					<dim>128</dim>
					<dim>224</dim>
				</port>
				<port id="1">
					<dim>16</dim>
					<dim>32</dim>
					<dim>1</dim>
					<dim>1</dim>
				</port>
			</input>
			<output>
				<port id="2" precision="FP32">
					<dim>1</dim>
					<dim>16</dim>
					<dim>128</dim>
					<dim>224</dim>
				</port>
			</output>
		</layer>
		<layer id="191" name="Constant_62287277643373" type="Const" version="opset1">
			<data offset="8614" size="32" shape="1,16,1,1" element_type="f16"/>
			<output>
				<port id="0" precision="FP16">
					<dim>1</dim>
					<dim>16</dim>
					<dim>1</dim>
					<dim>1</dim>
				</port>
			</output>
		</layer>
		<layer id="192" name="Constant_62287277623300/restored_convert" type="Convert" version="opset1">
			<data destination_type="f32"/>
			<rt_info>
				<attribute name="decompression" version="0"/>
			</rt_info>
			<input>
				<port id="0">
					<dim>1</dim>
					<dim>16</dim>
					<dim>1</dim>
					<dim>1</dim>
				</port>
			</input>
			<output>
				<port id="1" precision="FP32">
					<dim>1</dim>
					<dim>16</dim>
					<dim>1</dim>
					<dim>1</dim>
				</port>
			</output>
		</layer>
		<layer id="193" name="BatchNormalization_16" type="Add" version="opset1">
			<data auto_broadcast="numpy"/>
			<input>
				<port id="0">
					<dim>1</dim>
					<dim>16</dim>
					<dim>128</dim>
					<dim>224</dim>
				</port>
				<port id="1">
					<dim>1</dim>
					<dim>16</dim>
					<dim>1</dim>
					<dim>1</dim>
				</port>
			</input>
			<output>
				<port id="2" precision="FP32" names="380">
					<dim>1</dim>
					<dim>16</dim>
					<dim>128</dim>
					<dim>224</dim>
				</port>
			</output>
		</layer>
		<layer id="194" name="Multiply_62289/fq_input_0" type="FakeQuantize" version="opset1">
			<data levels="256" auto_broadcast="numpy"/>
			<input>
				<port id="0">
					<dim>1</dim>
					<dim>16</dim>
					<dim>128</dim>
					<dim>224</dim>
				</port>
				<port id="1"/>
				<port id="2"/>
				<port id="3"/>
				<port id="4"/>
			</input>
			<output>
				<port id="5" precision="FP32">
					<dim>1</dim>
					<dim>16</dim>
					<dim>128</dim>
					<dim>224</dim>
				</port>
			</output>
		</layer>
		<layer id="195" name="Multiply_62289/fq_weights_1/scale2700241537" type="Const" version="opset1">
			<data offset="8646" size="384" shape="96,1,1,1" element_type="f32"/>
			<output>
				<port id="0" precision="FP32">
					<dim>96</dim>
					<dim>1</dim>
					<dim>1</dim>
					<dim>1</dim>
				</port>
			</output>
		</layer>
		<layer id="196" name="Multiply_62687277923301/restored_convert/quantized2699442011" type="Const" version="opset1">
			<data offset="9030" size="1536" shape="96,16,1,1" element_type="i8"/>
			<output>
				<port id="0" precision="I8">
					<dim>96</dim>
					<dim>16</dim>
					<dim>1</dim>
					<dim>1</dim>
				</port>
			</output>
		</layer>
		<layer id="197" name="Multiply_62687277923301/restored_convert/quantized/to_f32" type="Convert" version="opset1">
			<data destination_type="f32"/>
			<input>
				<port id="0">
					<dim>96</dim>
					<dim>16</dim>
					<dim>1</dim>
					<dim>1</dim>
				</port>
			</input>
			<output>
				<port id="1" precision="FP32">
					<dim>96</dim>
					<dim>16</dim>
					<dim>1</dim>
					<dim>1</dim>
				</port>
			</output>
		</layer>
		<layer id="198" name="Multiply_62289/fq_weights_1/mulpiply_by_scale" type="Multiply" version="opset1">
			<data auto_broadcast="numpy"/>
			<input>
				<port id="0">
					<dim>96</dim>
					<dim>16</dim>
					<dim>1</dim>
					<dim>1</dim>
				</port>
				<port id="1">
					<dim>96</dim>
					<dim>1</dim>
					<dim>1</dim>
					<dim>1</dim>
				</port>
			</input>
			<output>
				<port id="2" precision="FP32">
					<dim>96</dim>
					<dim>16</dim>
					<dim>1</dim>
					<dim>1</dim>
				</port>
			</output>
		</layer>
		<layer id="199" name="Multiply_62289" type="Convolution" version="opset1">
			<data auto_pad="explicit" strides="1,1" dilations="1,1" pads_begin="0,0" pads_end="0,0"/>
			<input>
				<port id="0">
					<dim>1</dim>
					<dim>16</dim>
					<dim>128</dim>
					<dim>224</dim>
				</port>
				<port id="1">
					<dim>96</dim>
					<dim>16</dim>
					<dim>1</dim>
					<dim>1</dim>
				</port>
			</input>
			<output>
				<port id="2" precision="FP32">
					<dim>1</dim>
					<dim>96</dim>
					<dim>128</dim>
					<dim>224</dim>
				</port>
			</output>
		</layer>
		<layer id="200" name="Constant_62294278239611" type="Const" version="opset1">
			<data offset="10566" size="192" shape="1,96,1,1" element_type="f16"/>
			<output>
				<port id="0" precision="FP16">
					<dim>1</dim>
					<dim>96</dim>
					<dim>1</dim>
					<dim>1</dim>
				</port>
			</output>
		</layer>
		<layer id="201" name="Constant_62294278223302/restored_convert" type="Convert" version="opset1">
			<data destination_type="f32"/>
			<rt_info>
				<attribute name="decompression" version="0"/>
			</rt_info>
			<input>
				<port id="0">
					<dim>1</dim>
					<dim>96</dim>
					<dim>1</dim>
					<dim>1</dim>
				</port>
			</input>
			<output>
				<port id="1" precision="FP32">
					<dim>1</dim>
					<dim>96</dim>
					<dim>1</dim>
					<dim>1</dim>
				</port>
			</output>
		</layer>
		<layer id="202" name="BatchNormalization_18" type="Add" version="opset1">
			<data auto_broadcast="numpy"/>
			<input>
				<port id="0">
					<dim>1</dim>
					<dim>96</dim>
					<dim>128</dim>
					<dim>224</dim>
				</port>
				<port id="1">
					<dim>1</dim>
					<dim>96</dim>
					<dim>1</dim>
					<dim>1</dim>
				</port>
			</input>
			<output>
				<port id="2" precision="FP32" names="382">
					<dim>1</dim>
					<dim>96</dim>
					<dim>128</dim>
					<dim>224</dim>
				</port>
			</output>
		</layer>
		<layer id="203" name="Clip_19" type="Clamp" version="opset1">
			<data max="6" min="0"/>
			<input>
				<port id="0">
					<dim>1</dim>
					<dim>96</dim>
					<dim>128</dim>
					<dim>224</dim>
				</port>
			</input>
			<output>
				<port id="1" precision="FP32" names="383">
					<dim>1</dim>
					<dim>96</dim>
					<dim>128</dim>
					<dim>224</dim>
				</port>
			</output>
		</layer>
		<layer id="204" name="Multiply_62296/fq_input_0" type="FakeQuantize" version="opset1">
			<data levels="256" auto_broadcast="numpy"/>
			<input>
				<port id="0">
					<dim>1</dim>
					<dim>96</dim>
					<dim>128</dim>
					<dim>224</dim>
				</port>
				<port id="1">
					<dim>1</dim>
					<dim>96</dim>
					<dim>1</dim>
					<dim>1</dim>
				</port>
				<port id="2">
					<dim>1</dim>
					<dim>96</dim>
					<dim>1</dim>
					<dim>1</dim>
				</port>
				<port id="3">
					<dim>1</dim>
					<dim>96</dim>
					<dim>1</dim>
					<dim>1</dim>
				</port>
				<port id="4">
					<dim>1</dim>
					<dim>96</dim>
					<dim>1</dim>
					<dim>1</dim>
				</port>
			</input>
			<output>
				<port id="5" precision="FP32">
					<dim>1</dim>
					<dim>96</dim>
					<dim>128</dim>
					<dim>224</dim>
				</port>
			</output>
		</layer>
		<layer id="205" name="Multiply_62296/fq_weights_1/scale2631242545" type="Const" version="opset1">
			<data offset="10758" size="384" shape="96,1,1,1" element_type="f32"/>
			<output>
				<port id="0" precision="FP32">
					<dim>96</dim>
					<dim>1</dim>
					<dim>1</dim>
					<dim>1</dim>
				</port>
			</output>
		</layer>
		<layer id="206" name="Multiply_62696278623303/restored_convert/quantized2630438876" type="Const" version="opset1">
			<data offset="11142" size="864" shape="96,1,3,3" element_type="i8"/>
			<output>
				<port id="0" precision="I8">
					<dim>96</dim>
					<dim>1</dim>
					<dim>3</dim>
					<dim>3</dim>
				</port>
			</output>
		</layer>
		<layer id="207" name="Multiply_62696278623303/restored_convert/quantized/to_f32" type="Convert" version="opset1">
			<data destination_type="f32"/>
			<input>
				<port id="0">
					<dim>96</dim>
					<dim>1</dim>
					<dim>3</dim>
					<dim>3</dim>
				</port>
			</input>
			<output>
				<port id="1" precision="FP32">
					<dim>96</dim>
					<dim>1</dim>
					<dim>3</dim>
					<dim>3</dim>
				</port>
			</output>
		</layer>
		<layer id="208" name="Multiply_62296/fq_weights_1/mulpiply_by_scale" type="Multiply" version="opset1">
			<data auto_broadcast="numpy"/>
			<input>
				<port id="0">
					<dim>96</dim>
					<dim>1</dim>
					<dim>3</dim>
					<dim>3</dim>
				</port>
				<port id="1">
					<dim>96</dim>
					<dim>1</dim>
					<dim>1</dim>
					<dim>1</dim>
				</port>
			</input>
			<output>
				<port id="2" precision="FP32">
					<dim>96</dim>
					<dim>1</dim>
					<dim>3</dim>
					<dim>3</dim>
				</port>
			</output>
		</layer>
		<layer id="209" name="Multiply_62296/GOI_weights_part3449740973" type="Const" version="opset1">
			<data offset="12006" size="24" shape="3" element_type="i64"/>
			<output>
				<port id="0" precision="I64">
					<dim>3</dim>
				</port>
			</output>
		</layer>
		<layer id="210" name="Multiply_62296/WeightsShape" type="ShapeOf" version="opset3">
			<data output_type="i64"/>
			<input>
				<port id="0">
					<dim>96</dim>
					<dim>1</dim>
					<dim>3</dim>
					<dim>3</dim>
				</port>
			</input>
			<output>
				<port id="1" precision="I64">
					<dim>4</dim>
				</port>
			</output>
		</layer>
		<layer id="211" name="Multiply_62296/XY_weights_part_input_port_1/value3449340250" type="Const" version="opset1">
			<data offset="8" size="16" shape="2" element_type="i64"/>
			<output>
				<port id="0" precision="I64">
					<dim>2</dim>
				</port>
			</output>
		</layer>
		<layer id="212" name="Multiply_62296/XY_weights_part_input_port_2/value3449540409" type="Const" version="opset1">
			<data offset="7966" size="8" shape="" element_type="i64"/>
			<output>
				<port id="0" precision="I64"/>
			</output>
		</layer>
		<layer id="213" name="Multiply_62296/XY_weights_part" type="Gather" version="opset8">
			<data batch_dims="0"/>
			<input>
				<port id="0">
					<dim>4</dim>
				</port>
				<port id="1">
					<dim>2</dim>
				</port>
				<port id="2"/>
			</input>
			<output>
				<port id="3" precision="I64">
					<dim>2</dim>
				</port>
			</output>
		</layer>
		<layer id="214" name="Multiply_62296/weights_shape" type="Concat" version="opset1">
			<data axis="0"/>
			<input>
				<port id="0">
					<dim>3</dim>
				</port>
				<port id="1">
					<dim>2</dim>
				</port>
			</input>
			<output>
				<port id="2" precision="I64">
					<dim>5</dim>
				</port>
			</output>
		</layer>
		<layer id="215" name="34499" type="Reshape" version="opset1">
			<data special_zero="true"/>
			<input>
				<port id="0">
					<dim>96</dim>
					<dim>1</dim>
					<dim>3</dim>
					<dim>3</dim>
				</port>
				<port id="1">
					<dim>5</dim>
				</port>
			</input>
			<output>
				<port id="2" precision="FP32">
					<dim>96</dim>
					<dim>1</dim>
					<dim>1</dim>
					<dim>3</dim>
					<dim>3</dim>
				</port>
			</output>
		</layer>
		<layer id="216" name="Multiply_62296" type="GroupConvolution" version="opset1">
			<data auto_pad="explicit" strides="2,2" dilations="1,1" pads_begin="1,1" pads_end="1,1"/>
			<input>
				<port id="0">
					<dim>1</dim>
					<dim>96</dim>
					<dim>128</dim>
					<dim>224</dim>
				</port>
				<port id="1">
					<dim>96</dim>
					<dim>1</dim>
					<dim>1</dim>
					<dim>3</dim>
					<dim>3</dim>
				</port>
			</input>
			<output>
				<port id="2" precision="FP32" names="384">
					<dim>1</dim>
					<dim>96</dim>
					<dim>64</dim>
					<dim>112</dim>
				</port>
			</output>
		</layer>
		<layer id="217" name="Constant_62301278942929" type="Const" version="opset1">
			<data offset="12030" size="192" shape="1,96,1,1" element_type="f16"/>
			<output>
				<port id="0" precision="FP16">
					<dim>1</dim>
					<dim>96</dim>
					<dim>1</dim>
					<dim>1</dim>
				</port>
			</output>
		</layer>
		<layer id="218" name="Constant_62301278923304/restored_convert" type="Convert" version="opset1">
			<data destination_type="f32"/>
			<rt_info>
				<attribute name="decompression" version="0"/>
			</rt_info>
			<input>
				<port id="0">
					<dim>1</dim>
					<dim>96</dim>
					<dim>1</dim>
					<dim>1</dim>
				</port>
			</input>
			<output>
				<port id="1" precision="FP32">
					<dim>1</dim>
					<dim>96</dim>
					<dim>1</dim>
					<dim>1</dim>
				</port>
			</output>
		</layer>
		<layer id="219" name="BatchNormalization_21" type="Add" version="opset1">
			<data auto_broadcast="numpy"/>
			<input>
				<port id="0">
					<dim>1</dim>
					<dim>96</dim>
					<dim>64</dim>
					<dim>112</dim>
				</port>
				<port id="1">
					<dim>1</dim>
					<dim>96</dim>
					<dim>1</dim>
					<dim>1</dim>
				</port>
			</input>
			<output>
				<port id="2" precision="FP32" names="385">
					<dim>1</dim>
					<dim>96</dim>
					<dim>64</dim>
					<dim>112</dim>
				</port>
			</output>
		</layer>
		<layer id="220" name="Clip_22" type="Clamp" version="opset1">
			<data max="6" min="0"/>
			<input>
				<port id="0">
					<dim>1</dim>
					<dim>96</dim>
					<dim>64</dim>
					<dim>112</dim>
				</port>
			</input>
			<output>
				<port id="1" precision="FP32" names="386">
					<dim>1</dim>
					<dim>96</dim>
					<dim>64</dim>
					<dim>112</dim>
				</port>
			</output>
		</layer>
		<layer id="221" name="Multiply_62303/fq_input_0" type="FakeQuantize" version="opset1">
			<data levels="256" auto_broadcast="numpy"/>
			<input>
				<port id="0">
					<dim>1</dim>
					<dim>96</dim>
					<dim>64</dim>
					<dim>112</dim>
				</port>
				<port id="1"/>
				<port id="2"/>
				<port id="3"/>
				<port id="4"/>
			</input>
			<output>
				<port id="5" precision="FP32">
					<dim>1</dim>
					<dim>96</dim>
					<dim>64</dim>
					<dim>112</dim>
				</port>
			</output>
		</layer>
		<layer id="222" name="Multiply_62303/fq_weights_1/scale2634239947" type="Const" version="opset1">
			<data offset="12222" size="96" shape="24,1,1,1" element_type="f32"/>
			<output>
				<port id="0" precision="FP32">
					<dim>24</dim>
					<dim>1</dim>
					<dim>1</dim>
					<dim>1</dim>
				</port>
			</output>
		</layer>
		<layer id="223" name="Multiply_62704279323305/restored_convert/quantized2633438624" type="Const" version="opset1">
			<data offset="12318" size="2304" shape="24,96,1,1" element_type="i8"/>
			<output>
				<port id="0" precision="I8">
					<dim>24</dim>
					<dim>96</dim>
					<dim>1</dim>
					<dim>1</dim>
				</port>
			</output>
		</layer>
		<layer id="224" name="Multiply_62704279323305/restored_convert/quantized/to_f32" type="Convert" version="opset1">
			<data destination_type="f32"/>
			<input>
				<port id="0">
					<dim>24</dim>
					<dim>96</dim>
					<dim>1</dim>
					<dim>1</dim>
				</port>
			</input>
			<output>
				<port id="1" precision="FP32">
					<dim>24</dim>
					<dim>96</dim>
					<dim>1</dim>
					<dim>1</dim>
				</port>
			</output>
		</layer>
		<layer id="225" name="Multiply_62303/fq_weights_1/mulpiply_by_scale" type="Multiply" version="opset1">
			<data auto_broadcast="numpy"/>
			<input>
				<port id="0">
					<dim>24</dim>
					<dim>96</dim>
					<dim>1</dim>
					<dim>1</dim>
				</port>
				<port id="1">
					<dim>24</dim>
					<dim>1</dim>
					<dim>1</dim>
					<dim>1</dim>
				</port>
			</input>
			<output>
				<port id="2" precision="FP32">
					<dim>24</dim>
					<dim>96</dim>
					<dim>1</dim>
					<dim>1</dim>
				</port>
			</output>
		</layer>
		<layer id="226" name="Multiply_62303" type="Convolution" version="opset1">
			<data auto_pad="explicit" strides="1,1" dilations="1,1" pads_begin="0,0" pads_end="0,0"/>
			<input>
				<port id="0">
					<dim>1</dim>
					<dim>96</dim>
					<dim>64</dim>
					<dim>112</dim>
				</port>
				<port id="1">
					<dim>24</dim>
					<dim>96</dim>
					<dim>1</dim>
					<dim>1</dim>
				</port>
			</input>
			<output>
				<port id="2" precision="FP32">
					<dim>1</dim>
					<dim>24</dim>
					<dim>64</dim>
					<dim>112</dim>
				</port>
			</output>
		</layer>
		<layer id="227" name="Constant_62308279640526" type="Const" version="opset1">
			<data offset="14622" size="48" shape="1,24,1,1" element_type="f16"/>
			<output>
				<port id="0" precision="FP16">
					<dim>1</dim>
					<dim>24</dim>
					<dim>1</dim>
					<dim>1</dim>
				</port>
			</output>
		</layer>
		<layer id="228" name="Constant_62308279623306/restored_convert" type="Convert" version="opset1">
			<data destination_type="f32"/>
			<rt_info>
				<attribute name="decompression" version="0"/>
			</rt_info>
			<input>
				<port id="0">
					<dim>1</dim>
					<dim>24</dim>
					<dim>1</dim>
					<dim>1</dim>
				</port>
			</input>
			<output>
				<port id="1" precision="FP32">
					<dim>1</dim>
					<dim>24</dim>
					<dim>1</dim>
					<dim>1</dim>
				</port>
			</output>
		</layer>
		<layer id="229" name="BatchNormalization_24" type="Add" version="opset1">
			<data auto_broadcast="numpy"/>
			<input>
				<port id="0">
					<dim>1</dim>
					<dim>24</dim>
					<dim>64</dim>
					<dim>112</dim>
				</port>
				<port id="1">
					<dim>1</dim>
					<dim>24</dim>
					<dim>1</dim>
					<dim>1</dim>
				</port>
			</input>
			<output>
				<port id="2" precision="FP32" names="388">
					<dim>1</dim>
					<dim>24</dim>
					<dim>64</dim>
					<dim>112</dim>
				</port>
			</output>
		</layer>
		<layer id="230" name="Add_33/fq_input_1" type="FakeQuantize" version="opset1">
			<data levels="256" auto_broadcast="numpy"/>
			<input>
				<port id="0">
					<dim>1</dim>
					<dim>24</dim>
					<dim>64</dim>
					<dim>112</dim>
				</port>
				<port id="1"/>
				<port id="2"/>
				<port id="3"/>
				<port id="4"/>
			</input>
			<output>
				<port id="5" precision="FP32">
					<dim>1</dim>
					<dim>24</dim>
					<dim>64</dim>
					<dim>112</dim>
				</port>
			</output>
		</layer>
		<layer id="231" name="Multiply_62310/fq_weights_1/scale2796242134" type="Const" version="opset1">
			<data offset="14670" size="576" shape="144,1,1,1" element_type="f32"/>
			<output>
				<port id="0" precision="FP32">
					<dim>144</dim>
					<dim>1</dim>
					<dim>1</dim>
					<dim>1</dim>
				</port>
			</output>
		</layer>
		<layer id="232" name="Multiply_62713279923307/restored_convert/quantized2795441180" type="Const" version="opset1">
			<data offset="15246" size="3456" shape="144,24,1,1" element_type="i8"/>
			<output>
				<port id="0" precision="I8">
					<dim>144</dim>
					<dim>24</dim>
					<dim>1</dim>
					<dim>1</dim>
				</port>
			</output>
		</layer>
		<layer id="233" name="Multiply_62713279923307/restored_convert/quantized/to_f32" type="Convert" version="opset1">
			<data destination_type="f32"/>
			<input>
				<port id="0">
					<dim>144</dim>
					<dim>24</dim>
					<dim>1</dim>
					<dim>1</dim>
				</port>
			</input>
			<output>
				<port id="1" precision="FP32">
					<dim>144</dim>
					<dim>24</dim>
					<dim>1</dim>
					<dim>1</dim>
				</port>
			</output>
		</layer>
		<layer id="234" name="Multiply_62310/fq_weights_1/mulpiply_by_scale" type="Multiply" version="opset1">
			<data auto_broadcast="numpy"/>
			<input>
				<port id="0">
					<dim>144</dim>
					<dim>24</dim>
					<dim>1</dim>
					<dim>1</dim>
				</port>
				<port id="1">
					<dim>144</dim>
					<dim>1</dim>
					<dim>1</dim>
					<dim>1</dim>
				</port>
			</input>
			<output>
				<port id="2" precision="FP32">
					<dim>144</dim>
					<dim>24</dim>
					<dim>1</dim>
					<dim>1</dim>
				</port>
			</output>
		</layer>
		<layer id="235" name="Multiply_62310" type="Convolution" version="opset1">
			<data auto_pad="explicit" strides="1,1" dilations="1,1" pads_begin="0,0" pads_end="0,0"/>
			<input>
				<port id="0">
					<dim>1</dim>
					<dim>24</dim>
					<dim>64</dim>
					<dim>112</dim>
				</port>
				<port id="1">
					<dim>144</dim>
					<dim>24</dim>
					<dim>1</dim>
					<dim>1</dim>
				</port>
			</input>
			<output>
				<port id="2" precision="FP32">
					<dim>1</dim>
					<dim>144</dim>
					<dim>64</dim>
					<dim>112</dim>
				</port>
			</output>
		</layer>
		<layer id="236" name="Constant_62315280241573" type="Const" version="opset1">
			<data offset="18702" size="288" shape="1,144,1,1" element_type="f16"/>
			<output>
				<port id="0" precision="FP16">
					<dim>1</dim>
					<dim>144</dim>
					<dim>1</dim>
					<dim>1</dim>
				</port>
			</output>
		</layer>
		<layer id="237" name="Constant_62315280223308/restored_convert" type="Convert" version="opset1">
			<data destination_type="f32"/>
			<rt_info>
				<attribute name="decompression" version="0"/>
			</rt_info>
			<input>
				<port id="0">
					<dim>1</dim>
					<dim>144</dim>
					<dim>1</dim>
					<dim>1</dim>
				</port>
			</input>
			<output>
				<port id="1" precision="FP32">
					<dim>1</dim>
					<dim>144</dim>
					<dim>1</dim>
					<dim>1</dim>
				</port>
			</output>
		</layer>
		<layer id="238" name="BatchNormalization_26" type="Add" version="opset1">
			<data auto_broadcast="numpy"/>
			<input>
				<port id="0">
					<dim>1</dim>
					<dim>144</dim>
					<dim>64</dim>
					<dim>112</dim>
				</port>
				<port id="1">
					<dim>1</dim>
					<dim>144</dim>
					<dim>1</dim>
					<dim>1</dim>
				</port>
			</input>
			<output>
				<port id="2" precision="FP32" names="390">
					<dim>1</dim>
					<dim>144</dim>
					<dim>64</dim>
					<dim>112</dim>
				</port>
			</output>
		</layer>
		<layer id="239" name="Clip_27" type="Clamp" version="opset1">
			<data max="6" min="0"/>
			<input>
				<port id="0">
					<dim>1</dim>
					<dim>144</dim>
					<dim>64</dim>
					<dim>112</dim>
				</port>
			</input>
			<output>
				<port id="1" precision="FP32" names="391">
					<dim>1</dim>
					<dim>144</dim>
					<dim>64</dim>
					<dim>112</dim>
				</port>
			</output>
		</layer>
		<layer id="240" name="Multiply_62317/fq_input_0" type="FakeQuantize" version="opset1">
			<data levels="256" auto_broadcast="numpy"/>
			<input>
				<port id="0">
					<dim>1</dim>
					<dim>144</dim>
					<dim>64</dim>
					<dim>112</dim>
				</port>
				<port id="1">
					<dim>1</dim>
					<dim>144</dim>
					<dim>1</dim>
					<dim>1</dim>
				</port>
				<port id="2">
					<dim>1</dim>
					<dim>144</dim>
					<dim>1</dim>
					<dim>1</dim>
				</port>
				<port id="3">
					<dim>1</dim>
					<dim>144</dim>
					<dim>1</dim>
					<dim>1</dim>
				</port>
				<port id="4">
					<dim>1</dim>
					<dim>144</dim>
					<dim>1</dim>
					<dim>1</dim>
				</port>
			</input>
			<output>
				<port id="5" precision="FP32">
					<dim>1</dim>
					<dim>144</dim>
					<dim>64</dim>
					<dim>112</dim>
				</port>
			</output>
		</layer>
		<layer id="241" name="Multiply_62317/fq_weights_1/scale2679240562" type="Const" version="opset1">
			<data offset="18990" size="576" shape="144,1,1,1" element_type="f32"/>
			<output>
				<port id="0" precision="FP32">
					<dim>144</dim>
					<dim>1</dim>
					<dim>1</dim>
					<dim>1</dim>
				</port>
			</output>
		</layer>
		<layer id="242" name="Multiply_62722280623309/restored_convert/quantized2678438720" type="Const" version="opset1">
			<data offset="19566" size="1296" shape="144,1,3,3" element_type="i8"/>
			<output>
				<port id="0" precision="I8">
					<dim>144</dim>
					<dim>1</dim>
					<dim>3</dim>
					<dim>3</dim>
				</port>
			</output>
		</layer>
		<layer id="243" name="Multiply_62722280623309/restored_convert/quantized/to_f32" type="Convert" version="opset1">
			<data destination_type="f32"/>
			<input>
				<port id="0">
					<dim>144</dim>
					<dim>1</dim>
					<dim>3</dim>
					<dim>3</dim>
				</port>
			</input>
			<output>
				<port id="1" precision="FP32">
					<dim>144</dim>
					<dim>1</dim>
					<dim>3</dim>
					<dim>3</dim>
				</port>
			</output>
		</layer>
		<layer id="244" name="Multiply_62317/fq_weights_1/mulpiply_by_scale" type="Multiply" version="opset1">
			<data auto_broadcast="numpy"/>
			<input>
				<port id="0">
					<dim>144</dim>
					<dim>1</dim>
					<dim>3</dim>
					<dim>3</dim>
				</port>
				<port id="1">
					<dim>144</dim>
					<dim>1</dim>
					<dim>1</dim>
					<dim>1</dim>
				</port>
			</input>
			<output>
				<port id="2" precision="FP32">
					<dim>144</dim>
					<dim>1</dim>
					<dim>3</dim>
					<dim>3</dim>
				</port>
			</output>
		</layer>
		<layer id="245" name="Multiply_62317/GOI_weights_part3451139470" type="Const" version="opset1">
			<data offset="20862" size="24" shape="3" element_type="i64"/>
			<output>
				<port id="0" precision="I64">
					<dim>3</dim>
				</port>
			</output>
		</layer>
		<layer id="246" name="Multiply_62317/WeightsShape" type="ShapeOf" version="opset3">
			<data output_type="i64"/>
			<input>
				<port id="0">
					<dim>144</dim>
					<dim>1</dim>
					<dim>3</dim>
					<dim>3</dim>
				</port>
			</input>
			<output>
				<port id="1" precision="I64">
					<dim>4</dim>
				</port>
			</output>
		</layer>
		<layer id="247" name="Multiply_62317/XY_weights_part_input_port_1/value3450739944" type="Const" version="opset1">
			<data offset="8" size="16" shape="2" element_type="i64"/>
			<output>
				<port id="0" precision="I64">
					<dim>2</dim>
				</port>
			</output>
		</layer>
		<layer id="248" name="Multiply_62317/XY_weights_part_input_port_2/value3450939740" type="Const" version="opset1">
			<data offset="7966" size="8" shape="" element_type="i64"/>
			<output>
				<port id="0" precision="I64"/>
			</output>
		</layer>
		<layer id="249" name="Multiply_62317/XY_weights_part" type="Gather" version="opset8">
			<data batch_dims="0"/>
			<input>
				<port id="0">
					<dim>4</dim>
				</port>
				<port id="1">
					<dim>2</dim>
				</port>
				<port id="2"/>
			</input>
			<output>
				<port id="3" precision="I64">
					<dim>2</dim>
				</port>
			</output>
		</layer>
		<layer id="250" name="Multiply_62317/weights_shape" type="Concat" version="opset1">
			<data axis="0"/>
			<input>
				<port id="0">
					<dim>3</dim>
				</port>
				<port id="1">
					<dim>2</dim>
				</port>
			</input>
			<output>
				<port id="2" precision="I64">
					<dim>5</dim>
				</port>
			</output>
		</layer>
		<layer id="251" name="34513" type="Reshape" version="opset1">
			<data special_zero="true"/>
			<input>
				<port id="0">
					<dim>144</dim>
					<dim>1</dim>
					<dim>3</dim>
					<dim>3</dim>
				</port>
				<port id="1">
					<dim>5</dim>
				</port>
			</input>
			<output>
				<port id="2" precision="FP32">
					<dim>144</dim>
					<dim>1</dim>
					<dim>1</dim>
					<dim>3</dim>
					<dim>3</dim>
				</port>
			</output>
		</layer>
		<layer id="252" name="Multiply_62317" type="GroupConvolution" version="opset1">
			<data auto_pad="explicit" strides="1,1" dilations="1,1" pads_begin="1,1" pads_end="1,1"/>
			<input>
				<port id="0">
					<dim>1</dim>
					<dim>144</dim>
					<dim>64</dim>
					<dim>112</dim>
				</port>
				<port id="1">
					<dim>144</dim>
					<dim>1</dim>
					<dim>1</dim>
					<dim>3</dim>
					<dim>3</dim>
				</port>
			</input>
			<output>
				<port id="2" precision="FP32" names="392">
					<dim>1</dim>
					<dim>144</dim>
					<dim>64</dim>
					<dim>112</dim>
				</port>
			</output>
		</layer>
		<layer id="253" name="Constant_62322280943073" type="Const" version="opset1">
			<data offset="20886" size="288" shape="1,144,1,1" element_type="f16"/>
			<output>
				<port id="0" precision="FP16">
					<dim>1</dim>
					<dim>144</dim>
					<dim>1</dim>
					<dim>1</dim>
				</port>
			</output>
		</layer>
		<layer id="254" name="Constant_62322280923310/restored_convert" type="Convert" version="opset1">
			<data destination_type="f32"/>
			<rt_info>
				<attribute name="decompression" version="0"/>
			</rt_info>
			<input>
				<port id="0">
					<dim>1</dim>
					<dim>144</dim>
					<dim>1</dim>
					<dim>1</dim>
				</port>
			</input>
			<output>
				<port id="1" precision="FP32">
					<dim>1</dim>
					<dim>144</dim>
					<dim>1</dim>
					<dim>1</dim>
				</port>
			</output>
		</layer>
		<layer id="255" name="BatchNormalization_29" type="Add" version="opset1">
			<data auto_broadcast="numpy"/>
			<input>
				<port id="0">
					<dim>1</dim>
					<dim>144</dim>
					<dim>64</dim>
					<dim>112</dim>
				</port>
				<port id="1">
					<dim>1</dim>
					<dim>144</dim>
					<dim>1</dim>
					<dim>1</dim>
				</port>
			</input>
			<output>
				<port id="2" precision="FP32" names="393">
					<dim>1</dim>
					<dim>144</dim>
					<dim>64</dim>
					<dim>112</dim>
				</port>
			</output>
		</layer>
		<layer id="256" name="Clip_30" type="Clamp" version="opset1">
			<data max="6" min="0"/>
			<input>
				<port id="0">
					<dim>1</dim>
					<dim>144</dim>
					<dim>64</dim>
					<dim>112</dim>
				</port>
			</input>
			<output>
				<port id="1" precision="FP32" names="394">
					<dim>1</dim>
					<dim>144</dim>
					<dim>64</dim>
					<dim>112</dim>
				</port>
			</output>
		</layer>
		<layer id="257" name="Multiply_62324/fq_input_0" type="FakeQuantize" version="opset1">
			<data levels="256" auto_broadcast="numpy"/>
			<input>
				<port id="0">
					<dim>1</dim>
					<dim>144</dim>
					<dim>64</dim>
					<dim>112</dim>
				</port>
				<port id="1"/>
				<port id="2"/>
				<port id="3"/>
				<port id="4"/>
			</input>
			<output>
				<port id="5" precision="FP32">
					<dim>1</dim>
					<dim>144</dim>
					<dim>64</dim>
					<dim>112</dim>
				</port>
			</output>
		</layer>
		<layer id="258" name="Multiply_62324/fq_weights_1/scale2763243139" type="Const" version="opset1">
			<data offset="21174" size="96" shape="24,1,1,1" element_type="f32"/>
			<output>
				<port id="0" precision="FP32">
					<dim>24</dim>
					<dim>1</dim>
					<dim>1</dim>
					<dim>1</dim>
				</port>
			</output>
		</layer>
		<layer id="259" name="Multiply_62730281323311/restored_convert/quantized2762441039" type="Const" version="opset1">
			<data offset="21270" size="3456" shape="24,144,1,1" element_type="i8"/>
			<output>
				<port id="0" precision="I8">
					<dim>24</dim>
					<dim>144</dim>
					<dim>1</dim>
					<dim>1</dim>
				</port>
			</output>
		</layer>
		<layer id="260" name="Multiply_62730281323311/restored_convert/quantized/to_f32" type="Convert" version="opset1">
			<data destination_type="f32"/>
			<input>
				<port id="0">
					<dim>24</dim>
					<dim>144</dim>
					<dim>1</dim>
					<dim>1</dim>
				</port>
			</input>
			<output>
				<port id="1" precision="FP32">
					<dim>24</dim>
					<dim>144</dim>
					<dim>1</dim>
					<dim>1</dim>
				</port>
			</output>
		</layer>
		<layer id="261" name="Multiply_62324/fq_weights_1/mulpiply_by_scale" type="Multiply" version="opset1">
			<data auto_broadcast="numpy"/>
			<input>
				<port id="0">
					<dim>24</dim>
					<dim>144</dim>
					<dim>1</dim>
					<dim>1</dim>
				</port>
				<port id="1">
					<dim>24</dim>
					<dim>1</dim>
					<dim>1</dim>
					<dim>1</dim>
				</port>
			</input>
			<output>
				<port id="2" precision="FP32">
					<dim>24</dim>
					<dim>144</dim>
					<dim>1</dim>
					<dim>1</dim>
				</port>
			</output>
		</layer>
		<layer id="262" name="Multiply_62324" type="Convolution" version="opset1">
			<data auto_pad="explicit" strides="1,1" dilations="1,1" pads_begin="0,0" pads_end="0,0"/>
			<input>
				<port id="0">
					<dim>1</dim>
					<dim>144</dim>
					<dim>64</dim>
					<dim>112</dim>
				</port>
				<port id="1">
					<dim>24</dim>
					<dim>144</dim>
					<dim>1</dim>
					<dim>1</dim>
				</port>
			</input>
			<output>
				<port id="2" precision="FP32">
					<dim>1</dim>
					<dim>24</dim>
					<dim>64</dim>
					<dim>112</dim>
				</port>
			</output>
		</layer>
		<layer id="263" name="Constant_62329281639821" type="Const" version="opset1">
			<data offset="24726" size="48" shape="1,24,1,1" element_type="f16"/>
			<output>
				<port id="0" precision="FP16">
					<dim>1</dim>
					<dim>24</dim>
					<dim>1</dim>
					<dim>1</dim>
				</port>
			</output>
		</layer>
		<layer id="264" name="Constant_62329281623312/restored_convert" type="Convert" version="opset1">
			<data destination_type="f32"/>
			<rt_info>
				<attribute name="decompression" version="0"/>
			</rt_info>
			<input>
				<port id="0">
					<dim>1</dim>
					<dim>24</dim>
					<dim>1</dim>
					<dim>1</dim>
				</port>
			</input>
			<output>
				<port id="1" precision="FP32">
					<dim>1</dim>
					<dim>24</dim>
					<dim>1</dim>
					<dim>1</dim>
				</port>
			</output>
		</layer>
		<layer id="265" name="BatchNormalization_32" type="Add" version="opset1">
			<data auto_broadcast="numpy"/>
			<input>
				<port id="0">
					<dim>1</dim>
					<dim>24</dim>
					<dim>64</dim>
					<dim>112</dim>
				</port>
				<port id="1">
					<dim>1</dim>
					<dim>24</dim>
					<dim>1</dim>
					<dim>1</dim>
				</port>
			</input>
			<output>
				<port id="2" precision="FP32" names="396">
					<dim>1</dim>
					<dim>24</dim>
					<dim>64</dim>
					<dim>112</dim>
				</port>
			</output>
		</layer>
		<layer id="266" name="Add_33/fq_input_0" type="FakeQuantize" version="opset1">
			<data levels="256" auto_broadcast="numpy"/>
			<input>
				<port id="0">
					<dim>1</dim>
					<dim>24</dim>
					<dim>64</dim>
					<dim>112</dim>
				</port>
				<port id="1"/>
				<port id="2"/>
				<port id="3"/>
				<port id="4"/>
			</input>
			<output>
				<port id="5" precision="FP32">
					<dim>1</dim>
					<dim>24</dim>
					<dim>64</dim>
					<dim>112</dim>
				</port>
			</output>
		</layer>
		<layer id="267" name="Add_33" type="Add" version="opset1">
			<data auto_broadcast="numpy"/>
			<input>
				<port id="0">
					<dim>1</dim>
					<dim>24</dim>
					<dim>64</dim>
					<dim>112</dim>
				</port>
				<port id="1">
					<dim>1</dim>
					<dim>24</dim>
					<dim>64</dim>
					<dim>112</dim>
				</port>
			</input>
			<output>
				<port id="2" precision="FP32" names="397">
					<dim>1</dim>
					<dim>24</dim>
					<dim>64</dim>
					<dim>112</dim>
				</port>
			</output>
		</layer>
		<layer id="268" name="Multiply_62331/fq_input_0" type="FakeQuantize" version="opset1">
			<data levels="256" auto_broadcast="numpy"/>
			<input>
				<port id="0">
					<dim>1</dim>
					<dim>24</dim>
					<dim>64</dim>
					<dim>112</dim>
				</port>
				<port id="1"/>
				<port id="2"/>
				<port id="3"/>
				<port id="4"/>
			</input>
			<output>
				<port id="5" precision="FP32">
					<dim>1</dim>
					<dim>24</dim>
					<dim>64</dim>
					<dim>112</dim>
				</port>
			</output>
		</layer>
		<layer id="269" name="Multiply_62331/fq_weights_1/scale2808243742" type="Const" version="opset1">
			<data offset="24774" size="576" shape="144,1,1,1" element_type="f32"/>
			<output>
				<port id="0" precision="FP32">
					<dim>144</dim>
					<dim>1</dim>
					<dim>1</dim>
					<dim>1</dim>
				</port>
			</output>
		</layer>
		<layer id="270" name="Multiply_62739282023313/restored_convert/quantized2807442434" type="Const" version="opset1">
			<data offset="25350" size="3456" shape="144,24,1,1" element_type="i8"/>
			<output>
				<port id="0" precision="I8">
					<dim>144</dim>
					<dim>24</dim>
					<dim>1</dim>
					<dim>1</dim>
				</port>
			</output>
		</layer>
		<layer id="271" name="Multiply_62739282023313/restored_convert/quantized/to_f32" type="Convert" version="opset1">
			<data destination_type="f32"/>
			<input>
				<port id="0">
					<dim>144</dim>
					<dim>24</dim>
					<dim>1</dim>
					<dim>1</dim>
				</port>
			</input>
			<output>
				<port id="1" precision="FP32">
					<dim>144</dim>
					<dim>24</dim>
					<dim>1</dim>
					<dim>1</dim>
				</port>
			</output>
		</layer>
		<layer id="272" name="Multiply_62331/fq_weights_1/mulpiply_by_scale" type="Multiply" version="opset1">
			<data auto_broadcast="numpy"/>
			<input>
				<port id="0">
					<dim>144</dim>
					<dim>24</dim>
					<dim>1</dim>
					<dim>1</dim>
				</port>
				<port id="1">
					<dim>144</dim>
					<dim>1</dim>
					<dim>1</dim>
					<dim>1</dim>
				</port>
			</input>
			<output>
				<port id="2" precision="FP32">
					<dim>144</dim>
					<dim>24</dim>
					<dim>1</dim>
					<dim>1</dim>
				</port>
			</output>
		</layer>
		<layer id="273" name="Multiply_62331" type="Convolution" version="opset1">
			<data auto_pad="explicit" strides="1,1" dilations="1,1" pads_begin="0,0" pads_end="0,0"/>
			<input>
				<port id="0">
					<dim>1</dim>
					<dim>24</dim>
					<dim>64</dim>
					<dim>112</dim>
				</port>
				<port id="1">
					<dim>144</dim>
					<dim>24</dim>
					<dim>1</dim>
					<dim>1</dim>
				</port>
			</input>
			<output>
				<port id="2" precision="FP32">
					<dim>1</dim>
					<dim>144</dim>
					<dim>64</dim>
					<dim>112</dim>
				</port>
			</output>
		</layer>
		<layer id="274" name="Constant_62336282339293" type="Const" version="opset1">
			<data offset="28806" size="288" shape="1,144,1,1" element_type="f16"/>
			<output>
				<port id="0" precision="FP16">
					<dim>1</dim>
					<dim>144</dim>
					<dim>1</dim>
					<dim>1</dim>
				</port>
			</output>
		</layer>
		<layer id="275" name="Constant_62336282323314/restored_convert" type="Convert" version="opset1">
			<data destination_type="f32"/>
			<rt_info>
				<attribute name="decompression" version="0"/>
			</rt_info>
			<input>
				<port id="0">
					<dim>1</dim>
					<dim>144</dim>
					<dim>1</dim>
					<dim>1</dim>
				</port>
			</input>
			<output>
				<port id="1" precision="FP32">
					<dim>1</dim>
					<dim>144</dim>
					<dim>1</dim>
					<dim>1</dim>
				</port>
			</output>
		</layer>
		<layer id="276" name="BatchNormalization_35" type="Add" version="opset1">
			<data auto_broadcast="numpy"/>
			<input>
				<port id="0">
					<dim>1</dim>
					<dim>144</dim>
					<dim>64</dim>
					<dim>112</dim>
				</port>
				<port id="1">
					<dim>1</dim>
					<dim>144</dim>
					<dim>1</dim>
					<dim>1</dim>
				</port>
			</input>
			<output>
				<port id="2" precision="FP32" names="399">
					<dim>1</dim>
					<dim>144</dim>
					<dim>64</dim>
					<dim>112</dim>
				</port>
			</output>
		</layer>
		<layer id="277" name="Clip_36" type="Clamp" version="opset1">
			<data max="6" min="0"/>
			<input>
				<port id="0">
					<dim>1</dim>
					<dim>144</dim>
					<dim>64</dim>
					<dim>112</dim>
				</port>
			</input>
			<output>
				<port id="1" precision="FP32" names="400">
					<dim>1</dim>
					<dim>144</dim>
					<dim>64</dim>
					<dim>112</dim>
				</port>
			</output>
		</layer>
		<layer id="278" name="Multiply_62338/fq_input_0" type="FakeQuantize" version="opset1">
			<data levels="256" auto_broadcast="numpy"/>
			<input>
				<port id="0">
					<dim>1</dim>
					<dim>144</dim>
					<dim>64</dim>
					<dim>112</dim>
				</port>
				<port id="1">
					<dim>1</dim>
					<dim>144</dim>
					<dim>1</dim>
					<dim>1</dim>
				</port>
				<port id="2">
					<dim>1</dim>
					<dim>144</dim>
					<dim>1</dim>
					<dim>1</dim>
				</port>
				<port id="3">
					<dim>1</dim>
					<dim>144</dim>
					<dim>1</dim>
					<dim>1</dim>
				</port>
				<port id="4">
					<dim>1</dim>
					<dim>144</dim>
					<dim>1</dim>
					<dim>1</dim>
				</port>
			</input>
			<output>
				<port id="5" precision="FP32">
					<dim>1</dim>
					<dim>144</dim>
					<dim>64</dim>
					<dim>112</dim>
				</port>
			</output>
		</layer>
		<layer id="279" name="Multiply_62338/fq_weights_1/scale2736239338" type="Const" version="opset1">
			<data offset="29094" size="576" shape="144,1,1,1" element_type="f32"/>
			<output>
				<port id="0" precision="FP32">
					<dim>144</dim>
					<dim>1</dim>
					<dim>1</dim>
					<dim>1</dim>
				</port>
			</output>
		</layer>
		<layer id="280" name="Multiply_62748282723315/restored_convert/quantized2735441036" type="Const" version="opset1">
			<data offset="29670" size="1296" shape="144,1,3,3" element_type="i8"/>
			<output>
				<port id="0" precision="I8">
					<dim>144</dim>
					<dim>1</dim>
					<dim>3</dim>
					<dim>3</dim>
				</port>
			</output>
		</layer>
		<layer id="281" name="Multiply_62748282723315/restored_convert/quantized/to_f32" type="Convert" version="opset1">
			<data destination_type="f32"/>
			<input>
				<port id="0">
					<dim>144</dim>
					<dim>1</dim>
					<dim>3</dim>
					<dim>3</dim>
				</port>
			</input>
			<output>
				<port id="1" precision="FP32">
					<dim>144</dim>
					<dim>1</dim>
					<dim>3</dim>
					<dim>3</dim>
				</port>
			</output>
		</layer>
		<layer id="282" name="Multiply_62338/fq_weights_1/mulpiply_by_scale" type="Multiply" version="opset1">
			<data auto_broadcast="numpy"/>
			<input>
				<port id="0">
					<dim>144</dim>
					<dim>1</dim>
					<dim>3</dim>
					<dim>3</dim>
				</port>
				<port id="1">
					<dim>144</dim>
					<dim>1</dim>
					<dim>1</dim>
					<dim>1</dim>
				</port>
			</input>
			<output>
				<port id="2" precision="FP32">
					<dim>144</dim>
					<dim>1</dim>
					<dim>3</dim>
					<dim>3</dim>
				</port>
			</output>
		</layer>
		<layer id="283" name="Multiply_62338/GOI_weights_part3452540736" type="Const" version="opset1">
			<data offset="20862" size="24" shape="3" element_type="i64"/>
			<output>
				<port id="0" precision="I64">
					<dim>3</dim>
				</port>
			</output>
		</layer>
		<layer id="284" name="Multiply_62338/WeightsShape" type="ShapeOf" version="opset3">
			<data output_type="i64"/>
			<input>
				<port id="0">
					<dim>144</dim>
					<dim>1</dim>
					<dim>3</dim>
					<dim>3</dim>
				</port>
			</input>
			<output>
				<port id="1" precision="I64">
					<dim>4</dim>
				</port>
			</output>
		</layer>
		<layer id="285" name="Multiply_62338/XY_weights_part_input_port_1/value3452142743" type="Const" version="opset1">
			<data offset="8" size="16" shape="2" element_type="i64"/>
			<output>
				<port id="0" precision="I64">
					<dim>2</dim>
				</port>
			</output>
		</layer>
		<layer id="286" name="Multiply_62338/XY_weights_part_input_port_2/value3452340301" type="Const" version="opset1">
			<data offset="7966" size="8" shape="" element_type="i64"/>
			<output>
				<port id="0" precision="I64"/>
			</output>
		</layer>
		<layer id="287" name="Multiply_62338/XY_weights_part" type="Gather" version="opset8">
			<data batch_dims="0"/>
			<input>
				<port id="0">
					<dim>4</dim>
				</port>
				<port id="1">
					<dim>2</dim>
				</port>
				<port id="2"/>
			</input>
			<output>
				<port id="3" precision="I64">
					<dim>2</dim>
				</port>
			</output>
		</layer>
		<layer id="288" name="Multiply_62338/weights_shape" type="Concat" version="opset1">
			<data axis="0"/>
			<input>
				<port id="0">
					<dim>3</dim>
				</port>
				<port id="1">
					<dim>2</dim>
				</port>
			</input>
			<output>
				<port id="2" precision="I64">
					<dim>5</dim>
				</port>
			</output>
		</layer>
		<layer id="289" name="34527" type="Reshape" version="opset1">
			<data special_zero="true"/>
			<input>
				<port id="0">
					<dim>144</dim>
					<dim>1</dim>
					<dim>3</dim>
					<dim>3</dim>
				</port>
				<port id="1">
					<dim>5</dim>
				</port>
			</input>
			<output>
				<port id="2" precision="FP32">
					<dim>144</dim>
					<dim>1</dim>
					<dim>1</dim>
					<dim>3</dim>
					<dim>3</dim>
				</port>
			</output>
		</layer>
		<layer id="290" name="Multiply_62338" type="GroupConvolution" version="opset1">
			<data auto_pad="explicit" strides="2,2" dilations="1,1" pads_begin="1,1" pads_end="1,1"/>
			<input>
				<port id="0">
					<dim>1</dim>
					<dim>144</dim>
					<dim>64</dim>
					<dim>112</dim>
				</port>
				<port id="1">
					<dim>144</dim>
					<dim>1</dim>
					<dim>1</dim>
					<dim>3</dim>
					<dim>3</dim>
				</port>
			</input>
			<output>
				<port id="2" precision="FP32" names="401">
					<dim>1</dim>
					<dim>144</dim>
					<dim>32</dim>
					<dim>56</dim>
				</port>
			</output>
		</layer>
		<layer id="291" name="Constant_62343283038456" type="Const" version="opset1">
			<data offset="30966" size="288" shape="1,144,1,1" element_type="f16"/>
			<output>
				<port id="0" precision="FP16">
					<dim>1</dim>
					<dim>144</dim>
					<dim>1</dim>
					<dim>1</dim>
				</port>
			</output>
		</layer>
		<layer id="292" name="Constant_62343283023316/restored_convert" type="Convert" version="opset1">
			<data destination_type="f32"/>
			<rt_info>
				<attribute name="decompression" version="0"/>
			</rt_info>
			<input>
				<port id="0">
					<dim>1</dim>
					<dim>144</dim>
					<dim>1</dim>
					<dim>1</dim>
				</port>
			</input>
			<output>
				<port id="1" precision="FP32">
					<dim>1</dim>
					<dim>144</dim>
					<dim>1</dim>
					<dim>1</dim>
				</port>
			</output>
		</layer>
		<layer id="293" name="BatchNormalization_38" type="Add" version="opset1">
			<data auto_broadcast="numpy"/>
			<input>
				<port id="0">
					<dim>1</dim>
					<dim>144</dim>
					<dim>32</dim>
					<dim>56</dim>
				</port>
				<port id="1">
					<dim>1</dim>
					<dim>144</dim>
					<dim>1</dim>
					<dim>1</dim>
				</port>
			</input>
			<output>
				<port id="2" precision="FP32" names="402">
					<dim>1</dim>
					<dim>144</dim>
					<dim>32</dim>
					<dim>56</dim>
				</port>
			</output>
		</layer>
		<layer id="294" name="Clip_39" type="Clamp" version="opset1">
			<data max="6" min="0"/>
			<input>
				<port id="0">
					<dim>1</dim>
					<dim>144</dim>
					<dim>32</dim>
					<dim>56</dim>
				</port>
			</input>
			<output>
				<port id="1" precision="FP32" names="403">
					<dim>1</dim>
					<dim>144</dim>
					<dim>32</dim>
					<dim>56</dim>
				</port>
			</output>
		</layer>
		<layer id="295" name="Multiply_62345/fq_input_0" type="FakeQuantize" version="opset1">
			<data levels="256" auto_broadcast="numpy"/>
			<input>
				<port id="0">
					<dim>1</dim>
					<dim>144</dim>
					<dim>32</dim>
					<dim>56</dim>
				</port>
				<port id="1"/>
				<port id="2"/>
				<port id="3"/>
				<port id="4"/>
			</input>
			<output>
				<port id="5" precision="FP32">
					<dim>1</dim>
					<dim>144</dim>
					<dim>32</dim>
					<dim>56</dim>
				</port>
			</output>
		</layer>
		<layer id="296" name="Multiply_62345/fq_weights_1/scale2811238945" type="Const" version="opset1">
			<data offset="31254" size="128" shape="32,1,1,1" element_type="f32"/>
			<output>
				<port id="0" precision="FP32">
					<dim>32</dim>
					<dim>1</dim>
					<dim>1</dim>
					<dim>1</dim>
				</port>
			</output>
		</layer>
		<layer id="297" name="Multiply_62756283423317/restored_convert/quantized2810438756" type="Const" version="opset1">
			<data offset="31382" size="4608" shape="32,144,1,1" element_type="i8"/>
			<output>
				<port id="0" precision="I8">
					<dim>32</dim>
					<dim>144</dim>
					<dim>1</dim>
					<dim>1</dim>
				</port>
			</output>
		</layer>
		<layer id="298" name="Multiply_62756283423317/restored_convert/quantized/to_f32" type="Convert" version="opset1">
			<data destination_type="f32"/>
			<input>
				<port id="0">
					<dim>32</dim>
					<dim>144</dim>
					<dim>1</dim>
					<dim>1</dim>
				</port>
			</input>
			<output>
				<port id="1" precision="FP32">
					<dim>32</dim>
					<dim>144</dim>
					<dim>1</dim>
					<dim>1</dim>
				</port>
			</output>
		</layer>
		<layer id="299" name="Multiply_62345/fq_weights_1/mulpiply_by_scale" type="Multiply" version="opset1">
			<data auto_broadcast="numpy"/>
			<input>
				<port id="0">
					<dim>32</dim>
					<dim>144</dim>
					<dim>1</dim>
					<dim>1</dim>
				</port>
				<port id="1">
					<dim>32</dim>
					<dim>1</dim>
					<dim>1</dim>
					<dim>1</dim>
				</port>
			</input>
			<output>
				<port id="2" precision="FP32">
					<dim>32</dim>
					<dim>144</dim>
					<dim>1</dim>
					<dim>1</dim>
				</port>
			</output>
		</layer>
		<layer id="300" name="Multiply_62345" type="Convolution" version="opset1">
			<data auto_pad="explicit" strides="1,1" dilations="1,1" pads_begin="0,0" pads_end="0,0"/>
			<input>
				<port id="0">
					<dim>1</dim>
					<dim>144</dim>
					<dim>32</dim>
					<dim>56</dim>
				</port>
				<port id="1">
					<dim>32</dim>
					<dim>144</dim>
					<dim>1</dim>
					<dim>1</dim>
				</port>
			</input>
			<output>
				<port id="2" precision="FP32">
					<dim>1</dim>
					<dim>32</dim>
					<dim>32</dim>
					<dim>56</dim>
				</port>
			</output>
		</layer>
		<layer id="301" name="Constant_62350283742680" type="Const" version="opset1">
			<data offset="35990" size="64" shape="1,32,1,1" element_type="f16"/>
			<output>
				<port id="0" precision="FP16">
					<dim>1</dim>
					<dim>32</dim>
					<dim>1</dim>
					<dim>1</dim>
				</port>
			</output>
		</layer>
		<layer id="302" name="Constant_62350283723318/restored_convert" type="Convert" version="opset1">
			<data destination_type="f32"/>
			<rt_info>
				<attribute name="decompression" version="0"/>
			</rt_info>
			<input>
				<port id="0">
					<dim>1</dim>
					<dim>32</dim>
					<dim>1</dim>
					<dim>1</dim>
				</port>
			</input>
			<output>
				<port id="1" precision="FP32">
					<dim>1</dim>
					<dim>32</dim>
					<dim>1</dim>
					<dim>1</dim>
				</port>
			</output>
		</layer>
		<layer id="303" name="BatchNormalization_41" type="Add" version="opset1">
			<data auto_broadcast="numpy"/>
			<input>
				<port id="0">
					<dim>1</dim>
					<dim>32</dim>
					<dim>32</dim>
					<dim>56</dim>
				</port>
				<port id="1">
					<dim>1</dim>
					<dim>32</dim>
					<dim>1</dim>
					<dim>1</dim>
				</port>
			</input>
			<output>
				<port id="2" precision="FP32" names="405">
					<dim>1</dim>
					<dim>32</dim>
					<dim>32</dim>
					<dim>56</dim>
				</port>
			</output>
		</layer>
		<layer id="304" name="Add_50/fq_input_1" type="FakeQuantize" version="opset1">
			<data levels="256" auto_broadcast="numpy"/>
			<input>
				<port id="0">
					<dim>1</dim>
					<dim>32</dim>
					<dim>32</dim>
					<dim>56</dim>
				</port>
				<port id="1"/>
				<port id="2"/>
				<port id="3"/>
				<port id="4"/>
			</input>
			<output>
				<port id="5" precision="FP32">
					<dim>1</dim>
					<dim>32</dim>
					<dim>32</dim>
					<dim>56</dim>
				</port>
			</output>
		</layer>
		<layer id="305" name="Multiply_62352/fq_weights_1/scale2625241783" type="Const" version="opset1">
			<data offset="36054" size="768" shape="192,1,1,1" element_type="f32"/>
			<output>
				<port id="0" precision="FP32">
					<dim>192</dim>
					<dim>1</dim>
					<dim>1</dim>
					<dim>1</dim>
				</port>
			</output>
		</layer>
		<layer id="306" name="Multiply_62765284023319/restored_convert/quantized2624443532" type="Const" version="opset1">
			<data offset="36822" size="6144" shape="192,32,1,1" element_type="i8"/>
			<output>
				<port id="0" precision="I8">
					<dim>192</dim>
					<dim>32</dim>
					<dim>1</dim>
					<dim>1</dim>
				</port>
			</output>
		</layer>
		<layer id="307" name="Multiply_62765284023319/restored_convert/quantized/to_f32" type="Convert" version="opset1">
			<data destination_type="f32"/>
			<input>
				<port id="0">
					<dim>192</dim>
					<dim>32</dim>
					<dim>1</dim>
					<dim>1</dim>
				</port>
			</input>
			<output>
				<port id="1" precision="FP32">
					<dim>192</dim>
					<dim>32</dim>
					<dim>1</dim>
					<dim>1</dim>
				</port>
			</output>
		</layer>
		<layer id="308" name="Multiply_62352/fq_weights_1/mulpiply_by_scale" type="Multiply" version="opset1">
			<data auto_broadcast="numpy"/>
			<input>
				<port id="0">
					<dim>192</dim>
					<dim>32</dim>
					<dim>1</dim>
					<dim>1</dim>
				</port>
				<port id="1">
					<dim>192</dim>
					<dim>1</dim>
					<dim>1</dim>
					<dim>1</dim>
				</port>
			</input>
			<output>
				<port id="2" precision="FP32">
					<dim>192</dim>
					<dim>32</dim>
					<dim>1</dim>
					<dim>1</dim>
				</port>
			</output>
		</layer>
		<layer id="309" name="Multiply_62352" type="Convolution" version="opset1">
			<data auto_pad="explicit" strides="1,1" dilations="1,1" pads_begin="0,0" pads_end="0,0"/>
			<input>
				<port id="0">
					<dim>1</dim>
					<dim>32</dim>
					<dim>32</dim>
					<dim>56</dim>
				</port>
				<port id="1">
					<dim>192</dim>
					<dim>32</dim>
					<dim>1</dim>
					<dim>1</dim>
				</port>
			</input>
			<output>
				<port id="2" precision="FP32">
					<dim>1</dim>
					<dim>192</dim>
					<dim>32</dim>
					<dim>56</dim>
				</port>
			</output>
		</layer>
		<layer id="310" name="Constant_62357284339887" type="Const" version="opset1">
			<data offset="42966" size="384" shape="1,192,1,1" element_type="f16"/>
			<output>
				<port id="0" precision="FP16">
					<dim>1</dim>
					<dim>192</dim>
					<dim>1</dim>
					<dim>1</dim>
				</port>
			</output>
		</layer>
		<layer id="311" name="Constant_62357284323320/restored_convert" type="Convert" version="opset1">
			<data destination_type="f32"/>
			<rt_info>
				<attribute name="decompression" version="0"/>
			</rt_info>
			<input>
				<port id="0">
					<dim>1</dim>
					<dim>192</dim>
					<dim>1</dim>
					<dim>1</dim>
				</port>
			</input>
			<output>
				<port id="1" precision="FP32">
					<dim>1</dim>
					<dim>192</dim>
					<dim>1</dim>
					<dim>1</dim>
				</port>
			</output>
		</layer>
		<layer id="312" name="BatchNormalization_43" type="Add" version="opset1">
			<data auto_broadcast="numpy"/>
			<input>
				<port id="0">
					<dim>1</dim>
					<dim>192</dim>
					<dim>32</dim>
					<dim>56</dim>
				</port>
				<port id="1">
					<dim>1</dim>
					<dim>192</dim>
					<dim>1</dim>
					<dim>1</dim>
				</port>
			</input>
			<output>
				<port id="2" precision="FP32" names="407">
					<dim>1</dim>
					<dim>192</dim>
					<dim>32</dim>
					<dim>56</dim>
				</port>
			</output>
		</layer>
		<layer id="313" name="Clip_44" type="Clamp" version="opset1">
			<data max="6" min="0"/>
			<input>
				<port id="0">
					<dim>1</dim>
					<dim>192</dim>
					<dim>32</dim>
					<dim>56</dim>
				</port>
			</input>
			<output>
				<port id="1" precision="FP32" names="408">
					<dim>1</dim>
					<dim>192</dim>
					<dim>32</dim>
					<dim>56</dim>
				</port>
			</output>
		</layer>
		<layer id="314" name="Multiply_62359/fq_input_0" type="FakeQuantize" version="opset1">
			<data levels="256" auto_broadcast="numpy"/>
			<input>
				<port id="0">
					<dim>1</dim>
					<dim>192</dim>
					<dim>32</dim>
					<dim>56</dim>
				</port>
				<port id="1">
					<dim>1</dim>
					<dim>192</dim>
					<dim>1</dim>
					<dim>1</dim>
				</port>
				<port id="2">
					<dim>1</dim>
					<dim>192</dim>
					<dim>1</dim>
					<dim>1</dim>
				</port>
				<port id="3">
					<dim>1</dim>
					<dim>192</dim>
					<dim>1</dim>
					<dim>1</dim>
				</port>
				<port id="4">
					<dim>1</dim>
					<dim>192</dim>
					<dim>1</dim>
					<dim>1</dim>
				</port>
			</input>
			<output>
				<port id="5" precision="FP32">
					<dim>1</dim>
					<dim>192</dim>
					<dim>32</dim>
					<dim>56</dim>
				</port>
			</output>
		</layer>
		<layer id="315" name="Multiply_62359/fq_weights_1/scale2742243328" type="Const" version="opset1">
			<data offset="43350" size="768" shape="192,1,1,1" element_type="f32"/>
			<output>
				<port id="0" precision="FP32">
					<dim>192</dim>
					<dim>1</dim>
					<dim>1</dim>
					<dim>1</dim>
				</port>
			</output>
		</layer>
		<layer id="316" name="Multiply_62774284723321/restored_convert/quantized2741440103" type="Const" version="opset1">
			<data offset="44118" size="1728" shape="192,1,3,3" element_type="i8"/>
			<output>
				<port id="0" precision="I8">
					<dim>192</dim>
					<dim>1</dim>
					<dim>3</dim>
					<dim>3</dim>
				</port>
			</output>
		</layer>
		<layer id="317" name="Multiply_62774284723321/restored_convert/quantized/to_f32" type="Convert" version="opset1">
			<data destination_type="f32"/>
			<input>
				<port id="0">
					<dim>192</dim>
					<dim>1</dim>
					<dim>3</dim>
					<dim>3</dim>
				</port>
			</input>
			<output>
				<port id="1" precision="FP32">
					<dim>192</dim>
					<dim>1</dim>
					<dim>3</dim>
					<dim>3</dim>
				</port>
			</output>
		</layer>
		<layer id="318" name="Multiply_62359/fq_weights_1/mulpiply_by_scale" type="Multiply" version="opset1">
			<data auto_broadcast="numpy"/>
			<input>
				<port id="0">
					<dim>192</dim>
					<dim>1</dim>
					<dim>3</dim>
					<dim>3</dim>
				</port>
				<port id="1">
					<dim>192</dim>
					<dim>1</dim>
					<dim>1</dim>
					<dim>1</dim>
				</port>
			</input>
			<output>
				<port id="2" precision="FP32">
					<dim>192</dim>
					<dim>1</dim>
					<dim>3</dim>
					<dim>3</dim>
				</port>
			</output>
		</layer>
		<layer id="319" name="Multiply_62359/GOI_weights_part3453942689" type="Const" version="opset1">
			<data offset="45846" size="24" shape="3" element_type="i64"/>
			<output>
				<port id="0" precision="I64">
					<dim>3</dim>
				</port>
			</output>
		</layer>
		<layer id="320" name="Multiply_62359/WeightsShape" type="ShapeOf" version="opset3">
			<data output_type="i64"/>
			<input>
				<port id="0">
					<dim>192</dim>
					<dim>1</dim>
					<dim>3</dim>
					<dim>3</dim>
				</port>
			</input>
			<output>
				<port id="1" precision="I64">
					<dim>4</dim>
				</port>
			</output>
		</layer>
		<layer id="321" name="Multiply_62359/XY_weights_part_input_port_1/value3453538804" type="Const" version="opset1">
			<data offset="8" size="16" shape="2" element_type="i64"/>
			<output>
				<port id="0" precision="I64">
					<dim>2</dim>
				</port>
			</output>
		</layer>
		<layer id="322" name="Multiply_62359/XY_weights_part_input_port_2/value3453738759" type="Const" version="opset1">
			<data offset="7966" size="8" shape="" element_type="i64"/>
			<output>
				<port id="0" precision="I64"/>
			</output>
		</layer>
		<layer id="323" name="Multiply_62359/XY_weights_part" type="Gather" version="opset8">
			<data batch_dims="0"/>
			<input>
				<port id="0">
					<dim>4</dim>
				</port>
				<port id="1">
					<dim>2</dim>
				</port>
				<port id="2"/>
			</input>
			<output>
				<port id="3" precision="I64">
					<dim>2</dim>
				</port>
			</output>
		</layer>
		<layer id="324" name="Multiply_62359/weights_shape" type="Concat" version="opset1">
			<data axis="0"/>
			<input>
				<port id="0">
					<dim>3</dim>
				</port>
				<port id="1">
					<dim>2</dim>
				</port>
			</input>
			<output>
				<port id="2" precision="I64">
					<dim>5</dim>
				</port>
			</output>
		</layer>
		<layer id="325" name="34541" type="Reshape" version="opset1">
			<data special_zero="true"/>
			<input>
				<port id="0">
					<dim>192</dim>
					<dim>1</dim>
					<dim>3</dim>
					<dim>3</dim>
				</port>
				<port id="1">
					<dim>5</dim>
				</port>
			</input>
			<output>
				<port id="2" precision="FP32">
					<dim>192</dim>
					<dim>1</dim>
					<dim>1</dim>
					<dim>3</dim>
					<dim>3</dim>
				</port>
			</output>
		</layer>
		<layer id="326" name="Multiply_62359" type="GroupConvolution" version="opset1">
			<data auto_pad="explicit" strides="1,1" dilations="1,1" pads_begin="1,1" pads_end="1,1"/>
			<input>
				<port id="0">
					<dim>1</dim>
					<dim>192</dim>
					<dim>32</dim>
					<dim>56</dim>
				</port>
				<port id="1">
					<dim>192</dim>
					<dim>1</dim>
					<dim>1</dim>
					<dim>3</dim>
					<dim>3</dim>
				</port>
			</input>
			<output>
				<port id="2" precision="FP32" names="409">
					<dim>1</dim>
					<dim>192</dim>
					<dim>32</dim>
					<dim>56</dim>
				</port>
			</output>
		</layer>
		<layer id="327" name="Constant_62364285040061" type="Const" version="opset1">
			<data offset="45870" size="384" shape="1,192,1,1" element_type="f16"/>
			<output>
				<port id="0" precision="FP16">
					<dim>1</dim>
					<dim>192</dim>
					<dim>1</dim>
					<dim>1</dim>
				</port>
			</output>
		</layer>
		<layer id="328" name="Constant_62364285023322/restored_convert" type="Convert" version="opset1">
			<data destination_type="f32"/>
			<rt_info>
				<attribute name="decompression" version="0"/>
			</rt_info>
			<input>
				<port id="0">
					<dim>1</dim>
					<dim>192</dim>
					<dim>1</dim>
					<dim>1</dim>
				</port>
			</input>
			<output>
				<port id="1" precision="FP32">
					<dim>1</dim>
					<dim>192</dim>
					<dim>1</dim>
					<dim>1</dim>
				</port>
			</output>
		</layer>
		<layer id="329" name="BatchNormalization_46" type="Add" version="opset1">
			<data auto_broadcast="numpy"/>
			<input>
				<port id="0">
					<dim>1</dim>
					<dim>192</dim>
					<dim>32</dim>
					<dim>56</dim>
				</port>
				<port id="1">
					<dim>1</dim>
					<dim>192</dim>
					<dim>1</dim>
					<dim>1</dim>
				</port>
			</input>
			<output>
				<port id="2" precision="FP32" names="410">
					<dim>1</dim>
					<dim>192</dim>
					<dim>32</dim>
					<dim>56</dim>
				</port>
			</output>
		</layer>
		<layer id="330" name="Clip_47" type="Clamp" version="opset1">
			<data max="6" min="0"/>
			<input>
				<port id="0">
					<dim>1</dim>
					<dim>192</dim>
					<dim>32</dim>
					<dim>56</dim>
				</port>
			</input>
			<output>
				<port id="1" precision="FP32" names="411">
					<dim>1</dim>
					<dim>192</dim>
					<dim>32</dim>
					<dim>56</dim>
				</port>
			</output>
		</layer>
		<layer id="331" name="Multiply_62366/fq_input_0" type="FakeQuantize" version="opset1">
			<data levels="256" auto_broadcast="numpy"/>
			<input>
				<port id="0">
					<dim>1</dim>
					<dim>192</dim>
					<dim>32</dim>
					<dim>56</dim>
				</port>
				<port id="1"/>
				<port id="2"/>
				<port id="3"/>
				<port id="4"/>
			</input>
			<output>
				<port id="5" precision="FP32">
					<dim>1</dim>
					<dim>192</dim>
					<dim>32</dim>
					<dim>56</dim>
				</port>
			</output>
		</layer>
		<layer id="332" name="Multiply_62366/fq_weights_1/scale2589240610" type="Const" version="opset1">
			<data offset="46254" size="128" shape="32,1,1,1" element_type="f32"/>
			<output>
				<port id="0" precision="FP32">
					<dim>32</dim>
					<dim>1</dim>
					<dim>1</dim>
					<dim>1</dim>
				</port>
			</output>
		</layer>
		<layer id="333" name="Multiply_62782285423323/restored_convert/quantized2588439905" type="Const" version="opset1">
			<data offset="46382" size="6144" shape="32,192,1,1" element_type="i8"/>
			<output>
				<port id="0" precision="I8">
					<dim>32</dim>
					<dim>192</dim>
					<dim>1</dim>
					<dim>1</dim>
				</port>
			</output>
		</layer>
		<layer id="334" name="Multiply_62782285423323/restored_convert/quantized/to_f32" type="Convert" version="opset1">
			<data destination_type="f32"/>
			<input>
				<port id="0">
					<dim>32</dim>
					<dim>192</dim>
					<dim>1</dim>
					<dim>1</dim>
				</port>
			</input>
			<output>
				<port id="1" precision="FP32">
					<dim>32</dim>
					<dim>192</dim>
					<dim>1</dim>
					<dim>1</dim>
				</port>
			</output>
		</layer>
		<layer id="335" name="Multiply_62366/fq_weights_1/mulpiply_by_scale" type="Multiply" version="opset1">
			<data auto_broadcast="numpy"/>
			<input>
				<port id="0">
					<dim>32</dim>
					<dim>192</dim>
					<dim>1</dim>
					<dim>1</dim>
				</port>
				<port id="1">
					<dim>32</dim>
					<dim>1</dim>
					<dim>1</dim>
					<dim>1</dim>
				</port>
			</input>
			<output>
				<port id="2" precision="FP32">
					<dim>32</dim>
					<dim>192</dim>
					<dim>1</dim>
					<dim>1</dim>
				</port>
			</output>
		</layer>
		<layer id="336" name="Multiply_62366" type="Convolution" version="opset1">
			<data auto_pad="explicit" strides="1,1" dilations="1,1" pads_begin="0,0" pads_end="0,0"/>
			<input>
				<port id="0">
					<dim>1</dim>
					<dim>192</dim>
					<dim>32</dim>
					<dim>56</dim>
				</port>
				<port id="1">
					<dim>32</dim>
					<dim>192</dim>
					<dim>1</dim>
					<dim>1</dim>
				</port>
			</input>
			<output>
				<port id="2" precision="FP32">
					<dim>1</dim>
					<dim>32</dim>
					<dim>32</dim>
					<dim>56</dim>
				</port>
			</output>
		</layer>
		<layer id="337" name="Constant_62371285743589" type="Const" version="opset1">
			<data offset="52526" size="64" shape="1,32,1,1" element_type="f16"/>
			<output>
				<port id="0" precision="FP16">
					<dim>1</dim>
					<dim>32</dim>
					<dim>1</dim>
					<dim>1</dim>
				</port>
			</output>
		</layer>
		<layer id="338" name="Constant_62371285723324/restored_convert" type="Convert" version="opset1">
			<data destination_type="f32"/>
			<rt_info>
				<attribute name="decompression" version="0"/>
			</rt_info>
			<input>
				<port id="0">
					<dim>1</dim>
					<dim>32</dim>
					<dim>1</dim>
					<dim>1</dim>
				</port>
			</input>
			<output>
				<port id="1" precision="FP32">
					<dim>1</dim>
					<dim>32</dim>
					<dim>1</dim>
					<dim>1</dim>
				</port>
			</output>
		</layer>
		<layer id="339" name="BatchNormalization_49" type="Add" version="opset1">
			<data auto_broadcast="numpy"/>
			<input>
				<port id="0">
					<dim>1</dim>
					<dim>32</dim>
					<dim>32</dim>
					<dim>56</dim>
				</port>
				<port id="1">
					<dim>1</dim>
					<dim>32</dim>
					<dim>1</dim>
					<dim>1</dim>
				</port>
			</input>
			<output>
				<port id="2" precision="FP32" names="413">
					<dim>1</dim>
					<dim>32</dim>
					<dim>32</dim>
					<dim>56</dim>
				</port>
			</output>
		</layer>
		<layer id="340" name="Add_50/fq_input_0" type="FakeQuantize" version="opset1">
			<data levels="256" auto_broadcast="numpy"/>
			<input>
				<port id="0">
					<dim>1</dim>
					<dim>32</dim>
					<dim>32</dim>
					<dim>56</dim>
				</port>
				<port id="1"/>
				<port id="2"/>
				<port id="3"/>
				<port id="4"/>
			</input>
			<output>
				<port id="5" precision="FP32">
					<dim>1</dim>
					<dim>32</dim>
					<dim>32</dim>
					<dim>56</dim>
				</port>
			</output>
		</layer>
		<layer id="341" name="Add_50" type="Add" version="opset1">
			<data auto_broadcast="numpy"/>
			<input>
				<port id="0">
					<dim>1</dim>
					<dim>32</dim>
					<dim>32</dim>
					<dim>56</dim>
				</port>
				<port id="1">
					<dim>1</dim>
					<dim>32</dim>
					<dim>32</dim>
					<dim>56</dim>
				</port>
			</input>
			<output>
				<port id="2" precision="FP32" names="414">
					<dim>1</dim>
					<dim>32</dim>
					<dim>32</dim>
					<dim>56</dim>
				</port>
			</output>
		</layer>
		<layer id="342" name="Add_59/fq_input_1" type="FakeQuantize" version="opset1">
			<data levels="256" auto_broadcast="numpy"/>
			<input>
				<port id="0">
					<dim>1</dim>
					<dim>32</dim>
					<dim>32</dim>
					<dim>56</dim>
				</port>
				<port id="1"/>
				<port id="2"/>
				<port id="3"/>
				<port id="4"/>
			</input>
			<output>
				<port id="5" precision="FP32">
					<dim>1</dim>
					<dim>32</dim>
					<dim>32</dim>
					<dim>56</dim>
				</port>
			</output>
		</layer>
		<layer id="343" name="Multiply_62373/fq_weights_1/scale2697239452" type="Const" version="opset1">
			<data offset="52590" size="768" shape="192,1,1,1" element_type="f32"/>
			<output>
				<port id="0" precision="FP32">
					<dim>192</dim>
					<dim>1</dim>
					<dim>1</dim>
					<dim>1</dim>
				</port>
			</output>
		</layer>
		<layer id="344" name="Multiply_62791286123325/restored_convert/quantized2696438399" type="Const" version="opset1">
			<data offset="53358" size="6144" shape="192,32,1,1" element_type="i8"/>
			<output>
				<port id="0" precision="I8">
					<dim>192</dim>
					<dim>32</dim>
					<dim>1</dim>
					<dim>1</dim>
				</port>
			</output>
		</layer>
		<layer id="345" name="Multiply_62791286123325/restored_convert/quantized/to_f32" type="Convert" version="opset1">
			<data destination_type="f32"/>
			<input>
				<port id="0">
					<dim>192</dim>
					<dim>32</dim>
					<dim>1</dim>
					<dim>1</dim>
				</port>
			</input>
			<output>
				<port id="1" precision="FP32">
					<dim>192</dim>
					<dim>32</dim>
					<dim>1</dim>
					<dim>1</dim>
				</port>
			</output>
		</layer>
		<layer id="346" name="Multiply_62373/fq_weights_1/mulpiply_by_scale" type="Multiply" version="opset1">
			<data auto_broadcast="numpy"/>
			<input>
				<port id="0">
					<dim>192</dim>
					<dim>32</dim>
					<dim>1</dim>
					<dim>1</dim>
				</port>
				<port id="1">
					<dim>192</dim>
					<dim>1</dim>
					<dim>1</dim>
					<dim>1</dim>
				</port>
			</input>
			<output>
				<port id="2" precision="FP32">
					<dim>192</dim>
					<dim>32</dim>
					<dim>1</dim>
					<dim>1</dim>
				</port>
			</output>
		</layer>
		<layer id="347" name="Multiply_62373" type="Convolution" version="opset1">
			<data auto_pad="explicit" strides="1,1" dilations="1,1" pads_begin="0,0" pads_end="0,0"/>
			<input>
				<port id="0">
					<dim>1</dim>
					<dim>32</dim>
					<dim>32</dim>
					<dim>56</dim>
				</port>
				<port id="1">
					<dim>192</dim>
					<dim>32</dim>
					<dim>1</dim>
					<dim>1</dim>
				</port>
			</input>
			<output>
				<port id="2" precision="FP32">
					<dim>1</dim>
					<dim>192</dim>
					<dim>32</dim>
					<dim>56</dim>
				</port>
			</output>
		</layer>
		<layer id="348" name="Constant_62378286442992" type="Const" version="opset1">
			<data offset="59502" size="384" shape="1,192,1,1" element_type="f16"/>
			<output>
				<port id="0" precision="FP16">
					<dim>1</dim>
					<dim>192</dim>
					<dim>1</dim>
					<dim>1</dim>
				</port>
			</output>
		</layer>
		<layer id="349" name="Constant_62378286423326/restored_convert" type="Convert" version="opset1">
			<data destination_type="f32"/>
			<rt_info>
				<attribute name="decompression" version="0"/>
			</rt_info>
			<input>
				<port id="0">
					<dim>1</dim>
					<dim>192</dim>
					<dim>1</dim>
					<dim>1</dim>
				</port>
			</input>
			<output>
				<port id="1" precision="FP32">
					<dim>1</dim>
					<dim>192</dim>
					<dim>1</dim>
					<dim>1</dim>
				</port>
			</output>
		</layer>
		<layer id="350" name="BatchNormalization_52" type="Add" version="opset1">
			<data auto_broadcast="numpy"/>
			<input>
				<port id="0">
					<dim>1</dim>
					<dim>192</dim>
					<dim>32</dim>
					<dim>56</dim>
				</port>
				<port id="1">
					<dim>1</dim>
					<dim>192</dim>
					<dim>1</dim>
					<dim>1</dim>
				</port>
			</input>
			<output>
				<port id="2" precision="FP32" names="416">
					<dim>1</dim>
					<dim>192</dim>
					<dim>32</dim>
					<dim>56</dim>
				</port>
			</output>
		</layer>
		<layer id="351" name="Clip_53" type="Clamp" version="opset1">
			<data max="6" min="0"/>
			<input>
				<port id="0">
					<dim>1</dim>
					<dim>192</dim>
					<dim>32</dim>
					<dim>56</dim>
				</port>
			</input>
			<output>
				<port id="1" precision="FP32" names="417">
					<dim>1</dim>
					<dim>192</dim>
					<dim>32</dim>
					<dim>56</dim>
				</port>
			</output>
		</layer>
		<layer id="352" name="Multiply_62380/fq_input_0" type="FakeQuantize" version="opset1">
			<data levels="256" auto_broadcast="numpy"/>
			<input>
				<port id="0">
					<dim>1</dim>
					<dim>192</dim>
					<dim>32</dim>
					<dim>56</dim>
				</port>
				<port id="1">
					<dim>1</dim>
					<dim>192</dim>
					<dim>1</dim>
					<dim>1</dim>
				</port>
				<port id="2">
					<dim>1</dim>
					<dim>192</dim>
					<dim>1</dim>
					<dim>1</dim>
				</port>
				<port id="3">
					<dim>1</dim>
					<dim>192</dim>
					<dim>1</dim>
					<dim>1</dim>
				</port>
				<port id="4">
					<dim>1</dim>
					<dim>192</dim>
					<dim>1</dim>
					<dim>1</dim>
				</port>
			</input>
			<output>
				<port id="5" precision="FP32">
					<dim>1</dim>
					<dim>192</dim>
					<dim>32</dim>
					<dim>56</dim>
				</port>
			</output>
		</layer>
		<layer id="353" name="Multiply_62380/fq_weights_1/scale2685238516" type="Const" version="opset1">
			<data offset="59886" size="768" shape="192,1,1,1" element_type="f32"/>
			<output>
				<port id="0" precision="FP32">
					<dim>192</dim>
					<dim>1</dim>
					<dim>1</dim>
					<dim>1</dim>
				</port>
			</output>
		</layer>
		<layer id="354" name="Multiply_62800286823327/restored_convert/quantized2684438396" type="Const" version="opset1">
			<data offset="60654" size="1728" shape="192,1,3,3" element_type="i8"/>
			<output>
				<port id="0" precision="I8">
					<dim>192</dim>
					<dim>1</dim>
					<dim>3</dim>
					<dim>3</dim>
				</port>
			</output>
		</layer>
		<layer id="355" name="Multiply_62800286823327/restored_convert/quantized/to_f32" type="Convert" version="opset1">
			<data destination_type="f32"/>
			<input>
				<port id="0">
					<dim>192</dim>
					<dim>1</dim>
					<dim>3</dim>
					<dim>3</dim>
				</port>
			</input>
			<output>
				<port id="1" precision="FP32">
					<dim>192</dim>
					<dim>1</dim>
					<dim>3</dim>
					<dim>3</dim>
				</port>
			</output>
		</layer>
		<layer id="356" name="Multiply_62380/fq_weights_1/mulpiply_by_scale" type="Multiply" version="opset1">
			<data auto_broadcast="numpy"/>
			<input>
				<port id="0">
					<dim>192</dim>
					<dim>1</dim>
					<dim>3</dim>
					<dim>3</dim>
				</port>
				<port id="1">
					<dim>192</dim>
					<dim>1</dim>
					<dim>1</dim>
					<dim>1</dim>
				</port>
			</input>
			<output>
				<port id="2" precision="FP32">
					<dim>192</dim>
					<dim>1</dim>
					<dim>3</dim>
					<dim>3</dim>
				</port>
			</output>
		</layer>
		<layer id="357" name="Multiply_62380/GOI_weights_part3455340181" type="Const" version="opset1">
			<data offset="45846" size="24" shape="3" element_type="i64"/>
			<output>
				<port id="0" precision="I64">
					<dim>3</dim>
				</port>
			</output>
		</layer>
		<layer id="358" name="Multiply_62380/WeightsShape" type="ShapeOf" version="opset3">
			<data output_type="i64"/>
			<input>
				<port id="0">
					<dim>192</dim>
					<dim>1</dim>
					<dim>3</dim>
					<dim>3</dim>
				</port>
			</input>
			<output>
				<port id="1" precision="I64">
					<dim>4</dim>
				</port>
			</output>
		</layer>
		<layer id="359" name="Multiply_62380/XY_weights_part_input_port_1/value3454943127" type="Const" version="opset1">
			<data offset="8" size="16" shape="2" element_type="i64"/>
			<output>
				<port id="0" precision="I64">
					<dim>2</dim>
				</port>
			</output>
		</layer>
		<layer id="360" name="Multiply_62380/XY_weights_part_input_port_2/value3455139068" type="Const" version="opset1">
			<data offset="7966" size="8" shape="" element_type="i64"/>
			<output>
				<port id="0" precision="I64"/>
			</output>
		</layer>
		<layer id="361" name="Multiply_62380/XY_weights_part" type="Gather" version="opset8">
			<data batch_dims="0"/>
			<input>
				<port id="0">
					<dim>4</dim>
				</port>
				<port id="1">
					<dim>2</dim>
				</port>
				<port id="2"/>
			</input>
			<output>
				<port id="3" precision="I64">
					<dim>2</dim>
				</port>
			</output>
		</layer>
		<layer id="362" name="Multiply_62380/weights_shape" type="Concat" version="opset1">
			<data axis="0"/>
			<input>
				<port id="0">
					<dim>3</dim>
				</port>
				<port id="1">
					<dim>2</dim>
				</port>
			</input>
			<output>
				<port id="2" precision="I64">
					<dim>5</dim>
				</port>
			</output>
		</layer>
		<layer id="363" name="34555" type="Reshape" version="opset1">
			<data special_zero="true"/>
			<input>
				<port id="0">
					<dim>192</dim>
					<dim>1</dim>
					<dim>3</dim>
					<dim>3</dim>
				</port>
				<port id="1">
					<dim>5</dim>
				</port>
			</input>
			<output>
				<port id="2" precision="FP32">
					<dim>192</dim>
					<dim>1</dim>
					<dim>1</dim>
					<dim>3</dim>
					<dim>3</dim>
				</port>
			</output>
		</layer>
		<layer id="364" name="Multiply_62380" type="GroupConvolution" version="opset1">
			<data auto_pad="explicit" strides="1,1" dilations="1,1" pads_begin="1,1" pads_end="1,1"/>
			<input>
				<port id="0">
					<dim>1</dim>
					<dim>192</dim>
					<dim>32</dim>
					<dim>56</dim>
				</port>
				<port id="1">
					<dim>192</dim>
					<dim>1</dim>
					<dim>1</dim>
					<dim>3</dim>
					<dim>3</dim>
				</port>
			</input>
			<output>
				<port id="2" precision="FP32" names="418">
					<dim>1</dim>
					<dim>192</dim>
					<dim>32</dim>
					<dim>56</dim>
				</port>
			</output>
		</layer>
		<layer id="365" name="Constant_62385287141891" type="Const" version="opset1">
			<data offset="62382" size="384" shape="1,192,1,1" element_type="f16"/>
			<output>
				<port id="0" precision="FP16">
					<dim>1</dim>
					<dim>192</dim>
					<dim>1</dim>
					<dim>1</dim>
				</port>
			</output>
		</layer>
		<layer id="366" name="Constant_62385287123328/restored_convert" type="Convert" version="opset1">
			<data destination_type="f32"/>
			<rt_info>
				<attribute name="decompression" version="0"/>
			</rt_info>
			<input>
				<port id="0">
					<dim>1</dim>
					<dim>192</dim>
					<dim>1</dim>
					<dim>1</dim>
				</port>
			</input>
			<output>
				<port id="1" precision="FP32">
					<dim>1</dim>
					<dim>192</dim>
					<dim>1</dim>
					<dim>1</dim>
				</port>
			</output>
		</layer>
		<layer id="367" name="BatchNormalization_55" type="Add" version="opset1">
			<data auto_broadcast="numpy"/>
			<input>
				<port id="0">
					<dim>1</dim>
					<dim>192</dim>
					<dim>32</dim>
					<dim>56</dim>
				</port>
				<port id="1">
					<dim>1</dim>
					<dim>192</dim>
					<dim>1</dim>
					<dim>1</dim>
				</port>
			</input>
			<output>
				<port id="2" precision="FP32" names="419">
					<dim>1</dim>
					<dim>192</dim>
					<dim>32</dim>
					<dim>56</dim>
				</port>
			</output>
		</layer>
		<layer id="368" name="Clip_56" type="Clamp" version="opset1">
			<data max="6" min="0"/>
			<input>
				<port id="0">
					<dim>1</dim>
					<dim>192</dim>
					<dim>32</dim>
					<dim>56</dim>
				</port>
			</input>
			<output>
				<port id="1" precision="FP32" names="420">
					<dim>1</dim>
					<dim>192</dim>
					<dim>32</dim>
					<dim>56</dim>
				</port>
			</output>
		</layer>
		<layer id="369" name="Multiply_62387/fq_input_0" type="FakeQuantize" version="opset1">
			<data levels="256" auto_broadcast="numpy"/>
			<input>
				<port id="0">
					<dim>1</dim>
					<dim>192</dim>
					<dim>32</dim>
					<dim>56</dim>
				</port>
				<port id="1"/>
				<port id="2"/>
				<port id="3"/>
				<port id="4"/>
			</input>
			<output>
				<port id="5" precision="FP32">
					<dim>1</dim>
					<dim>192</dim>
					<dim>32</dim>
					<dim>56</dim>
				</port>
			</output>
		</layer>
		<layer id="370" name="Multiply_62387/fq_weights_1/scale2628239806" type="Const" version="opset1">
			<data offset="62766" size="128" shape="32,1,1,1" element_type="f32"/>
			<output>
				<port id="0" precision="FP32">
					<dim>32</dim>
					<dim>1</dim>
					<dim>1</dim>
					<dim>1</dim>
				</port>
			</output>
		</layer>
		<layer id="371" name="Multiply_62808287523329/restored_convert/quantized2627441159" type="Const" version="opset1">
			<data offset="62894" size="6144" shape="32,192,1,1" element_type="i8"/>
			<output>
				<port id="0" precision="I8">
					<dim>32</dim>
					<dim>192</dim>
					<dim>1</dim>
					<dim>1</dim>
				</port>
			</output>
		</layer>
		<layer id="372" name="Multiply_62808287523329/restored_convert/quantized/to_f32" type="Convert" version="opset1">
			<data destination_type="f32"/>
			<input>
				<port id="0">
					<dim>32</dim>
					<dim>192</dim>
					<dim>1</dim>
					<dim>1</dim>
				</port>
			</input>
			<output>
				<port id="1" precision="FP32">
					<dim>32</dim>
					<dim>192</dim>
					<dim>1</dim>
					<dim>1</dim>
				</port>
			</output>
		</layer>
		<layer id="373" name="Multiply_62387/fq_weights_1/mulpiply_by_scale" type="Multiply" version="opset1">
			<data auto_broadcast="numpy"/>
			<input>
				<port id="0">
					<dim>32</dim>
					<dim>192</dim>
					<dim>1</dim>
					<dim>1</dim>
				</port>
				<port id="1">
					<dim>32</dim>
					<dim>1</dim>
					<dim>1</dim>
					<dim>1</dim>
				</port>
			</input>
			<output>
				<port id="2" precision="FP32">
					<dim>32</dim>
					<dim>192</dim>
					<dim>1</dim>
					<dim>1</dim>
				</port>
			</output>
		</layer>
		<layer id="374" name="Multiply_62387" type="Convolution" version="opset1">
			<data auto_pad="explicit" strides="1,1" dilations="1,1" pads_begin="0,0" pads_end="0,0"/>
			<input>
				<port id="0">
					<dim>1</dim>
					<dim>192</dim>
					<dim>32</dim>
					<dim>56</dim>
				</port>
				<port id="1">
					<dim>32</dim>
					<dim>192</dim>
					<dim>1</dim>
					<dim>1</dim>
				</port>
			</input>
			<output>
				<port id="2" precision="FP32">
					<dim>1</dim>
					<dim>32</dim>
					<dim>32</dim>
					<dim>56</dim>
				</port>
			</output>
		</layer>
		<layer id="375" name="Constant_62392287843709" type="Const" version="opset1">
			<data offset="69038" size="64" shape="1,32,1,1" element_type="f16"/>
			<output>
				<port id="0" precision="FP16">
					<dim>1</dim>
					<dim>32</dim>
					<dim>1</dim>
					<dim>1</dim>
				</port>
			</output>
		</layer>
		<layer id="376" name="Constant_62392287823330/restored_convert" type="Convert" version="opset1">
			<data destination_type="f32"/>
			<rt_info>
				<attribute name="decompression" version="0"/>
			</rt_info>
			<input>
				<port id="0">
					<dim>1</dim>
					<dim>32</dim>
					<dim>1</dim>
					<dim>1</dim>
				</port>
			</input>
			<output>
				<port id="1" precision="FP32">
					<dim>1</dim>
					<dim>32</dim>
					<dim>1</dim>
					<dim>1</dim>
				</port>
			</output>
		</layer>
		<layer id="377" name="BatchNormalization_58" type="Add" version="opset1">
			<data auto_broadcast="numpy"/>
			<input>
				<port id="0">
					<dim>1</dim>
					<dim>32</dim>
					<dim>32</dim>
					<dim>56</dim>
				</port>
				<port id="1">
					<dim>1</dim>
					<dim>32</dim>
					<dim>1</dim>
					<dim>1</dim>
				</port>
			</input>
			<output>
				<port id="2" precision="FP32" names="422">
					<dim>1</dim>
					<dim>32</dim>
					<dim>32</dim>
					<dim>56</dim>
				</port>
			</output>
		</layer>
		<layer id="378" name="Add_59/fq_input_0" type="FakeQuantize" version="opset1">
			<data levels="256" auto_broadcast="numpy"/>
			<input>
				<port id="0">
					<dim>1</dim>
					<dim>32</dim>
					<dim>32</dim>
					<dim>56</dim>
				</port>
				<port id="1"/>
				<port id="2"/>
				<port id="3"/>
				<port id="4"/>
			</input>
			<output>
				<port id="5" precision="FP32">
					<dim>1</dim>
					<dim>32</dim>
					<dim>32</dim>
					<dim>56</dim>
				</port>
			</output>
		</layer>
		<layer id="379" name="Add_59" type="Add" version="opset1">
			<data auto_broadcast="numpy"/>
			<input>
				<port id="0">
					<dim>1</dim>
					<dim>32</dim>
					<dim>32</dim>
					<dim>56</dim>
				</port>
				<port id="1">
					<dim>1</dim>
					<dim>32</dim>
					<dim>32</dim>
					<dim>56</dim>
				</port>
			</input>
			<output>
				<port id="2" precision="FP32" names="423">
					<dim>1</dim>
					<dim>32</dim>
					<dim>32</dim>
					<dim>56</dim>
				</port>
			</output>
		</layer>
		<layer id="380" name="Conv_155/WithoutBiases/fq_input_0" type="FakeQuantize" version="opset1">
			<data levels="256" auto_broadcast="numpy"/>
			<input>
				<port id="0">
					<dim>1</dim>
					<dim>32</dim>
					<dim>32</dim>
					<dim>56</dim>
				</port>
				<port id="1"/>
				<port id="2"/>
				<port id="3"/>
				<port id="4"/>
			</input>
			<output>
				<port id="5" precision="FP32">
					<dim>1</dim>
					<dim>32</dim>
					<dim>32</dim>
					<dim>56</dim>
				</port>
			</output>
		</layer>
		<layer id="381" name="Conv_155/WithoutBiases/fq_weights_1/scale2682238900" type="Const" version="opset1">
			<data offset="69102" size="128" shape="32,1,1,1" element_type="f32"/>
			<output>
				<port id="0" precision="FP32">
					<dim>32</dim>
					<dim>1</dim>
					<dim>1</dim>
					<dim>1</dim>
				</port>
			</output>
		</layer>
		<layer id="382" name="neck.lateral_convs.0.conv.weight288223331/restored_convert/quantized2681440028" type="Const" version="opset1">
			<data offset="69230" size="1024" shape="32,32,1,1" element_type="i8"/>
			<output>
				<port id="0" precision="I8">
					<dim>32</dim>
					<dim>32</dim>
					<dim>1</dim>
					<dim>1</dim>
				</port>
			</output>
		</layer>
		<layer id="383" name="neck.lateral_convs.0.conv.weight288223331/restored_convert/quantized/to_f32" type="Convert" version="opset1">
			<data destination_type="f32"/>
			<input>
				<port id="0">
					<dim>32</dim>
					<dim>32</dim>
					<dim>1</dim>
					<dim>1</dim>
				</port>
			</input>
			<output>
				<port id="1" precision="FP32">
					<dim>32</dim>
					<dim>32</dim>
					<dim>1</dim>
					<dim>1</dim>
				</port>
			</output>
		</layer>
		<layer id="384" name="Conv_155/WithoutBiases/fq_weights_1/mulpiply_by_scale" type="Multiply" version="opset1">
			<data auto_broadcast="numpy"/>
			<input>
				<port id="0">
					<dim>32</dim>
					<dim>32</dim>
					<dim>1</dim>
					<dim>1</dim>
				</port>
				<port id="1">
					<dim>32</dim>
					<dim>1</dim>
					<dim>1</dim>
					<dim>1</dim>
				</port>
			</input>
			<output>
				<port id="2" precision="FP32">
					<dim>32</dim>
					<dim>32</dim>
					<dim>1</dim>
					<dim>1</dim>
				</port>
			</output>
		</layer>
		<layer id="385" name="Conv_155/WithoutBiases" type="Convolution" version="opset1">
			<data auto_pad="explicit" strides="1,1" dilations="1,1" pads_begin="0,0" pads_end="0,0"/>
			<input>
				<port id="0">
					<dim>1</dim>
					<dim>32</dim>
					<dim>32</dim>
					<dim>56</dim>
				</port>
				<port id="1">
					<dim>32</dim>
					<dim>32</dim>
					<dim>1</dim>
					<dim>1</dim>
				</port>
			</input>
			<output>
				<port id="2" precision="FP32">
					<dim>1</dim>
					<dim>32</dim>
					<dim>32</dim>
					<dim>56</dim>
				</port>
			</output>
		</layer>
		<layer id="386" name="Reshape_2199288538846" type="Const" version="opset1">
			<data offset="70254" size="64" shape="1,32,1,1" element_type="f16"/>
			<output>
				<port id="0" precision="FP16">
					<dim>1</dim>
					<dim>32</dim>
					<dim>1</dim>
					<dim>1</dim>
				</port>
			</output>
		</layer>
		<layer id="387" name="Reshape_2199288523332/restored_convert" type="Convert" version="opset1">
			<data destination_type="f32"/>
			<rt_info>
				<attribute name="decompression" version="0"/>
			</rt_info>
			<input>
				<port id="0">
					<dim>1</dim>
					<dim>32</dim>
					<dim>1</dim>
					<dim>1</dim>
				</port>
			</input>
			<output>
				<port id="1" precision="FP32">
					<dim>1</dim>
					<dim>32</dim>
					<dim>1</dim>
					<dim>1</dim>
				</port>
			</output>
		</layer>
		<layer id="388" name="Conv_155" type="Add" version="opset1">
			<data auto_broadcast="numpy"/>
			<input>
				<port id="0">
					<dim>1</dim>
					<dim>32</dim>
					<dim>32</dim>
					<dim>56</dim>
				</port>
				<port id="1">
					<dim>1</dim>
					<dim>32</dim>
					<dim>1</dim>
					<dim>1</dim>
				</port>
			</input>
			<output>
				<port id="2" precision="FP32" names="519">
					<dim>1</dim>
					<dim>32</dim>
					<dim>32</dim>
					<dim>56</dim>
				</port>
			</output>
		</layer>
		<layer id="389" name="Add_199/fq_input_0" type="FakeQuantize" version="opset1">
			<data levels="256" auto_broadcast="numpy"/>
			<input>
				<port id="0">
					<dim>1</dim>
					<dim>32</dim>
					<dim>32</dim>
					<dim>56</dim>
				</port>
				<port id="1"/>
				<port id="2"/>
				<port id="3"/>
				<port id="4"/>
			</input>
			<output>
				<port id="5" precision="FP32">
					<dim>1</dim>
					<dim>32</dim>
					<dim>32</dim>
					<dim>56</dim>
				</port>
			</output>
		</layer>
		<layer id="390" name="108281083241477" type="Const" version="opset1">
			<data offset="70318" size="4" shape="" element_type="f32"/>
			<output>
				<port id="0" precision="FP32"/>
			</output>
		</layer>
		<layer id="391" name="108291083339449" type="Const" version="opset1">
			<data offset="70322" size="4" shape="" element_type="f32"/>
			<output>
				<port id="0" precision="FP32"/>
			</output>
		</layer>
		<layer id="392" name="108301083438975" type="Const" version="opset1">
			<data offset="70318" size="4" shape="" element_type="f32"/>
			<output>
				<port id="0" precision="FP32"/>
			</output>
		</layer>
		<layer id="393" name="108311083541381" type="Const" version="opset1">
			<data offset="70322" size="4" shape="" element_type="f32"/>
			<output>
				<port id="0" precision="FP32"/>
			</output>
		</layer>
		<layer id="394" name="552314743025" type="Const" version="opset1">
			<data offset="70326" size="8" shape="2" element_type="f32"/>
			<output>
				<port id="0" precision="FP32" names="552">
					<dim>2</dim>
				</port>
			</output>
		</layer>
		<layer id="395" name="Shape_179" type="ShapeOf" version="opset3">
			<data output_type="i64"/>
			<input>
				<port id="0">
					<dim>1</dim>
					<dim>32</dim>
					<dim>32</dim>
					<dim>56</dim>
				</port>
			</input>
			<output>
				<port id="1" precision="I64" names="543,546">
					<dim>4</dim>
				</port>
			</output>
		</layer>
		<layer id="396" name="Constant_398013149" type="Const" version="opset1">
			<data offset="70334" size="8" shape="2" element_type="i32"/>
			<output>
				<port id="0" precision="I32">
					<dim>2</dim>
				</port>
			</output>
		</layer>
		<layer id="397" name="Constant_398023150" type="Const" version="opset1">
			<data offset="7966" size="8" shape="" element_type="i64"/>
			<output>
				<port id="0" precision="I64"/>
			</output>
		</layer>
		<layer id="398" name="Gather_39803" type="Gather" version="opset8">
			<data batch_dims="0"/>
			<input>
				<port id="0">
					<dim>4</dim>
				</port>
				<port id="1">
					<dim>2</dim>
				</port>
				<port id="2"/>
			</input>
			<output>
				<port id="3" precision="I64" names="551">
					<dim>2</dim>
				</port>
			</output>
		</layer>
		<layer id="399" name="Cast_189" type="Convert" version="opset1">
			<data destination_type="f32"/>
			<input>
				<port id="0">
					<dim>2</dim>
				</port>
			</input>
			<output>
				<port id="1" precision="FP32" names="553">
					<dim>2</dim>
				</port>
			</output>
		</layer>
		<layer id="400" name="122981230239440" type="Const" version="opset1">
			<data offset="70342" size="4" shape="" element_type="f32"/>
			<output>
				<port id="0" precision="FP32"/>
			</output>
		</layer>
		<layer id="401" name="122991230338789" type="Const" version="opset1">
			<data offset="70346" size="4" shape="" element_type="f32"/>
			<output>
				<port id="0" precision="FP32"/>
			</output>
		</layer>
		<layer id="402" name="123001230439074" type="Const" version="opset1">
			<data offset="70342" size="4" shape="" element_type="f32"/>
			<output>
				<port id="0" precision="FP32"/>
			</output>
		</layer>
		<layer id="403" name="123011230542827" type="Const" version="opset1">
			<data offset="70346" size="4" shape="" element_type="f32"/>
			<output>
				<port id="0" precision="FP32"/>
			</output>
		</layer>
		<layer id="404" name="106381064241768" type="Const" version="opset1">
			<data offset="70350" size="4" shape="" element_type="f32"/>
			<output>
				<port id="0" precision="FP32"/>
			</output>
		</layer>
		<layer id="405" name="106391064342104" type="Const" version="opset1">
			<data offset="70354" size="4" shape="" element_type="f32"/>
			<output>
				<port id="0" precision="FP32"/>
			</output>
		</layer>
		<layer id="406" name="106401064438627" type="Const" version="opset1">
			<data offset="70350" size="4" shape="" element_type="f32"/>
			<output>
				<port id="0" precision="FP32"/>
			</output>
		</layer>
		<layer id="407" name="106411064539233" type="Const" version="opset1">
			<data offset="70354" size="4" shape="" element_type="f32"/>
			<output>
				<port id="0" precision="FP32"/>
			</output>
		</layer>
		<layer id="408" name="100081001241705" type="Const" version="opset1">
			<data offset="70358" size="4" shape="" element_type="f32"/>
			<output>
				<port id="0" precision="FP32"/>
			</output>
		</layer>
		<layer id="409" name="100091001340937" type="Const" version="opset1">
			<data offset="70362" size="4" shape="" element_type="f32"/>
			<output>
				<port id="0" precision="FP32"/>
			</output>
		</layer>
		<layer id="410" name="100101001443115" type="Const" version="opset1">
			<data offset="70358" size="4" shape="" element_type="f32"/>
			<output>
				<port id="0" precision="FP32"/>
			</output>
		</layer>
		<layer id="411" name="100111001540091" type="Const" version="opset1">
			<data offset="70362" size="4" shape="" element_type="f32"/>
			<output>
				<port id="0" precision="FP32"/>
			</output>
		</layer>
		<layer id="412" name="110181102240379" type="Const" version="opset1">
			<data offset="0" size="4" shape="" element_type="f32"/>
			<output>
				<port id="0" precision="FP32"/>
			</output>
		</layer>
		<layer id="413" name="110191102341075" type="Const" version="opset1">
			<data offset="70366" size="4" shape="" element_type="f32"/>
			<output>
				<port id="0" precision="FP32"/>
			</output>
		</layer>
		<layer id="414" name="110201102442323" type="Const" version="opset1">
			<data offset="0" size="4" shape="" element_type="f32"/>
			<output>
				<port id="0" precision="FP32"/>
			</output>
		</layer>
		<layer id="415" name="110211102542266" type="Const" version="opset1">
			<data offset="70366" size="4" shape="" element_type="f32"/>
			<output>
				<port id="0" precision="FP32"/>
			</output>
		</layer>
		<layer id="416" name="9858986241126" type="Const" version="opset1">
			<data offset="70370" size="2304" shape="1,576,1,1" element_type="f32"/>
			<output>
				<port id="0" precision="FP32">
					<dim>1</dim>
					<dim>576</dim>
					<dim>1</dim>
					<dim>1</dim>
				</port>
			</output>
		</layer>
		<layer id="417" name="9859986338408" type="Const" version="opset1">
			<data offset="72674" size="2304" shape="1,576,1,1" element_type="f32"/>
			<output>
				<port id="0" precision="FP32">
					<dim>1</dim>
					<dim>576</dim>
					<dim>1</dim>
					<dim>1</dim>
				</port>
			</output>
		</layer>
		<layer id="418" name="9860986439125" type="Const" version="opset1">
			<data offset="70370" size="2304" shape="1,576,1,1" element_type="f32"/>
			<output>
				<port id="0" precision="FP32">
					<dim>1</dim>
					<dim>576</dim>
					<dim>1</dim>
					<dim>1</dim>
				</port>
			</output>
		</layer>
		<layer id="419" name="9861986542896" type="Const" version="opset1">
			<data offset="72674" size="2304" shape="1,576,1,1" element_type="f32"/>
			<output>
				<port id="0" precision="FP32">
					<dim>1</dim>
					<dim>576</dim>
					<dim>1</dim>
					<dim>1</dim>
				</port>
			</output>
		</layer>
		<layer id="420" name="100181002240643" type="Const" version="opset1">
			<data offset="74978" size="4" shape="" element_type="f32"/>
			<output>
				<port id="0" precision="FP32"/>
			</output>
		</layer>
		<layer id="421" name="100191002340094" type="Const" version="opset1">
			<data offset="74982" size="4" shape="" element_type="f32"/>
			<output>
				<port id="0" precision="FP32"/>
			</output>
		</layer>
		<layer id="422" name="100201002439167" type="Const" version="opset1">
			<data offset="74978" size="4" shape="" element_type="f32"/>
			<output>
				<port id="0" precision="FP32"/>
			</output>
		</layer>
		<layer id="423" name="100211002540115" type="Const" version="opset1">
			<data offset="74982" size="4" shape="" element_type="f32"/>
			<output>
				<port id="0" precision="FP32"/>
			</output>
		</layer>
		<layer id="424" name="100281003239038" type="Const" version="opset1">
			<data offset="74986" size="4" shape="" element_type="f32"/>
			<output>
				<port id="0" precision="FP32"/>
			</output>
		</layer>
		<layer id="425" name="100291003339335" type="Const" version="opset1">
			<data offset="74990" size="4" shape="" element_type="f32"/>
			<output>
				<port id="0" precision="FP32"/>
			</output>
		</layer>
		<layer id="426" name="100301003439482" type="Const" version="opset1">
			<data offset="74986" size="4" shape="" element_type="f32"/>
			<output>
				<port id="0" precision="FP32"/>
			</output>
		</layer>
		<layer id="427" name="100311003542074" type="Const" version="opset1">
			<data offset="74990" size="4" shape="" element_type="f32"/>
			<output>
				<port id="0" precision="FP32"/>
			</output>
		</layer>
		<layer id="428" name="109081091242338" type="Const" version="opset1">
			<data offset="0" size="4" shape="" element_type="f32"/>
			<output>
				<port id="0" precision="FP32"/>
			</output>
		</layer>
		<layer id="429" name="109091091343022" type="Const" version="opset1">
			<data offset="74994" size="4" shape="" element_type="f32"/>
			<output>
				<port id="0" precision="FP32"/>
			</output>
		</layer>
		<layer id="430" name="109101091439752" type="Const" version="opset1">
			<data offset="0" size="4" shape="" element_type="f32"/>
			<output>
				<port id="0" precision="FP32"/>
			</output>
		</layer>
		<layer id="431" name="109111091538474" type="Const" version="opset1">
			<data offset="74994" size="4" shape="" element_type="f32"/>
			<output>
				<port id="0" precision="FP32"/>
			</output>
		</layer>
		<layer id="432" name="120981210242254" type="Const" version="opset1">
			<data offset="70370" size="2304" shape="1,576,1,1" element_type="f32"/>
			<output>
				<port id="0" precision="FP32">
					<dim>1</dim>
					<dim>576</dim>
					<dim>1</dim>
					<dim>1</dim>
				</port>
			</output>
		</layer>
		<layer id="433" name="120991210339056" type="Const" version="opset1">
			<data offset="74998" size="2304" shape="1,576,1,1" element_type="f32"/>
			<output>
				<port id="0" precision="FP32">
					<dim>1</dim>
					<dim>576</dim>
					<dim>1</dim>
					<dim>1</dim>
				</port>
			</output>
		</layer>
		<layer id="434" name="121001210439224" type="Const" version="opset1">
			<data offset="70370" size="2304" shape="1,576,1,1" element_type="f32"/>
			<output>
				<port id="0" precision="FP32">
					<dim>1</dim>
					<dim>576</dim>
					<dim>1</dim>
					<dim>1</dim>
				</port>
			</output>
		</layer>
		<layer id="435" name="121011210542971" type="Const" version="opset1">
			<data offset="74998" size="2304" shape="1,576,1,1" element_type="f32"/>
			<output>
				<port id="0" precision="FP32">
					<dim>1</dim>
					<dim>576</dim>
					<dim>1</dim>
					<dim>1</dim>
				</port>
			</output>
		</layer>
		<layer id="436" name="100381004241117" type="Const" version="opset1">
			<data offset="77302" size="4" shape="" element_type="f32"/>
			<output>
				<port id="0" precision="FP32"/>
			</output>
		</layer>
		<layer id="437" name="100391004339395" type="Const" version="opset1">
			<data offset="77306" size="4" shape="" element_type="f32"/>
			<output>
				<port id="0" precision="FP32"/>
			</output>
		</layer>
…
		<edge from-layer="3349" from-port="1" to-layer="3350" to-port="1"/>
		<edge from-layer="3350" from-port="2" to-layer="3352" to-port="0"/>
		<edge from-layer="3351" from-port="0" to-layer="3352" to-port="1"/>
		<edge from-layer="3346" from-port="2" to-layer="3353" to-port="0"/>
		<edge from-layer="3352" from-port="2" to-layer="3353" to-port="1"/>
		<edge from-layer="3353" from-port="2" to-layer="3355" to-port="0"/>
		<edge from-layer="3354" from-port="0" to-layer="3355" to-port="1"/>
		<edge from-layer="3355" from-port="2" to-layer="3357" to-port="0"/>
		<edge from-layer="3356" from-port="0" to-layer="3357" to-port="1"/>
		<edge from-layer="2366" from-port="4" to-layer="3360" to-port="0"/>
		<edge from-layer="3358" from-port="0" to-layer="3360" to-port="1"/>
		<edge from-layer="3359" from-port="0" to-layer="3360" to-port="2"/>
		<edge from-layer="3360" from-port="3" to-layer="3361" to-port="0"/>
		<edge from-layer="3361" from-port="1" to-layer="3363" to-port="0"/>
		<edge from-layer="3362" from-port="0" to-layer="3363" to-port="1"/>
		<edge from-layer="3355" from-port="2" to-layer="3364" to-port="0"/>
		<edge from-layer="3363" from-port="2" to-layer="3365" to-port="0"/>
		<edge from-layer="3364" from-port="1" to-layer="3365" to-port="1"/>
		<edge from-layer="3365" from-port="2" to-layer="3367" to-port="0"/>
		<edge from-layer="3366" from-port="0" to-layer="3367" to-port="1"/>
		<edge from-layer="3357" from-port="2" to-layer="3368" to-port="0"/>
		<edge from-layer="3367" from-port="2" to-layer="3368" to-port="1"/>
		<edge from-layer="3368" from-port="2" to-layer="3370" to-port="0"/>
		<edge from-layer="3369" from-port="0" to-layer="3370" to-port="1"/>
		<edge from-layer="3370" from-port="2" to-layer="3372" to-port="0"/>
		<edge from-layer="3371" from-port="0" to-layer="3372" to-port="1"/>
		<edge from-layer="3373" from-port="0" to-layer="3374" to-port="0"/>
		<edge from-layer="3270" from-port="2" to-layer="3375" to-port="0"/>
		<edge from-layer="3374" from-port="1" to-layer="3375" to-port="1"/>
		<edge from-layer="3268" from-port="2" to-layer="3376" to-port="0"/>
		<edge from-layer="3375" from-port="2" to-layer="3376" to-port="1"/>
		<edge from-layer="3376" from-port="2" to-layer="3378" to-port="0"/>
		<edge from-layer="3377" from-port="0" to-layer="3378" to-port="1"/>
		<edge from-layer="3379" from-port="0" to-layer="3380" to-port="0"/>
		<edge from-layer="3376" from-port="2" to-layer="3381" to-port="0"/>
		<edge from-layer="3380" from-port="1" to-layer="3382" to-port="0"/>
		<edge from-layer="3381" from-port="1" to-layer="3382" to-port="1"/>
		<edge from-layer="3382" from-port="2" to-layer="3384" to-port="0"/>
		<edge from-layer="3383" from-port="0" to-layer="3384" to-port="1"/>
		<edge from-layer="3378" from-port="2" to-layer="3385" to-port="0"/>
		<edge from-layer="3384" from-port="2" to-layer="3385" to-port="1"/>
		<edge from-layer="3385" from-port="2" to-layer="3387" to-port="0"/>
		<edge from-layer="3386" from-port="0" to-layer="3387" to-port="1"/>
		<edge from-layer="3387" from-port="2" to-layer="3389" to-port="0"/>
		<edge from-layer="3388" from-port="0" to-layer="3389" to-port="1"/>
		<edge from-layer="2366" from-port="4" to-layer="3392" to-port="0"/>
		<edge from-layer="3390" from-port="0" to-layer="3392" to-port="1"/>
		<edge from-layer="3391" from-port="0" to-layer="3392" to-port="2"/>
		<edge from-layer="3392" from-port="3" to-layer="3393" to-port="0"/>
		<edge from-layer="3393" from-port="1" to-layer="3395" to-port="0"/>
		<edge from-layer="3394" from-port="0" to-layer="3395" to-port="1"/>
		<edge from-layer="3387" from-port="2" to-layer="3396" to-port="0"/>
		<edge from-layer="3395" from-port="2" to-layer="3397" to-port="0"/>
		<edge from-layer="3396" from-port="1" to-layer="3397" to-port="1"/>
		<edge from-layer="3397" from-port="2" to-layer="3399" to-port="0"/>
		<edge from-layer="3398" from-port="0" to-layer="3399" to-port="1"/>
		<edge from-layer="3389" from-port="2" to-layer="3400" to-port="0"/>
		<edge from-layer="3399" from-port="2" to-layer="3400" to-port="1"/>
		<edge from-layer="3400" from-port="2" to-layer="3402" to-port="0"/>
		<edge from-layer="3401" from-port="0" to-layer="3402" to-port="1"/>
		<edge from-layer="3402" from-port="2" to-layer="3404" to-port="0"/>
		<edge from-layer="3403" from-port="0" to-layer="3404" to-port="1"/>
		<edge from-layer="3405" from-port="0" to-layer="3406" to-port="0"/>
		<edge from-layer="3340" from-port="2" to-layer="3407" to-port="0"/>
		<edge from-layer="3406" from-port="1" to-layer="3407" to-port="1"/>
		<edge from-layer="3338" from-port="2" to-layer="3408" to-port="0"/>
		<edge from-layer="3407" from-port="2" to-layer="3408" to-port="1"/>
		<edge from-layer="3408" from-port="2" to-layer="3410" to-port="0"/>
		<edge from-layer="3409" from-port="0" to-layer="3410" to-port="1"/>
		<edge from-layer="3411" from-port="0" to-layer="3412" to-port="0"/>
		<edge from-layer="3408" from-port="2" to-layer="3413" to-port="0"/>
		<edge from-layer="3412" from-port="1" to-layer="3414" to-port="0"/>
		<edge from-layer="3413" from-port="1" to-layer="3414" to-port="1"/>
		<edge from-layer="3414" from-port="2" to-layer="3416" to-port="0"/>
		<edge from-layer="3415" from-port="0" to-layer="3416" to-port="1"/>
		<edge from-layer="3410" from-port="2" to-layer="3417" to-port="0"/>
		<edge from-layer="3416" from-port="2" to-layer="3417" to-port="1"/>
		<edge from-layer="3417" from-port="2" to-layer="3419" to-port="0"/>
		<edge from-layer="3418" from-port="0" to-layer="3419" to-port="1"/>
		<edge from-layer="3419" from-port="2" to-layer="3421" to-port="0"/>
		<edge from-layer="3420" from-port="0" to-layer="3421" to-port="1"/>
		<edge from-layer="2366" from-port="4" to-layer="3424" to-port="0"/>
		<edge from-layer="3422" from-port="0" to-layer="3424" to-port="1"/>
		<edge from-layer="3423" from-port="0" to-layer="3424" to-port="2"/>
		<edge from-layer="3424" from-port="3" to-layer="3425" to-port="0"/>
		<edge from-layer="3425" from-port="1" to-layer="3427" to-port="0"/>
		<edge from-layer="3426" from-port="0" to-layer="3427" to-port="1"/>
		<edge from-layer="3419" from-port="2" to-layer="3428" to-port="0"/>
		<edge from-layer="3427" from-port="2" to-layer="3429" to-port="0"/>
		<edge from-layer="3428" from-port="1" to-layer="3429" to-port="1"/>
		<edge from-layer="3429" from-port="2" to-layer="3431" to-port="0"/>
		<edge from-layer="3430" from-port="0" to-layer="3431" to-port="1"/>
		<edge from-layer="3421" from-port="2" to-layer="3432" to-port="0"/>
		<edge from-layer="3431" from-port="2" to-layer="3432" to-port="1"/>
		<edge from-layer="3432" from-port="2" to-layer="3434" to-port="0"/>
		<edge from-layer="3433" from-port="0" to-layer="3434" to-port="1"/>
		<edge from-layer="3434" from-port="2" to-layer="3436" to-port="0"/>
		<edge from-layer="3435" from-port="0" to-layer="3436" to-port="1"/>
		<edge from-layer="3302" from-port="2" to-layer="3437" to-port="0"/>
		<edge from-layer="3372" from-port="2" to-layer="3437" to-port="1"/>
		<edge from-layer="3404" from-port="2" to-layer="3437" to-port="2"/>
		<edge from-layer="3436" from-port="2" to-layer="3437" to-port="3"/>
		<edge from-layer="3437" from-port="4" to-layer="3438" to-port="0"/>
		<edge from-layer="3221" from-port="1" to-layer="3438" to-port="1"/>
		<edge from-layer="2076" from-port="2" to-layer="3440" to-port="0"/>
		<edge from-layer="3440" from-port="1" to-layer="3443" to-port="0"/>
		<edge from-layer="3441" from-port="0" to-layer="3443" to-port="1"/>
		<edge from-layer="3442" from-port="0" to-layer="3443" to-port="2"/>
		<edge from-layer="3439" from-port="0" to-layer="3444" to-port="0"/>
		<edge from-layer="3443" from-port="3" to-layer="3444" to-port="1"/>
		<edge from-layer="3444" from-port="2" to-layer="3445" to-port="0"/>
		<edge from-layer="3445" from-port="1" to-layer="3447" to-port="0"/>
		<edge from-layer="3446" from-port="0" to-layer="3447" to-port="1"/>
		<edge from-layer="3447" from-port="2" to-layer="3449" to-port="0"/>
		<edge from-layer="3448" from-port="0" to-layer="3449" to-port="1"/>
		<edge from-layer="3449" from-port="2" to-layer="3451" to-port="0"/>
		<edge from-layer="3450" from-port="0" to-layer="3451" to-port="1"/>
		<edge from-layer="3451" from-port="2" to-layer="3453" to-port="0"/>
		<edge from-layer="3452" from-port="0" to-layer="3454" to-port="0"/>
		<edge from-layer="3453" from-port="1" to-layer="3454" to-port="1"/>
		<edge from-layer="3451" from-port="2" to-layer="3455" to-port="0"/>
		<edge from-layer="3454" from-port="2" to-layer="3455" to-port="1"/>
		<edge from-layer="3440" from-port="1" to-layer="3459" to-port="0"/>
		<edge from-layer="3457" from-port="0" to-layer="3459" to-port="1"/>
		<edge from-layer="3458" from-port="0" to-layer="3459" to-port="2"/>
		<edge from-layer="3456" from-port="0" to-layer="3460" to-port="0"/>
		<edge from-layer="3459" from-port="3" to-layer="3460" to-port="1"/>
		<edge from-layer="3460" from-port="2" to-layer="3461" to-port="0"/>
		<edge from-layer="3461" from-port="1" to-layer="3463" to-port="0"/>
		<edge from-layer="3462" from-port="0" to-layer="3463" to-port="1"/>
		<edge from-layer="3463" from-port="2" to-layer="3465" to-port="0"/>
		<edge from-layer="3464" from-port="0" to-layer="3465" to-port="1"/>
		<edge from-layer="3465" from-port="2" to-layer="3467" to-port="0"/>
		<edge from-layer="3466" from-port="0" to-layer="3467" to-port="1"/>
		<edge from-layer="3467" from-port="2" to-layer="3468" to-port="0"/>
		<edge from-layer="3468" from-port="1" to-layer="3469" to-port="0"/>
		<edge from-layer="3453" from-port="1" to-layer="3469" to-port="1"/>
		<edge from-layer="3455" from-port="2" to-layer="3470" to-port="0"/>
		<edge from-layer="3469" from-port="2" to-layer="3470" to-port="1"/>
		<edge from-layer="3470" from-port="2" to-layer="3472" to-port="0"/>
		<edge from-layer="3471" from-port="0" to-layer="3472" to-port="1"/>
		<edge from-layer="3468" from-port="1" to-layer="3474" to-port="0"/>
		<edge from-layer="3473" from-port="0" to-layer="3474" to-port="1"/>
		<edge from-layer="3467" from-port="2" to-layer="3475" to-port="0"/>
		<edge from-layer="3474" from-port="2" to-layer="3475" to-port="1"/>
		<edge from-layer="3475" from-port="2" to-layer="3476" to-port="0"/>
		<edge from-layer="3469" from-port="2" to-layer="3476" to-port="1"/>
		<edge from-layer="3476" from-port="2" to-layer="3478" to-port="0"/>
		<edge from-layer="3477" from-port="0" to-layer="3478" to-port="1"/>
		<edge from-layer="3470" from-port="2" to-layer="3480" to-port="0"/>
		<edge from-layer="3479" from-port="0" to-layer="3480" to-port="1"/>
		<edge from-layer="3476" from-port="2" to-layer="3482" to-port="0"/>
		<edge from-layer="3481" from-port="0" to-layer="3482" to-port="1"/>
		<edge from-layer="3472" from-port="2" to-layer="3483" to-port="0"/>
		<edge from-layer="3478" from-port="2" to-layer="3483" to-port="1"/>
		<edge from-layer="3480" from-port="2" to-layer="3483" to-port="2"/>
		<edge from-layer="3482" from-port="2" to-layer="3483" to-port="3"/>
		<edge from-layer="3483" from-port="4" to-layer="3485" to-port="0"/>
		<edge from-layer="3484" from-port="0" to-layer="3485" to-port="1"/>
		<edge from-layer="3485" from-port="2" to-layer="3486" to-port="0"/>
		<edge from-layer="3487" from-port="0" to-layer="3488" to-port="0"/>
		<edge from-layer="3488" from-port="1" to-layer="3489" to-port="0"/>
		<edge from-layer="3486" from-port="1" to-layer="3489" to-port="1"/>
		<edge from-layer="3489" from-port="2" to-layer="3491" to-port="0"/>
		<edge from-layer="3490" from-port="0" to-layer="3491" to-port="1"/>
		<edge from-layer="2204" from-port="3" to-layer="3492" to-port="0"/>
		<edge from-layer="3491" from-port="2" to-layer="3494" to-port="0"/>
		<edge from-layer="3492" from-port="1" to-layer="3494" to-port="1"/>
		<edge from-layer="3493" from-port="0" to-layer="3494" to-port="2"/>
		<edge from-layer="3494" from-port="3" to-layer="3497" to-port="0"/>
		<edge from-layer="3495" from-port="0" to-layer="3497" to-port="1"/>
		<edge from-layer="3496" from-port="0" to-layer="3497" to-port="2"/>
		<edge from-layer="3494" from-port="3" to-layer="3500" to-port="0"/>
		<edge from-layer="3498" from-port="0" to-layer="3500" to-port="1"/>
		<edge from-layer="3499" from-port="0" to-layer="3500" to-port="2"/>
		<edge from-layer="3497" from-port="3" to-layer="3501" to-port="0"/>
		<edge from-layer="3500" from-port="3" to-layer="3501" to-port="1"/>
		<edge from-layer="3502" from-port="0" to-layer="3503" to-port="0"/>
		<edge from-layer="3501" from-port="2" to-layer="3504" to-port="0"/>
		<edge from-layer="3503" from-port="1" to-layer="3504" to-port="1"/>
		<edge from-layer="3504" from-port="2" to-layer="3506" to-port="0"/>
		<edge from-layer="3505" from-port="0" to-layer="3506" to-port="1"/>
		<edge from-layer="3508" from-port="0" to-layer="3509" to-port="0"/>
		<edge from-layer="3509" from-port="1" to-layer="3510" to-port="0"/>
		<edge from-layer="3507" from-port="0" to-layer="3510" to-port="1"/>
		<edge from-layer="2172" from-port="5" to-layer="3511" to-port="0"/>
		<edge from-layer="3510" from-port="2" to-layer="3511" to-port="1"/>
		<edge from-layer="3512" from-port="0" to-layer="3513" to-port="0"/>
		<edge from-layer="3511" from-port="2" to-layer="3514" to-port="0"/>
		<edge from-layer="3513" from-port="1" to-layer="3514" to-port="1"/>
		<edge from-layer="3514" from-port="2" to-layer="3517" to-port="0"/>
		<edge from-layer="3515" from-port="0" to-layer="3517" to-port="1"/>
		<edge from-layer="3516" from-port="0" to-layer="3517" to-port="2"/>
		<edge from-layer="3517" from-port="3" to-layer="3519" to-port="0"/>
		<edge from-layer="3518" from-port="0" to-layer="3519" to-port="1"/>
		<edge from-layer="3519" from-port="2" to-layer="3521" to-port="0"/>
		<edge from-layer="3520" from-port="0" to-layer="3521" to-port="1"/>
		<edge from-layer="2204" from-port="3" to-layer="3522" to-port="0"/>
		<edge from-layer="3521" from-port="2" to-layer="3524" to-port="0"/>
		<edge from-layer="3522" from-port="1" to-layer="3524" to-port="1"/>
		<edge from-layer="3523" from-port="0" to-layer="3524" to-port="2"/>
		<edge from-layer="3525" from-port="0" to-layer="3526" to-port="0"/>
		<edge from-layer="3524" from-port="3" to-layer="3528" to-port="0"/>
		<edge from-layer="3528" from-port="1" to-layer="3531" to-port="0"/>
		<edge from-layer="3529" from-port="0" to-layer="3531" to-port="1"/>
		<edge from-layer="3530" from-port="0" to-layer="3531" to-port="2"/>
		<edge from-layer="3531" from-port="3" to-layer="3533" to-port="0"/>
		<edge from-layer="3532" from-port="0" to-layer="3533" to-port="1"/>
		<edge from-layer="3533" from-port="2" to-layer="3535" to-port="0"/>
		<edge from-layer="3534" from-port="0" to-layer="3535" to-port="1"/>
		<edge from-layer="3527" from-port="0" to-layer="3536" to-port="0"/>
		<edge from-layer="3535" from-port="2" to-layer="3536" to-port="1"/>
		<edge from-layer="3526" from-port="1" to-layer="3537" to-port="0"/>
		<edge from-layer="3536" from-port="2" to-layer="3537" to-port="1"/>
		<edge from-layer="3524" from-port="3" to-layer="3538" to-port="0"/>
		<edge from-layer="3537" from-port="2" to-layer="3538" to-port="1"/>
		<edge from-layer="3539" from-port="0" to-layer="3540" to-port="0"/>
		<edge from-layer="3528" from-port="1" to-layer="3544" to-port="0"/>
		<edge from-layer="3542" from-port="0" to-layer="3544" to-port="1"/>
		<edge from-layer="3543" from-port="0" to-layer="3544" to-port="2"/>
		<edge from-layer="3544" from-port="3" to-layer="3546" to-port="0"/>
		<edge from-layer="3545" from-port="0" to-layer="3546" to-port="1"/>
		<edge from-layer="3546" from-port="2" to-layer="3548" to-port="0"/>
		<edge from-layer="3547" from-port="0" to-layer="3548" to-port="1"/>
		<edge from-layer="3541" from-port="0" to-layer="3549" to-port="0"/>
		<edge from-layer="3548" from-port="2" to-layer="3549" to-port="1"/>
		<edge from-layer="3540" from-port="1" to-layer="3550" to-port="0"/>
		<edge from-layer="3549" from-port="2" to-layer="3550" to-port="1"/>
		<edge from-layer="3538" from-port="2" to-layer="3551" to-port="0"/>
		<edge from-layer="3550" from-port="2" to-layer="3551" to-port="1"/>
		<edge from-layer="3551" from-port="2" to-layer="3555" to-port="0"/>
		<edge from-layer="3552" from-port="0" to-layer="3555" to-port="1"/>
		<edge from-layer="3553" from-port="0" to-layer="3555" to-port="2"/>
		<edge from-layer="3554" from-port="0" to-layer="3555" to-port="3"/>
		<edge from-layer="3555" from-port="4" to-layer="3556" to-port="0"/>
		<edge from-layer="3506" from-port="2" to-layer="3557" to-port="0"/>
		<edge from-layer="3556" from-port="1" to-layer="3557" to-port="1"/>
		<edge from-layer="3494" from-port="3" to-layer="3560" to-port="0"/>
		<edge from-layer="3558" from-port="0" to-layer="3560" to-port="1"/>
		<edge from-layer="3559" from-port="0" to-layer="3560" to-port="2"/>
		<edge from-layer="3494" from-port="3" to-layer="3563" to-port="0"/>
		<edge from-layer="3561" from-port="0" to-layer="3563" to-port="1"/>
		<edge from-layer="3562" from-port="0" to-layer="3563" to-port="2"/>
		<edge from-layer="3560" from-port="3" to-layer="3564" to-port="0"/>
		<edge from-layer="3563" from-port="3" to-layer="3564" to-port="1"/>
		<edge from-layer="3564" from-port="2" to-layer="3566" to-port="0"/>
		<edge from-layer="3565" from-port="0" to-layer="3566" to-port="1"/>
		<edge from-layer="3551" from-port="2" to-layer="3570" to-port="0"/>
		<edge from-layer="3567" from-port="0" to-layer="3570" to-port="1"/>
		<edge from-layer="3568" from-port="0" to-layer="3570" to-port="2"/>
		<edge from-layer="3569" from-port="0" to-layer="3570" to-port="3"/>
		<edge from-layer="3570" from-port="4" to-layer="3571" to-port="0"/>
		<edge from-layer="3571" from-port="1" to-layer="3572" to-port="0"/>
		<edge from-layer="3566" from-port="2" to-layer="3573" to-port="0"/>
		<edge from-layer="3572" from-port="1" to-layer="3573" to-port="1"/>
		<edge from-layer="3573" from-port="2" to-layer="3574" to-port="0"/>
		<edge from-layer="3555" from-port="4" to-layer="3574" to-port="1"/>
		<edge from-layer="3557" from-port="2" to-layer="3575" to-port="0"/>
		<edge from-layer="3574" from-port="2" to-layer="3575" to-port="1"/>
		<edge from-layer="3571" from-port="1" to-layer="3576" to-port="0"/>
		<edge from-layer="3573" from-port="2" to-layer="3577" to-port="0"/>
		<edge from-layer="3576" from-port="1" to-layer="3577" to-port="1"/>
		<edge from-layer="3578" from-port="0" to-layer="3579" to-port="0"/>
		<edge from-layer="3577" from-port="2" to-layer="3580" to-port="0"/>
		<edge from-layer="3579" from-port="1" to-layer="3580" to-port="1"/>
		<edge from-layer="3575" from-port="2" to-layer="3581" to-port="0"/>
		<edge from-layer="3580" from-port="2" to-layer="3581" to-port="1"/>
		<edge from-layer="3581" from-port="2" to-layer="3583" to-port="0"/>
		<edge from-layer="3582" from-port="0" to-layer="3583" to-port="1"/>
		<edge from-layer="3584" from-port="0" to-layer="3585" to-port="0"/>
		<edge from-layer="3581" from-port="2" to-layer="3586" to-port="0"/>
		<edge from-layer="3585" from-port="1" to-layer="3587" to-port="0"/>
		<edge from-layer="3586" from-port="1" to-layer="3587" to-port="1"/>
		<edge from-layer="3587" from-port="2" to-layer="3589" to-port="0"/>
		<edge from-layer="3588" from-port="0" to-layer="3589" to-port="1"/>
		<edge from-layer="3583" from-port="2" to-layer="3590" to-port="0"/>
		<edge from-layer="3589" from-port="2" to-layer="3590" to-port="1"/>
		<edge from-layer="3590" from-port="2" to-layer="3592" to-port="0"/>
		<edge from-layer="3591" from-port="0" to-layer="3592" to-port="1"/>
		<edge from-layer="3592" from-port="2" to-layer="3594" to-port="0"/>
		<edge from-layer="3593" from-port="0" to-layer="3594" to-port="1"/>
		<edge from-layer="2366" from-port="4" to-layer="3597" to-port="0"/>
		<edge from-layer="3595" from-port="0" to-layer="3597" to-port="1"/>
		<edge from-layer="3596" from-port="0" to-layer="3597" to-port="2"/>
		<edge from-layer="3597" from-port="3" to-layer="3598" to-port="0"/>
		<edge from-layer="3598" from-port="1" to-layer="3600" to-port="0"/>
		<edge from-layer="3599" from-port="0" to-layer="3600" to-port="1"/>
		<edge from-layer="3592" from-port="2" to-layer="3601" to-port="0"/>
		<edge from-layer="3600" from-port="2" to-layer="3602" to-port="0"/>
		<edge from-layer="3601" from-port="1" to-layer="3602" to-port="1"/>
		<edge from-layer="3602" from-port="2" to-layer="3604" to-port="0"/>
		<edge from-layer="3603" from-port="0" to-layer="3604" to-port="1"/>
		<edge from-layer="3594" from-port="2" to-layer="3605" to-port="0"/>
		<edge from-layer="3604" from-port="2" to-layer="3605" to-port="1"/>
		<edge from-layer="3605" from-port="2" to-layer="3607" to-port="0"/>
		<edge from-layer="3606" from-port="0" to-layer="3607" to-port="1"/>
		<edge from-layer="3607" from-port="2" to-layer="3609" to-port="0"/>
		<edge from-layer="3608" from-port="0" to-layer="3609" to-port="1"/>
		<edge from-layer="3494" from-port="3" to-layer="3612" to-port="0"/>
		<edge from-layer="3610" from-port="0" to-layer="3612" to-port="1"/>
		<edge from-layer="3611" from-port="0" to-layer="3612" to-port="2"/>
		<edge from-layer="3494" from-port="3" to-layer="3615" to-port="0"/>
		<edge from-layer="3613" from-port="0" to-layer="3615" to-port="1"/>
		<edge from-layer="3614" from-port="0" to-layer="3615" to-port="2"/>
		<edge from-layer="3612" from-port="3" to-layer="3616" to-port="0"/>
		<edge from-layer="3615" from-port="3" to-layer="3616" to-port="1"/>
		<edge from-layer="3617" from-port="0" to-layer="3618" to-port="0"/>
		<edge from-layer="3616" from-port="2" to-layer="3619" to-port="0"/>
		<edge from-layer="3618" from-port="1" to-layer="3619" to-port="1"/>
		<edge from-layer="3619" from-port="2" to-layer="3621" to-port="0"/>
		<edge from-layer="3620" from-port="0" to-layer="3621" to-port="1"/>
		<edge from-layer="3551" from-port="2" to-layer="3625" to-port="0"/>
		<edge from-layer="3622" from-port="0" to-layer="3625" to-port="1"/>
		<edge from-layer="3623" from-port="0" to-layer="3625" to-port="2"/>
		<edge from-layer="3624" from-port="0" to-layer="3625" to-port="3"/>
		<edge from-layer="3625" from-port="4" to-layer="3626" to-port="0"/>
		<edge from-layer="3621" from-port="2" to-layer="3627" to-port="0"/>
		<edge from-layer="3626" from-port="1" to-layer="3627" to-port="1"/>
		<edge from-layer="3494" from-port="3" to-layer="3630" to-port="0"/>
		<edge from-layer="3628" from-port="0" to-layer="3630" to-port="1"/>
		<edge from-layer="3629" from-port="0" to-layer="3630" to-port="2"/>
		<edge from-layer="3494" from-port="3" to-layer="3633" to-port="0"/>
		<edge from-layer="3631" from-port="0" to-layer="3633" to-port="1"/>
		<edge from-layer="3632" from-port="0" to-layer="3633" to-port="2"/>
		<edge from-layer="3630" from-port="3" to-layer="3634" to-port="0"/>
		<edge from-layer="3633" from-port="3" to-layer="3634" to-port="1"/>
		<edge from-layer="3634" from-port="2" to-layer="3636" to-port="0"/>
		<edge from-layer="3635" from-port="0" to-layer="3636" to-port="1"/>
		<edge from-layer="3551" from-port="2" to-layer="3640" to-port="0"/>
		<edge from-layer="3637" from-port="0" to-layer="3640" to-port="1"/>
		<edge from-layer="3638" from-port="0" to-layer="3640" to-port="2"/>
		<edge from-layer="3639" from-port="0" to-layer="3640" to-port="3"/>
		<edge from-layer="3640" from-port="4" to-layer="3641" to-port="0"/>
		<edge from-layer="3641" from-port="1" to-layer="3642" to-port="0"/>
		<edge from-layer="3636" from-port="2" to-layer="3643" to-port="0"/>
		<edge from-layer="3642" from-port="1" to-layer="3643" to-port="1"/>
		<edge from-layer="3643" from-port="2" to-layer="3644" to-port="0"/>
		<edge from-layer="3625" from-port="4" to-layer="3644" to-port="1"/>
		<edge from-layer="3627" from-port="2" to-layer="3645" to-port="0"/>
		<edge from-layer="3644" from-port="2" to-layer="3645" to-port="1"/>
		<edge from-layer="3641" from-port="1" to-layer="3646" to-port="0"/>
		<edge from-layer="3643" from-port="2" to-layer="3647" to-port="0"/>
		<edge from-layer="3646" from-port="1" to-layer="3647" to-port="1"/>
		<edge from-layer="3648" from-port="0" to-layer="3649" to-port="0"/>
		<edge from-layer="3647" from-port="2" to-layer="3650" to-port="0"/>
		<edge from-layer="3649" from-port="1" to-layer="3650" to-port="1"/>
		<edge from-layer="3645" from-port="2" to-layer="3651" to-port="0"/>
		<edge from-layer="3650" from-port="2" to-layer="3651" to-port="1"/>
		<edge from-layer="3651" from-port="2" to-layer="3653" to-port="0"/>
		<edge from-layer="3652" from-port="0" to-layer="3653" to-port="1"/>
		<edge from-layer="3654" from-port="0" to-layer="3655" to-port="0"/>
		<edge from-layer="3651" from-port="2" to-layer="3656" to-port="0"/>
		<edge from-layer="3655" from-port="1" to-layer="3657" to-port="0"/>
		<edge from-layer="3656" from-port="1" to-layer="3657" to-port="1"/>
		<edge from-layer="3657" from-port="2" to-layer="3659" to-port="0"/>
		<edge from-layer="3658" from-port="0" to-layer="3659" to-port="1"/>
		<edge from-layer="3653" from-port="2" to-layer="3660" to-port="0"/>
		<edge from-layer="3659" from-port="2" to-layer="3660" to-port="1"/>
		<edge from-layer="3660" from-port="2" to-layer="3662" to-port="0"/>
		<edge from-layer="3661" from-port="0" to-layer="3662" to-port="1"/>
		<edge from-layer="3662" from-port="2" to-layer="3664" to-port="0"/>
		<edge from-layer="3663" from-port="0" to-layer="3664" to-port="1"/>
		<edge from-layer="2366" from-port="4" to-layer="3667" to-port="0"/>
		<edge from-layer="3665" from-port="0" to-layer="3667" to-port="1"/>
		<edge from-layer="3666" from-port="0" to-layer="3667" to-port="2"/>
		<edge from-layer="3667" from-port="3" to-layer="3668" to-port="0"/>
		<edge from-layer="3668" from-port="1" to-layer="3670" to-port="0"/>
		<edge from-layer="3669" from-port="0" to-layer="3670" to-port="1"/>
		<edge from-layer="3662" from-port="2" to-layer="3671" to-port="0"/>
		<edge from-layer="3670" from-port="2" to-layer="3672" to-port="0"/>
		<edge from-layer="3671" from-port="1" to-layer="3672" to-port="1"/>
		<edge from-layer="3672" from-port="2" to-layer="3674" to-port="0"/>
		<edge from-layer="3673" from-port="0" to-layer="3674" to-port="1"/>
		<edge from-layer="3664" from-port="2" to-layer="3675" to-port="0"/>
		<edge from-layer="3674" from-port="2" to-layer="3675" to-port="1"/>
		<edge from-layer="3675" from-port="2" to-layer="3677" to-port="0"/>
		<edge from-layer="3676" from-port="0" to-layer="3677" to-port="1"/>
		<edge from-layer="3677" from-port="2" to-layer="3679" to-port="0"/>
		<edge from-layer="3678" from-port="0" to-layer="3679" to-port="1"/>
		<edge from-layer="3680" from-port="0" to-layer="3681" to-port="0"/>
		<edge from-layer="3577" from-port="2" to-layer="3682" to-port="0"/>
		<edge from-layer="3681" from-port="1" to-layer="3682" to-port="1"/>
		<edge from-layer="3575" from-port="2" to-layer="3683" to-port="0"/>
		<edge from-layer="3682" from-port="2" to-layer="3683" to-port="1"/>
		<edge from-layer="3683" from-port="2" to-layer="3685" to-port="0"/>
		<edge from-layer="3684" from-port="0" to-layer="3685" to-port="1"/>
		<edge from-layer="3686" from-port="0" to-layer="3687" to-port="0"/>
		<edge from-layer="3683" from-port="2" to-layer="3688" to-port="0"/>
		<edge from-layer="3687" from-port="1" to-layer="3689" to-port="0"/>
		<edge from-layer="3688" from-port="1" to-layer="3689" to-port="1"/>
		<edge from-layer="3689" from-port="2" to-layer="3691" to-port="0"/>
		<edge from-layer="3690" from-port="0" to-layer="3691" to-port="1"/>
		<edge from-layer="3685" from-port="2" to-layer="3692" to-port="0"/>
		<edge from-layer="3691" from-port="2" to-layer="3692" to-port="1"/>
		<edge from-layer="3692" from-port="2" to-layer="3694" to-port="0"/>
		<edge from-layer="3693" from-port="0" to-layer="3694" to-port="1"/>
		<edge from-layer="3694" from-port="2" to-layer="3696" to-port="0"/>
		<edge from-layer="3695" from-port="0" to-layer="3696" to-port="1"/>
		<edge from-layer="2366" from-port="4" to-layer="3699" to-port="0"/>
		<edge from-layer="3697" from-port="0" to-layer="3699" to-port="1"/>
		<edge from-layer="3698" from-port="0" to-layer="3699" to-port="2"/>
		<edge from-layer="3699" from-port="3" to-layer="3700" to-port="0"/>
		<edge from-layer="3700" from-port="1" to-layer="3702" to-port="0"/>
		<edge from-layer="3701" from-port="0" to-layer="3702" to-port="1"/>
		<edge from-layer="3694" from-port="2" to-layer="3703" to-port="0"/>
		<edge from-layer="3702" from-port="2" to-layer="3704" to-port="0"/>
		<edge from-layer="3703" from-port="1" to-layer="3704" to-port="1"/>
		<edge from-layer="3704" from-port="2" to-layer="3706" to-port="0"/>
		<edge from-layer="3705" from-port="0" to-layer="3706" to-port="1"/>
		<edge from-layer="3696" from-port="2" to-layer="3707" to-port="0"/>
		<edge from-layer="3706" from-port="2" to-layer="3707" to-port="1"/>
		<edge from-layer="3707" from-port="2" to-layer="3709" to-port="0"/>
		<edge from-layer="3708" from-port="0" to-layer="3709" to-port="1"/>
		<edge from-layer="3709" from-port="2" to-layer="3711" to-port="0"/>
		<edge from-layer="3710" from-port="0" to-layer="3711" to-port="1"/>
		<edge from-layer="3712" from-port="0" to-layer="3713" to-port="0"/>
		<edge from-layer="3647" from-port="2" to-layer="3714" to-port="0"/>
		<edge from-layer="3713" from-port="1" to-layer="3714" to-port="1"/>
		<edge from-layer="3645" from-port="2" to-layer="3715" to-port="0"/>
		<edge from-layer="3714" from-port="2" to-layer="3715" to-port="1"/>
		<edge from-layer="3715" from-port="2" to-layer="3717" to-port="0"/>
		<edge from-layer="3716" from-port="0" to-layer="3717" to-port="1"/>
		<edge from-layer="3718" from-port="0" to-layer="3719" to-port="0"/>
		<edge from-layer="3715" from-port="2" to-layer="3720" to-port="0"/>
		<edge from-layer="3719" from-port="1" to-layer="3721" to-port="0"/>
		<edge from-layer="3720" from-port="1" to-layer="3721" to-port="1"/>
		<edge from-layer="3721" from-port="2" to-layer="3723" to-port="0"/>
		<edge from-layer="3722" from-port="0" to-layer="3723" to-port="1"/>
		<edge from-layer="3717" from-port="2" to-layer="3724" to-port="0"/>
		<edge from-layer="3723" from-port="2" to-layer="3724" to-port="1"/>
		<edge from-layer="3724" from-port="2" to-layer="3726" to-port="0"/>
		<edge from-layer="3725" from-port="0" to-layer="3726" to-port="1"/>
		<edge from-layer="3726" from-port="2" to-layer="3728" to-port="0"/>
		<edge from-layer="3727" from-port="0" to-layer="3728" to-port="1"/>
		<edge from-layer="2366" from-port="4" to-layer="3731" to-port="0"/>
		<edge from-layer="3729" from-port="0" to-layer="3731" to-port="1"/>
		<edge from-layer="3730" from-port="0" to-layer="3731" to-port="2"/>
		<edge from-layer="3731" from-port="3" to-layer="3732" to-port="0"/>
		<edge from-layer="3732" from-port="1" to-layer="3734" to-port="0"/>
		<edge from-layer="3733" from-port="0" to-layer="3734" to-port="1"/>
		<edge from-layer="3726" from-port="2" to-layer="3735" to-port="0"/>
		<edge from-layer="3734" from-port="2" to-layer="3736" to-port="0"/>
		<edge from-layer="3735" from-port="1" to-layer="3736" to-port="1"/>
		<edge from-layer="3736" from-port="2" to-layer="3738" to-port="0"/>
		<edge from-layer="3737" from-port="0" to-layer="3738" to-port="1"/>
		<edge from-layer="3728" from-port="2" to-layer="3739" to-port="0"/>
		<edge from-layer="3738" from-port="2" to-layer="3739" to-port="1"/>
		<edge from-layer="3739" from-port="2" to-layer="3741" to-port="0"/>
		<edge from-layer="3740" from-port="0" to-layer="3741" to-port="1"/>
		<edge from-layer="3741" from-port="2" to-layer="3743" to-port="0"/>
		<edge from-layer="3742" from-port="0" to-layer="3743" to-port="1"/>
		<edge from-layer="3609" from-port="2" to-layer="3744" to-port="0"/>
		<edge from-layer="3679" from-port="2" to-layer="3744" to-port="1"/>
		<edge from-layer="3711" from-port="2" to-layer="3744" to-port="2"/>
		<edge from-layer="3743" from-port="2" to-layer="3744" to-port="3"/>
		<edge from-layer="3744" from-port="4" to-layer="3745" to-port="0"/>
		<edge from-layer="3528" from-port="1" to-layer="3745" to-port="1"/>
		<edge from-layer="2517" from-port="2" to-layer="3746" to-port="0"/>
		<edge from-layer="2824" from-port="2" to-layer="3746" to-port="1"/>
		<edge from-layer="3131" from-port="2" to-layer="3746" to-port="2"/>
		<edge from-layer="3438" from-port="2" to-layer="3746" to-port="3"/>
		<edge from-layer="3745" from-port="2" to-layer="3746" to-port="4"/>
		<edge from-layer="3746" from-port="5" to-layer="3748" to-port="0"/>
		<edge from-layer="3747" from-port="0" to-layer="3748" to-port="1"/>
		<edge from-layer="1268" from-port="3" to-layer="3749" to-port="0"/>
		<edge from-layer="1128" from-port="1" to-layer="3751" to-port="0"/>
		<edge from-layer="3749" from-port="1" to-layer="3751" to-port="1"/>
		<edge from-layer="3750" from-port="0" to-layer="3751" to-port="2"/>
		<edge from-layer="1502" from-port="3" to-layer="3752" to-port="0"/>
		<edge from-layer="1382" from-port="1" to-layer="3754" to-port="0"/>
		<edge from-layer="3752" from-port="1" to-layer="3754" to-port="1"/>
		<edge from-layer="3753" from-port="0" to-layer="3754" to-port="2"/>
		<edge from-layer="1736" from-port="3" to-layer="3755" to-port="0"/>
		<edge from-layer="1616" from-port="1" to-layer="3757" to-port="0"/>
		<edge from-layer="3755" from-port="1" to-layer="3757" to-port="1"/>
		<edge from-layer="3756" from-port="0" to-layer="3757" to-port="2"/>
		<edge from-layer="1970" from-port="3" to-layer="3758" to-port="0"/>
		<edge from-layer="1850" from-port="1" to-layer="3760" to-port="0"/>
		<edge from-layer="3758" from-port="1" to-layer="3760" to-port="1"/>
		<edge from-layer="3759" from-port="0" to-layer="3760" to-port="2"/>
		<edge from-layer="2204" from-port="3" to-layer="3761" to-port="0"/>
		<edge from-layer="2084" from-port="1" to-layer="3763" to-port="0"/>
		<edge from-layer="3761" from-port="1" to-layer="3763" to-port="1"/>
		<edge from-layer="3762" from-port="0" to-layer="3763" to-port="2"/>
		<edge from-layer="3751" from-port="3" to-layer="3764" to-port="0"/>
		<edge from-layer="3754" from-port="3" to-layer="3764" to-port="1"/>
		<edge from-layer="3757" from-port="3" to-layer="3764" to-port="2"/>
		<edge from-layer="3760" from-port="3" to-layer="3764" to-port="3"/>
		<edge from-layer="3763" from-port="3" to-layer="3764" to-port="4"/>
		<edge from-layer="1268" from-port="3" to-layer="3765" to-port="0"/>
		<edge from-layer="1248" from-port="1" to-layer="3767" to-port="0"/>
		<edge from-layer="3765" from-port="1" to-layer="3767" to-port="1"/>
		<edge from-layer="3766" from-port="0" to-layer="3767" to-port="2"/>
		<edge from-layer="1502" from-port="3" to-layer="3768" to-port="0"/>
		<edge from-layer="1482" from-port="1" to-layer="3770" to-port="0"/>
		<edge from-layer="3768" from-port="1" to-layer="3770" to-port="1"/>
		<edge from-layer="3769" from-port="0" to-layer="3770" to-port="2"/>
		<edge from-layer="1736" from-port="3" to-layer="3771" to-port="0"/>
		<edge from-layer="1716" from-port="1" to-layer="3773" to-port="0"/>
		<edge from-layer="3771" from-port="1" to-layer="3773" to-port="1"/>
		<edge from-layer="3772" from-port="0" to-layer="3773" to-port="2"/>
		<edge from-layer="1970" from-port="3" to-layer="3774" to-port="0"/>
		<edge from-layer="1950" from-port="1" to-layer="3776" to-port="0"/>
		<edge from-layer="3774" from-port="1" to-layer="3776" to-port="1"/>
		<edge from-layer="3775" from-port="0" to-layer="3776" to-port="2"/>
		<edge from-layer="2204" from-port="3" to-layer="3777" to-port="0"/>
		<edge from-layer="2184" from-port="1" to-layer="3779" to-port="0"/>
		<edge from-layer="3777" from-port="1" to-layer="3779" to-port="1"/>
		<edge from-layer="3778" from-port="0" to-layer="3779" to-port="2"/>
		<edge from-layer="3767" from-port="3" to-layer="3780" to-port="0"/>
		<edge from-layer="3770" from-port="3" to-layer="3780" to-port="1"/>
		<edge from-layer="3773" from-port="3" to-layer="3780" to-port="2"/>
		<edge from-layer="3776" from-port="3" to-layer="3780" to-port="3"/>
		<edge from-layer="3779" from-port="3" to-layer="3780" to-port="4"/>
		<edge from-layer="3780" from-port="5" to-layer="3781" to-port="0"/>
		<edge from-layer="3781" from-port="1" to-layer="3783" to-port="0"/>
		<edge from-layer="3782" from-port="0" to-layer="3783" to-port="1"/>
		<edge from-layer="3780" from-port="5" to-layer="3784" to-port="0"/>
		<edge from-layer="3783" from-port="2" to-layer="3784" to-port="1"/>
		<edge from-layer="3764" from-port="5" to-layer="3785" to-port="0"/>
		<edge from-layer="3784" from-port="2" to-layer="3785" to-port="1"/>
		<edge from-layer="3785" from-port="2" to-layer="3786" to-port="0"/>
		<edge from-layer="3786" from-port="1" to-layer="3788" to-port="0"/>
		<edge from-layer="3787" from-port="0" to-layer="3788" to-port="1"/>
		<edge from-layer="3788" from-port="2" to-layer="3790" to-port="0"/>
		<edge from-layer="3789" from-port="0" to-layer="3790" to-port="1"/>
		<edge from-layer="3790" from-port="2" to-layer="3792" to-port="0"/>
		<edge from-layer="3791" from-port="0" to-layer="3792" to-port="1"/>
		<edge from-layer="3792" from-port="2" to-layer="3794" to-port="0"/>
		<edge from-layer="3793" from-port="0" to-layer="3794" to-port="1"/>
		<edge from-layer="3790" from-port="2" to-layer="3794" to-port="2"/>
		<edge from-layer="3748" from-port="2" to-layer="3795" to-port="0"/>
		<edge from-layer="3794" from-port="3" to-layer="3795" to-port="1"/>
		<edge from-layer="3795" from-port="2" to-layer="3797" to-port="0"/>
		<edge from-layer="3796" from-port="0" to-layer="3797" to-port="1"/>
		<edge from-layer="3786" from-port="1" to-layer="3801" to-port="0"/>
		<edge from-layer="3799" from-port="0" to-layer="3801" to-port="1"/>
		<edge from-layer="3800" from-port="0" to-layer="3801" to-port="2"/>
		<edge from-layer="3798" from-port="0" to-layer="3802" to-port="0"/>
		<edge from-layer="3801" from-port="3" to-layer="3802" to-port="1"/>
		<edge from-layer="3802" from-port="2" to-layer="3803" to-port="0"/>
		<edge from-layer="3803" from-port="1" to-layer="3805" to-port="0"/>
		<edge from-layer="3804" from-port="0" to-layer="3805" to-port="1"/>
		<edge from-layer="3805" from-port="2" to-layer="3807" to-port="0"/>
		<edge from-layer="3806" from-port="0" to-layer="3807" to-port="1"/>
		<edge from-layer="3807" from-port="2" to-layer="3808" to-port="0"/>
		<edge from-layer="3786" from-port="1" to-layer="3808" to-port="1"/>
		<edge from-layer="3808" from-port="2" to-layer="3810" to-port="0"/>
		<edge from-layer="3809" from-port="0" to-layer="3810" to-port="1"/>
		<edge from-layer="3810" from-port="2" to-layer="3811" to-port="0"/>
		<edge from-layer="3797" from-port="2" to-layer="3813" to-port="0"/>
		<edge from-layer="3812" from-port="0" to-layer="3813" to-port="1"/>
		<edge from-layer="3814" from-port="0" to-layer="3815" to-port="0"/>
		<edge from-layer="3813" from-port="2" to-layer="3816" to-port="0"/>
		<edge from-layer="3815" from-port="1" to-layer="3816" to-port="1"/>
		<edge from-layer="3811" from-port="1" to-layer="3817" to-port="0"/>
		<edge from-layer="3816" from-port="2" to-layer="3817" to-port="1"/>
		<edge from-layer="3817" from-port="2" to-layer="3819" to-port="0"/>
		<edge from-layer="3818" from-port="0" to-layer="3819" to-port="1"/>
		<edge from-layer="3797" from-port="2" to-layer="3820" to-port="0"/>
		<edge from-layer="3819" from-port="2" to-layer="3820" to-port="1"/>
		<edge from-layer="3785" from-port="2" to-layer="3822" to-port="0"/>
		<edge from-layer="3821" from-port="0" to-layer="3822" to-port="1"/>
		<edge from-layer="3822" from-port="2" to-layer="3824" to-port="0"/>
		<edge from-layer="3823" from-port="0" to-layer="3824" to-port="1"/>
		<edge from-layer="3820" from-port="2" to-layer="3825" to-port="0"/>
		<edge from-layer="3824" from-port="2" to-layer="3825" to-port="1"/>
		<edge from-layer="3825" from-port="2" to-layer="3829" to-port="0"/>
		<edge from-layer="3826" from-port="0" to-layer="3829" to-port="1"/>
		<edge from-layer="3827" from-port="0" to-layer="3829" to-port="2"/>
		<edge from-layer="3828" from-port="0" to-layer="3829" to-port="3"/>
		<edge from-layer="3829" from-port="4" to-layer="3831" to-port="0"/>
		<edge from-layer="3830" from-port="0" to-layer="3831" to-port="1"/>
		<edge from-layer="3825" from-port="2" to-layer="3835" to-port="0"/>
		<edge from-layer="3832" from-port="0" to-layer="3835" to-port="1"/>
		<edge from-layer="3833" from-port="0" to-layer="3835" to-port="2"/>
		<edge from-layer="3834" from-port="0" to-layer="3835" to-port="3"/>
		<edge from-layer="3835" from-port="4" to-layer="3837" to-port="0"/>
		<edge from-layer="3836" from-port="0" to-layer="3837" to-port="1"/>
		<edge from-layer="3838" from-port="0" to-layer="3839" to-port="0"/>
		<edge from-layer="3840" from-port="0" to-layer="3841" to-port="0"/>
		<edge from-layer="3831" from-port="2" to-layer="3843" to-port="0"/>
		<edge from-layer="3837" from-port="2" to-layer="3843" to-port="1"/>
		<edge from-layer="3842" from-port="0" to-layer="3843" to-port="2"/>
		<edge from-layer="3839" from-port="1" to-layer="3843" to-port="3"/>
		<edge from-layer="3841" from-port="1" to-layer="3843" to-port="4"/>
		<edge from-layer="3837" from-port="2" to-layer="3847" to-port="0"/>
		<edge from-layer="3846" from-port="0" to-layer="3847" to-port="1"/>
		<edge from-layer="3843" from-port="5" to-layer="3851" to-port="0"/>
		<edge from-layer="3848" from-port="0" to-layer="3851" to-port="1"/>
		<edge from-layer="3849" from-port="0" to-layer="3851" to-port="2"/>
		<edge from-layer="3850" from-port="0" to-layer="3851" to-port="3"/>
		<edge from-layer="3851" from-port="4" to-layer="3853" to-port="0"/>
		<edge from-layer="3852" from-port="0" to-layer="3853" to-port="1"/>
		<edge from-layer="3853" from-port="2" to-layer="3854" to-port="0"/>
		<edge from-layer="3854" from-port="1" to-layer="3855" to-port="0"/>
		<edge from-layer="3847" from-port="2" to-layer="3857" to-port="0"/>
		<edge from-layer="3855" from-port="1" to-layer="3857" to-port="1"/>
		<edge from-layer="3856" from-port="0" to-layer="3857" to-port="2"/>
		<edge from-layer="3857" from-port="3" to-layer="3858" to-port="0"/>
		<edge from-layer="3858" from-port="1" to-layer="3860" to-port="0"/>
		<edge from-layer="3859" from-port="0" to-layer="3860" to-port="1"/>
		<edge from-layer="3860" from-port="2" to-layer="3862" to-port="0"/>
		<edge from-layer="3861" from-port="0" to-layer="3862" to-port="1"/>
		<edge from-layer="3862" from-port="2" to-layer="3863" to-port="0"/>
		<edge from-layer="3857" from-port="3" to-layer="3864" to-port="0"/>
		<edge from-layer="3863" from-port="1" to-layer="3864" to-port="1"/>
		<edge from-layer="3864" from-port="3" to-layer="3866" to-port="0"/>
		<edge from-layer="3853" from-port="2" to-layer="3868" to-port="0"/>
		<edge from-layer="3866" from-port="1" to-layer="3868" to-port="1"/>
		<edge from-layer="3867" from-port="0" to-layer="3868" to-port="2"/>
		<edge from-layer="3868" from-port="3" to-layer="3869" to-port="0"/>
		<edge from-layer="3869" from-port="1" to-layer="3870" to-port="0"/>
		<edge from-layer="3797" from-port="2" to-layer="3872" to-port="0"/>
		<edge from-layer="3870" from-port="1" to-layer="3872" to-port="1"/>
		<edge from-layer="3871" from-port="0" to-layer="3872" to-port="2"/>
		<edge from-layer="3868" from-port="3" to-layer="3873" to-port="0"/>
		<edge from-layer="3873" from-port="1" to-layer="3874" to-port="0"/>
		<edge from-layer="3825" from-port="2" to-layer="3876" to-port="0"/>
		<edge from-layer="3874" from-port="1" to-layer="3876" to-port="1"/>
		<edge from-layer="3875" from-port="0" to-layer="3876" to-port="2"/>
		<edge from-layer="3876" from-port="3" to-layer="3880" to-port="0"/>
		<edge from-layer="3877" from-port="0" to-layer="3880" to-port="1"/>
		<edge from-layer="3878" from-port="0" to-layer="3880" to-port="2"/>
		<edge from-layer="3879" from-port="0" to-layer="3880" to-port="3"/>
		<edge from-layer="3880" from-port="4" to-layer="3882" to-port="0"/>
		<edge from-layer="3881" from-port="0" to-layer="3882" to-port="1"/>
		<edge from-layer="3882" from-port="2" to-layer="3884" to-port="0"/>
		<edge from-layer="3883" from-port="0" to-layer="3884" to-port="1"/>
		<edge from-layer="3872" from-port="3" to-layer="3885" to-port="0"/>
		<edge from-layer="3884" from-port="2" to-layer="3885" to-port="1"/>
		<edge from-layer="3868" from-port="3" to-layer="3886" to-port="0"/>
		<edge from-layer="3886" from-port="1" to-layer="3887" to-port="0"/>
		<edge from-layer="3810" from-port="2" to-layer="3889" to-port="0"/>
		<edge from-layer="3887" from-port="1" to-layer="3889" to-port="1"/>
		<edge from-layer="3888" from-port="0" to-layer="3889" to-port="2"/>
		<edge from-layer="3889" from-port="3" to-layer="3890" to-port="0"/>
		<edge from-layer="3890" from-port="1" to-layer="3892" to-port="0"/>
		<edge from-layer="3891" from-port="0" to-layer="3892" to-port="1"/>
		<edge from-layer="3885" from-port="2" to-layer="3893" to-port="0"/>
		<edge from-layer="3892" from-port="2" to-layer="3893" to-port="1"/>
		<edge from-layer="3893" from-port="2" to-layer="3897" to-port="0"/>
		<edge from-layer="3894" from-port="0" to-layer="3897" to-port="1"/>
		<edge from-layer="3895" from-port="0" to-layer="3897" to-port="2"/>
		<edge from-layer="3896" from-port="0" to-layer="3897" to-port="3"/>
		<edge from-layer="3893" from-port="2" to-layer="3901" to-port="0"/>
		<edge from-layer="3899" from-port="0" to-layer="3901" to-port="1"/>
		<edge from-layer="3900" from-port="0" to-layer="3901" to-port="2"/>
		<edge from-layer="3901" from-port="3" to-layer="3902" to-port="0"/>
		<edge from-layer="3902" from-port="1" to-layer="3904" to-port="0"/>
		<edge from-layer="3903" from-port="0" to-layer="3904" to-port="1"/>
		<edge from-layer="3897" from-port="4" to-layer="3898" to-port="0"/>
		<edge from-layer="3904" from-port="2" to-layer="3905" to-port="0"/>
	</edges>
	<meta_data>
		<MO_version value="custom_HEAD_0e242b324458ed332f0907ac6d88fc24b610d9b9"/>
		<Runtime_version value="2022.3.0-000-0e242b32445-HEAD"/>
		<legacy_path value="True"/>
		<cli_parameters>
			<caffe_parser_path value="DIR"/>
			<data_type value="FP16"/>
			<disable_nhwc_to_nchw value="False"/>
			<disable_omitting_optional value="False"/>
			<disable_resnet_optimization value="False"/>
			<disable_weights_compression value="False"/>
			<enable_concat_optimization value="False"/>
			<enable_flattening_nested_params value="False"/>
			<enable_ssd_gluoncv value="False"/>
			<extensions value="['/opt/home/sys_k8sworker/workspace/DL-Benchmark/try/convert']"/>
			<framework value="onnx"/>
			<input value="image"/>
			<input_model value="DIR/model.onnx"/>
			<input_model_is_text value="False"/>
			<input_shape value="[1,3,256,448]"/>
			<k value="DIR/CustomLayersMapping.xml"/>
			<layout value="image(nchw)"/>
			<legacy_mxnet_model value="False"/>
			<log_level value="ERROR"/>
			<mean_values value="()"/>
			<model_name value="person-vehicle-bike-detection-2004"/>
			<output value="boxes,labels"/>
			<output_dir value="DIR"/>
			<progress value="False"/>
			<remove_memory value="False"/>
			<remove_output_softmax value="False"/>
			<reverse_input_channels value="True"/>
			<save_params_from_nd value="False"/>
			<scale_values value="image[255.0]"/>
			<silent value="True"/>
			<source_layout value="()"/>
			<static_shape value="False"/>
			<stream_output value="False"/>
			<target_layout value="()"/>
			<transform value=""/>
			<use_legacy_frontend value="False"/>
			<use_new_frontend value="False"/>
			<unset unset_cli_parameters="batch, counts, disable_fusing, finegrain_fusing, freeze_placeholder_with_value, input_checkpoint, input_meta_graph, input_proto, input_symbol, mean_file, mean_file_offsets, nd_prefix_name, pretrained_model_name, saved_model_dir, saved_model_tags, scale, tensorboard_logdir, tensorflow_custom_layer_libraries, tensorflow_custom_operations_config_update, tensorflow_object_detection_api_pipeline_config, tensorflow_use_custom_operations_config, transformations_config"/>
		</cli_parameters>
	</meta_data>
	<quantization_parameters>
		<config>{
		'compression': {
			'algorithms': [
				{
					'name': 'DefaultQuantization',
					'params': {
						'num_samples_for_tuning': 2000,
						'preset': 'performance',
						'stat_subset_size': 300,
						'use_layerwise_tuning': false
					}
				}
			],
			'dump_intermediate_model': true,
			'target_device': 'ANY'
		},
		'engine': {
			'models': [
				{
					'name': 'person-vehicle-bike-detection-2004',
					'launchers': [
						{
							'framework': 'openvino',
							'adapter': {
								'type': 'faster_rcnn_onnx',
								'labels_out': 'labels',
								'boxes_out': 'boxes'
							},
							'device': 'cpu'
						}
					],
					'datasets': [
						{
							'name': 'crossroad_extra_untagged',
							'data_source': 'PATH',
							'annotation_conversion': {
								'converter': 'mscoco_detection',
								'annotation_file': 'PATH',
								'has_background': false,
								'sort_annotations': true,
								'use_full_label_map': false
							},
							'annotation': 'PATH',
							'dataset_meta': 'PATH',
							'preprocessing': [
								{
									'type': 'resize',
									'dst_width': 448,
									'dst_height': 256
								}
							],
							'postprocessing': [
								{
									'type': 'filter',
									'apply_to': 'prediction',
									'min_confidence': 0.05
								}
							],
							'metrics': [
								{
									'type': 'coco_orig_precision',
									'include_boundaries': false,
									'reference': 0.274
								}
							],
							'_command_line_mapping': {
								'annotation_file': 'PATH'
							}
						}
					]
				}
			],
			'stat_requests_number': null,
			'eval_requests_number': null,
			'type': 'accuracy_checker'
		}
	}</config>
		<version value="invalid version"/>
		<cli_params value="{'quantize': None, 'preset': None, 'model': None, 'weights': None, 'name': None, 'engine': None, 'ac_config': None, 'max_drop': None, 'evaluate': False, 'output_dir': 'PATH', 'direct_dump': True, 'log_level': 'INFO', 'pbar': False, 'stream_output': False, 'keep_uncompressed_weights': False, 'data_source': None}"/>
	</quantization_parameters>
</net>
