<?xml version="1.0" ?>
<net name="RMNet_SSD" version="11">
	<layers>
		<layer id="32" name="data" type="Parameter" version="opset1">
			<data shape="1,3,1024,1024" element_type="f32"/>
			<rt_info>
				<attribute name="old_api_map_element_type" version="0" value="f16"/>
			</rt_info>
			<output>
				<port id="0" precision="FP32" names="data">
					<dim>1</dim>
					<dim>3</dim>
					<dim>1024</dim>
					<dim>1024</dim>
					<rt_info>
						<attribute name="layout" version="0" layout="[N,C,H,W]"/>
					</rt_info>
				</port>
			</output>
		</layer>
		<layer id="0" name="3083308728281" type="Const" version="opset1">
			<data offset="0" size="4" shape="1,1,1,1" element_type="f32"/>
			<output>
				<port id="0" precision="FP32">
					<dim>1</dim>
					<dim>1</dim>
					<dim>1</dim>
					<dim>1</dim>
				</port>
			</output>
		</layer>
		<layer id="1" name="3084308828089" type="Const" version="opset1">
			<data offset="4" size="4" shape="1,1,1,1" element_type="f32"/>
			<output>
				<port id="0" precision="FP32">
					<dim>1</dim>
					<dim>1</dim>
					<dim>1</dim>
					<dim>1</dim>
				</port>
			</output>
		</layer>
		<layer id="2" name="3085308925401" type="Const" version="opset1">
			<data offset="0" size="4" shape="1,1,1,1" element_type="f32"/>
			<output>
				<port id="0" precision="FP32">
					<dim>1</dim>
					<dim>1</dim>
					<dim>1</dim>
					<dim>1</dim>
				</port>
			</output>
		</layer>
		<layer id="3" name="3086309026982" type="Const" version="opset1">
			<data offset="4" size="4" shape="1,1,1,1" element_type="f32"/>
			<output>
				<port id="0" precision="FP32">
					<dim>1</dim>
					<dim>1</dim>
					<dim>1</dim>
					<dim>1</dim>
				</port>
			</output>
		</layer>
		<layer id="4" name="4683468725314" type="Const" version="opset1">
			<data offset="0" size="4" shape="1,1,1,1" element_type="f32"/>
			<output>
				<port id="0" precision="FP32">
					<dim>1</dim>
					<dim>1</dim>
					<dim>1</dim>
					<dim>1</dim>
				</port>
			</output>
		</layer>
		<layer id="5" name="4684468826652" type="Const" version="opset1">
			<data offset="4" size="4" shape="1,1,1,1" element_type="f32"/>
			<output>
				<port id="0" precision="FP32">
					<dim>1</dim>
					<dim>1</dim>
					<dim>1</dim>
					<dim>1</dim>
				</port>
			</output>
		</layer>
		<layer id="6" name="4685468926469" type="Const" version="opset1">
			<data offset="0" size="4" shape="1,1,1,1" element_type="f32"/>
			<output>
				<port id="0" precision="FP32">
					<dim>1</dim>
					<dim>1</dim>
					<dim>1</dim>
					<dim>1</dim>
				</port>
			</output>
		</layer>
		<layer id="7" name="4686469028251" type="Const" version="opset1">
			<data offset="4" size="4" shape="1,1,1,1" element_type="f32"/>
			<output>
				<port id="0" precision="FP32">
					<dim>1</dim>
					<dim>1</dim>
					<dim>1</dim>
					<dim>1</dim>
				</port>
			</output>
		</layer>
		<layer id="8" name="3903390725371" type="Const" version="opset1">
			<data offset="0" size="4" shape="1,1,1,1" element_type="f32"/>
			<output>
				<port id="0" precision="FP32">
					<dim>1</dim>
					<dim>1</dim>
					<dim>1</dim>
					<dim>1</dim>
				</port>
			</output>
		</layer>
		<layer id="9" name="3904390826613" type="Const" version="opset1">
			<data offset="4" size="4" shape="1,1,1,1" element_type="f32"/>
			<output>
				<port id="0" precision="FP32">
					<dim>1</dim>
					<dim>1</dim>
					<dim>1</dim>
					<dim>1</dim>
				</port>
			</output>
		</layer>
		<layer id="10" name="3905390927789" type="Const" version="opset1">
			<data offset="0" size="4" shape="1,1,1,1" element_type="f32"/>
			<output>
				<port id="0" precision="FP32">
					<dim>1</dim>
					<dim>1</dim>
					<dim>1</dim>
					<dim>1</dim>
				</port>
			</output>
		</layer>
		<layer id="11" name="3906391027762" type="Const" version="opset1">
			<data offset="4" size="4" shape="1,1,1,1" element_type="f32"/>
			<output>
				<port id="0" precision="FP32">
					<dim>1</dim>
					<dim>1</dim>
					<dim>1</dim>
					<dim>1</dim>
				</port>
			</output>
		</layer>
		<layer id="12" name="5153515725269" type="Const" version="opset1">
			<data offset="0" size="4" shape="1,1,1,1" element_type="f32"/>
			<output>
				<port id="0" precision="FP32">
					<dim>1</dim>
					<dim>1</dim>
					<dim>1</dim>
					<dim>1</dim>
				</port>
			</output>
		</layer>
		<layer id="13" name="5154515826181" type="Const" version="opset1">
			<data offset="4" size="4" shape="1,1,1,1" element_type="f32"/>
			<output>
				<port id="0" precision="FP32">
					<dim>1</dim>
					<dim>1</dim>
					<dim>1</dim>
					<dim>1</dim>
				</port>
			</output>
		</layer>
		<layer id="14" name="5155515926808" type="Const" version="opset1">
			<data offset="0" size="4" shape="1,1,1,1" element_type="f32"/>
			<output>
				<port id="0" precision="FP32">
					<dim>1</dim>
					<dim>1</dim>
					<dim>1</dim>
					<dim>1</dim>
				</port>
			</output>
		</layer>
		<layer id="15" name="5156516028389" type="Const" version="opset1">
			<data offset="4" size="4" shape="1,1,1,1" element_type="f32"/>
			<output>
				<port id="0" precision="FP32">
					<dim>1</dim>
					<dim>1</dim>
					<dim>1</dim>
					<dim>1</dim>
				</port>
			</output>
		</layer>
		<layer id="16" name="4443444725146" type="Const" version="opset1">
			<data offset="8" size="4" shape="1,1,1,1" element_type="f32"/>
			<output>
				<port id="0" precision="FP32">
					<dim>1</dim>
					<dim>1</dim>
					<dim>1</dim>
					<dim>1</dim>
				</port>
			</output>
		</layer>
		<layer id="17" name="4444444826160" type="Const" version="opset1">
			<data offset="12" size="4" shape="1,1,1,1" element_type="f32"/>
			<output>
				<port id="0" precision="FP32">
					<dim>1</dim>
					<dim>1</dim>
					<dim>1</dim>
					<dim>1</dim>
				</port>
			</output>
		</layer>
		<layer id="18" name="4445444928029" type="Const" version="opset1">
			<data offset="8" size="4" shape="1,1,1,1" element_type="f32"/>
			<output>
				<port id="0" precision="FP32">
					<dim>1</dim>
					<dim>1</dim>
					<dim>1</dim>
					<dim>1</dim>
				</port>
			</output>
		</layer>
		<layer id="19" name="4446445026520" type="Const" version="opset1">
			<data offset="12" size="4" shape="1,1,1,1" element_type="f32"/>
			<output>
				<port id="0" precision="FP32">
					<dim>1</dim>
					<dim>1</dim>
					<dim>1</dim>
					<dim>1</dim>
				</port>
			</output>
		</layer>
		<layer id="20" name="6103610727864" type="Const" version="opset1">
			<data offset="8" size="4" shape="1,1,1,1" element_type="f32"/>
			<output>
				<port id="0" precision="FP32">
					<dim>1</dim>
					<dim>1</dim>
					<dim>1</dim>
					<dim>1</dim>
				</port>
			</output>
		</layer>
		<layer id="21" name="6104610826718" type="Const" version="opset1">
			<data offset="16" size="4" shape="1,1,1,1" element_type="f32"/>
			<output>
				<port id="0" precision="FP32">
					<dim>1</dim>
					<dim>1</dim>
					<dim>1</dim>
					<dim>1</dim>
				</port>
			</output>
		</layer>
		<layer id="22" name="6105610927957" type="Const" version="opset1">
			<data offset="8" size="4" shape="1,1,1,1" element_type="f32"/>
			<output>
				<port id="0" precision="FP32">
					<dim>1</dim>
					<dim>1</dim>
					<dim>1</dim>
					<dim>1</dim>
				</port>
			</output>
		</layer>
		<layer id="23" name="6106611027144" type="Const" version="opset1">
			<data offset="16" size="4" shape="1,1,1,1" element_type="f32"/>
			<output>
				<port id="0" precision="FP32">
					<dim>1</dim>
					<dim>1</dim>
					<dim>1</dim>
					<dim>1</dim>
				</port>
			</output>
		</layer>
		<layer id="24" name="5953595728395" type="Const" version="opset1">
			<data offset="20" size="4" shape="1,1,1,1" element_type="f32"/>
			<output>
				<port id="0" precision="FP32">
					<dim>1</dim>
					<dim>1</dim>
					<dim>1</dim>
					<dim>1</dim>
				</port>
			</output>
		</layer>
		<layer id="25" name="5954595825569" type="Const" version="opset1">
			<data offset="24" size="4" shape="1,1,1,1" element_type="f32"/>
			<output>
				<port id="0" precision="FP32">
					<dim>1</dim>
					<dim>1</dim>
					<dim>1</dim>
					<dim>1</dim>
				</port>
			</output>
		</layer>
		<layer id="26" name="5955595927051" type="Const" version="opset1">
			<data offset="20" size="4" shape="1,1,1,1" element_type="f32"/>
			<output>
				<port id="0" precision="FP32">
					<dim>1</dim>
					<dim>1</dim>
					<dim>1</dim>
					<dim>1</dim>
				</port>
			</output>
		</layer>
		<layer id="27" name="5956596027369" type="Const" version="opset1">
			<data offset="24" size="4" shape="1,1,1,1" element_type="f32"/>
			<output>
				<port id="0" precision="FP32">
					<dim>1</dim>
					<dim>1</dim>
					<dim>1</dim>
					<dim>1</dim>
				</port>
			</output>
		</layer>
		<layer id="28" name="4943494726697" type="Const" version="opset1">
			<data offset="28" size="4" shape="1,1,1,1" element_type="f32"/>
			<output>
				<port id="0" precision="FP32">
					<dim>1</dim>
					<dim>1</dim>
					<dim>1</dim>
					<dim>1</dim>
				</port>
			</output>
		</layer>
		<layer id="29" name="4944494827315" type="Const" version="opset1">
			<data offset="32" size="4" shape="1,1,1,1" element_type="f32"/>
			<output>
				<port id="0" precision="FP32">
					<dim>1</dim>
					<dim>1</dim>
					<dim>1</dim>
					<dim>1</dim>
				</port>
			</output>
		</layer>
		<layer id="30" name="4945494926289" type="Const" version="opset1">
			<data offset="28" size="4" shape="1,1,1,1" element_type="f32"/>
			<output>
				<port id="0" precision="FP32">
					<dim>1</dim>
					<dim>1</dim>
					<dim>1</dim>
					<dim>1</dim>
				</port>
			</output>
		</layer>
		<layer id="31" name="4946495027876" type="Const" version="opset1">
			<data offset="32" size="4" shape="1,1,1,1" element_type="f32"/>
			<output>
				<port id="0" precision="FP32">
					<dim>1</dim>
					<dim>1</dim>
					<dim>1</dim>
					<dim>1</dim>
				</port>
			</output>
		</layer>
		<layer id="33" name="Constant_154296726184" type="Const" version="opset1">
			<data offset="36" size="6" shape="1,3,1,1" element_type="f16"/>
			<output>
				<port id="0" precision="FP16">
					<dim>1</dim>
					<dim>3</dim>
					<dim>1</dim>
					<dim>1</dim>
				</port>
			</output>
		</layer>
		<layer id="34" name="Constant_154296713550/restored_convert" type="Convert" version="opset1">
			<data destination_type="f32"/>
			<rt_info>
				<attribute name="decompression" version="0"/>
			</rt_info>
			<input>
				<port id="0">
					<dim>1</dim>
					<dim>3</dim>
					<dim>1</dim>
					<dim>1</dim>
				</port>
			</input>
			<output>
				<port id="1" precision="FP32">
					<dim>1</dim>
					<dim>3</dim>
					<dim>1</dim>
					<dim>1</dim>
				</port>
			</output>
		</layer>
		<layer id="35" name="Subtract_1543" type="Subtract" version="opset1">
			<data auto_broadcast="numpy"/>
			<rt_info>
				<attribute name="preprocessing" version="0"/>
			</rt_info>
			<input>
				<port id="0">
					<dim>1</dim>
					<dim>3</dim>
					<dim>1024</dim>
					<dim>1024</dim>
				</port>
				<port id="1">
					<dim>1</dim>
					<dim>3</dim>
					<dim>1</dim>
					<dim>1</dim>
				</port>
			</input>
			<output>
				<port id="2" precision="FP32">
					<dim>1</dim>
					<dim>3</dim>
					<dim>1024</dim>
					<dim>1024</dim>
				</port>
			</output>
		</layer>
		<layer id="36" name="data_bn/mean/Fused_Mul_/fq_input_0" type="FakeQuantize" version="opset1">
			<data levels="256" auto_broadcast="numpy"/>
			<input>
				<port id="0">
					<dim>1</dim>
					<dim>3</dim>
					<dim>1024</dim>
					<dim>1024</dim>
				</port>
				<port id="1">
					<dim>1</dim>
					<dim>1</dim>
					<dim>1</dim>
					<dim>1</dim>
				</port>
				<port id="2">
					<dim>1</dim>
					<dim>1</dim>
					<dim>1</dim>
					<dim>1</dim>
				</port>
				<port id="3">
					<dim>1</dim>
					<dim>1</dim>
					<dim>1</dim>
					<dim>1</dim>
				</port>
				<port id="4">
					<dim>1</dim>
					<dim>1</dim>
					<dim>1</dim>
					<dim>1</dim>
				</port>
			</input>
			<output>
				<port id="5" precision="FP32">
					<dim>1</dim>
					<dim>3</dim>
					<dim>1024</dim>
					<dim>1024</dim>
				</port>
			</output>
		</layer>
		<layer id="37" name="data_mul_2561997025173" type="Const" version="opset1">
			<data offset="42" size="6" shape="1,3,1,1" element_type="f16"/>
			<output>
				<port id="0" precision="FP16">
					<dim>1</dim>
					<dim>3</dim>
					<dim>1</dim>
					<dim>1</dim>
				</port>
			</output>
		</layer>
		<layer id="38" name="data_mul_2561997013551/restored_convert" type="Convert" version="opset1">
			<data destination_type="f32"/>
			<rt_info>
				<attribute name="decompression" version="0"/>
			</rt_info>
			<input>
				<port id="0">
					<dim>1</dim>
					<dim>3</dim>
					<dim>1</dim>
					<dim>1</dim>
				</port>
			</input>
			<output>
				<port id="1" precision="FP32">
					<dim>1</dim>
					<dim>3</dim>
					<dim>1</dim>
					<dim>1</dim>
				</port>
			</output>
		</layer>
		<layer id="39" name="data_bn/mean/Fused_Mul_" type="Multiply" version="opset1">
			<data auto_broadcast="numpy"/>
			<input>
				<port id="0">
					<dim>1</dim>
					<dim>3</dim>
					<dim>1024</dim>
					<dim>1024</dim>
				</port>
				<port id="1">
					<dim>1</dim>
					<dim>3</dim>
					<dim>1</dim>
					<dim>1</dim>
				</port>
			</input>
			<output>
				<port id="2" precision="FP32">
					<dim>1</dim>
					<dim>3</dim>
					<dim>1024</dim>
					<dim>1024</dim>
				</port>
			</output>
		</layer>
		<layer id="40" name="data_add_2562197328086" type="Const" version="opset1">
			<data offset="48" size="6" shape="1,3,1,1" element_type="f16"/>
			<output>
				<port id="0" precision="FP16">
					<dim>1</dim>
					<dim>3</dim>
					<dim>1</dim>
					<dim>1</dim>
				</port>
			</output>
		</layer>
		<layer id="41" name="data_add_2562197313552/restored_convert" type="Convert" version="opset1">
			<data destination_type="f32"/>
			<rt_info>
				<attribute name="decompression" version="0"/>
			</rt_info>
			<input>
				<port id="0">
					<dim>1</dim>
					<dim>3</dim>
					<dim>1</dim>
					<dim>1</dim>
				</port>
			</input>
			<output>
				<port id="1" precision="FP32">
					<dim>1</dim>
					<dim>3</dim>
					<dim>1</dim>
					<dim>1</dim>
				</port>
			</output>
		</layer>
		<layer id="42" name="data_bn/variance/Fused_Add_" type="Add" version="opset1">
			<data auto_broadcast="numpy"/>
			<input>
				<port id="0">
					<dim>1</dim>
					<dim>3</dim>
					<dim>1024</dim>
					<dim>1024</dim>
				</port>
				<port id="1">
					<dim>1</dim>
					<dim>3</dim>
					<dim>1</dim>
					<dim>1</dim>
				</port>
			</input>
			<output>
				<port id="2" precision="FP32" names="data_bn">
					<dim>1</dim>
					<dim>3</dim>
					<dim>1024</dim>
					<dim>1024</dim>
				</port>
			</output>
		</layer>
		<layer id="43" name="conv0/WithoutBiases/fq_input_0" type="FakeQuantize" version="opset1">
			<data levels="256" auto_broadcast="numpy"/>
			<input>
				<port id="0">
					<dim>1</dim>
					<dim>3</dim>
					<dim>1024</dim>
					<dim>1024</dim>
				</port>
				<port id="1">
					<dim>1</dim>
					<dim>1</dim>
					<dim>1</dim>
					<dim>1</dim>
				</port>
				<port id="2">
					<dim>1</dim>
					<dim>1</dim>
					<dim>1</dim>
					<dim>1</dim>
				</port>
				<port id="3">
					<dim>1</dim>
					<dim>1</dim>
					<dim>1</dim>
					<dim>1</dim>
				</port>
				<port id="4">
					<dim>1</dim>
					<dim>1</dim>
					<dim>1</dim>
					<dim>1</dim>
				</port>
			</input>
			<output>
				<port id="5" precision="FP32">
					<dim>1</dim>
					<dim>3</dim>
					<dim>1024</dim>
					<dim>1024</dim>
				</port>
			</output>
		</layer>
		<layer id="44" name="conv0/WithoutBiases/fq_weights_1/scale1766926928" type="Const" version="opset1">
			<data offset="54" size="12" shape="3,1,1,1" element_type="f32"/>
			<output>
				<port id="0" precision="FP32">
					<dim>3</dim>
					<dim>1</dim>
					<dim>1</dim>
					<dim>1</dim>
				</port>
			</output>
		</layer>
		<layer id="45" name="conv0_bn/mean/Fused_Mul__copy97613553/restored_convert/quantized1766128056" type="Const" version="opset1">
			<data offset="66" size="441" shape="3,3,7,7" element_type="i8"/>
			<output>
				<port id="0" precision="I8">
					<dim>3</dim>
					<dim>3</dim>
					<dim>7</dim>
					<dim>7</dim>
				</port>
			</output>
		</layer>
		<layer id="46" name="conv0_bn/mean/Fused_Mul__copy97613553/restored_convert/quantized/to_f32" type="Convert" version="opset1">
			<data destination_type="f32"/>
			<input>
				<port id="0">
					<dim>3</dim>
					<dim>3</dim>
					<dim>7</dim>
					<dim>7</dim>
				</port>
			</input>
			<output>
				<port id="1" precision="FP32">
					<dim>3</dim>
					<dim>3</dim>
					<dim>7</dim>
					<dim>7</dim>
				</port>
			</output>
		</layer>
		<layer id="47" name="conv0/WithoutBiases/fq_weights_1/mulpiply_by_scale" type="Multiply" version="opset1">
			<data auto_broadcast="numpy"/>
			<input>
				<port id="0">
					<dim>3</dim>
					<dim>3</dim>
					<dim>7</dim>
					<dim>7</dim>
				</port>
				<port id="1">
					<dim>3</dim>
					<dim>1</dim>
					<dim>1</dim>
					<dim>1</dim>
				</port>
			</input>
			<output>
				<port id="2" precision="FP32">
					<dim>3</dim>
					<dim>3</dim>
					<dim>7</dim>
					<dim>7</dim>
				</port>
			</output>
		</layer>
		<layer id="48" name="conv0/WithoutBiases" type="Convolution" version="opset1">
			<data auto_pad="explicit" strides="2,2" dilations="1,1" pads_begin="3,3" pads_end="3,3"/>
			<input>
				<port id="0">
					<dim>1</dim>
					<dim>3</dim>
					<dim>1024</dim>
					<dim>1024</dim>
				</port>
				<port id="1">
					<dim>3</dim>
					<dim>3</dim>
					<dim>7</dim>
					<dim>7</dim>
				</port>
			</input>
			<output>
				<port id="2" precision="FP32">
					<dim>1</dim>
					<dim>3</dim>
					<dim>512</dim>
					<dim>512</dim>
				</port>
			</output>
		</layer>
		<layer id="49" name="data_add_256242562997927972" type="Const" version="opset1">
			<data offset="507" size="6" shape="1,3,1,1" element_type="f16"/>
			<output>
				<port id="0" precision="FP16">
					<dim>1</dim>
					<dim>3</dim>
					<dim>1</dim>
					<dim>1</dim>
				</port>
			</output>
		</layer>
		<layer id="50" name="data_add_256242562997913554/restored_convert" type="Convert" version="opset1">
			<data destination_type="f32"/>
			<rt_info>
				<attribute name="decompression" version="0"/>
			</rt_info>
			<input>
				<port id="0">
					<dim>1</dim>
					<dim>3</dim>
					<dim>1</dim>
					<dim>1</dim>
				</port>
			</input>
			<output>
				<port id="1" precision="FP32">
					<dim>1</dim>
					<dim>3</dim>
					<dim>1</dim>
					<dim>1</dim>
				</port>
			</output>
		</layer>
		<layer id="51" name="conv0/Fused_Add_" type="Add" version="opset1">
			<data auto_broadcast="numpy"/>
			<input>
				<port id="0">
					<dim>1</dim>
					<dim>3</dim>
					<dim>512</dim>
					<dim>512</dim>
				</port>
				<port id="1">
					<dim>1</dim>
					<dim>3</dim>
					<dim>1</dim>
					<dim>1</dim>
				</port>
			</input>
			<output>
				<port id="2" precision="FP32" names="conv0">
					<dim>1</dim>
					<dim>3</dim>
					<dim>512</dim>
					<dim>512</dim>
				</port>
			</output>
		</layer>
		<layer id="52" name="conv0_relu" type="ReLU" version="opset1">
			<input>
				<port id="0">
					<dim>1</dim>
					<dim>3</dim>
					<dim>512</dim>
					<dim>512</dim>
				</port>
			</input>
			<output>
				<port id="1" precision="FP32" names="conv0">
					<dim>1</dim>
					<dim>3</dim>
					<dim>512</dim>
					<dim>512</dim>
				</port>
			</output>
		</layer>
		<layer id="53" name="init_block1/dim_inc/conv/fq_input_0" type="FakeQuantize" version="opset1">
			<data levels="256" auto_broadcast="numpy"/>
			<input>
				<port id="0">
					<dim>1</dim>
					<dim>3</dim>
					<dim>512</dim>
					<dim>512</dim>
				</port>
				<port id="1">
					<dim>1</dim>
					<dim>1</dim>
					<dim>1</dim>
					<dim>1</dim>
				</port>
				<port id="2">
					<dim>1</dim>
					<dim>1</dim>
					<dim>1</dim>
					<dim>1</dim>
				</port>
				<port id="3">
					<dim>1</dim>
					<dim>1</dim>
					<dim>1</dim>
					<dim>1</dim>
				</port>
				<port id="4">
					<dim>1</dim>
					<dim>1</dim>
					<dim>1</dim>
					<dim>1</dim>
				</port>
			</input>
			<output>
				<port id="5" precision="FP32">
					<dim>1</dim>
					<dim>3</dim>
					<dim>512</dim>
					<dim>512</dim>
				</port>
			</output>
		</layer>
		<layer id="54" name="init_block1/dim_inc/conv/fq_weights_1/scale1703926175" type="Const" version="opset1">
			<data offset="513" size="128" shape="32,1,1,1" element_type="f32"/>
			<output>
				<port id="0" precision="FP32">
					<dim>32</dim>
					<dim>1</dim>
					<dim>1</dim>
					<dim>1</dim>
				</port>
			</output>
		</layer>
		<layer id="55" name="init_block1/dim_inc/bn/mean/Fused_Mul__copy98313555/restored_convert/quantized1703126868" type="Const" version="opset1">
			<data offset="641" size="864" shape="32,3,3,3" element_type="i8"/>
			<output>
				<port id="0" precision="I8">
					<dim>32</dim>
					<dim>3</dim>
					<dim>3</dim>
					<dim>3</dim>
				</port>
			</output>
		</layer>
		<layer id="56" name="init_block1/dim_inc/bn/mean/Fused_Mul__copy98313555/restored_convert/quantized/to_f32" type="Convert" version="opset1">
			<data destination_type="f32"/>
			<input>
				<port id="0">
					<dim>32</dim>
					<dim>3</dim>
					<dim>3</dim>
					<dim>3</dim>
				</port>
			</input>
			<output>
				<port id="1" precision="FP32">
					<dim>32</dim>
					<dim>3</dim>
					<dim>3</dim>
					<dim>3</dim>
				</port>
			</output>
		</layer>
		<layer id="57" name="init_block1/dim_inc/conv/fq_weights_1/mulpiply_by_scale" type="Multiply" version="opset1">
			<data auto_broadcast="numpy"/>
			<input>
				<port id="0">
					<dim>32</dim>
					<dim>3</dim>
					<dim>3</dim>
					<dim>3</dim>
				</port>
				<port id="1">
					<dim>32</dim>
					<dim>1</dim>
					<dim>1</dim>
					<dim>1</dim>
				</port>
			</input>
			<output>
				<port id="2" precision="FP32">
					<dim>32</dim>
					<dim>3</dim>
					<dim>3</dim>
					<dim>3</dim>
				</port>
			</output>
		</layer>
		<layer id="58" name="init_block1/dim_inc/conv" type="Convolution" version="opset1">
			<data auto_pad="explicit" strides="2,2" dilations="1,1" pads_begin="1,1" pads_end="1,1"/>
			<input>
				<port id="0">
					<dim>1</dim>
					<dim>3</dim>
					<dim>512</dim>
					<dim>512</dim>
				</port>
				<port id="1">
					<dim>32</dim>
					<dim>3</dim>
					<dim>3</dim>
					<dim>3</dim>
				</port>
			</input>
			<output>
				<port id="2" precision="FP32">
					<dim>1</dim>
					<dim>32</dim>
					<dim>256</dim>
					<dim>256</dim>
				</port>
			</output>
		</layer>
		<layer id="59" name="data_add_256322563798626685" type="Const" version="opset1">
			<data offset="1505" size="64" shape="1,32,1,1" element_type="f16"/>
			<output>
				<port id="0" precision="FP16">
					<dim>1</dim>
					<dim>32</dim>
					<dim>1</dim>
					<dim>1</dim>
				</port>
			</output>
		</layer>
		<layer id="60" name="data_add_256322563798613556/restored_convert" type="Convert" version="opset1">
			<data destination_type="f32"/>
			<rt_info>
				<attribute name="decompression" version="0"/>
			</rt_info>
			<input>
				<port id="0">
					<dim>1</dim>
					<dim>32</dim>
					<dim>1</dim>
					<dim>1</dim>
				</port>
			</input>
			<output>
				<port id="1" precision="FP32">
					<dim>1</dim>
					<dim>32</dim>
					<dim>1</dim>
					<dim>1</dim>
				</port>
			</output>
		</layer>
		<layer id="61" name="init_block1/dim_inc/bn/variance/Fused_Add_" type="Add" version="opset1">
			<data auto_broadcast="numpy"/>
			<input>
				<port id="0">
					<dim>1</dim>
					<dim>32</dim>
					<dim>256</dim>
					<dim>256</dim>
				</port>
				<port id="1">
					<dim>1</dim>
					<dim>32</dim>
					<dim>1</dim>
					<dim>1</dim>
				</port>
			</input>
			<output>
				<port id="2" precision="FP32" names="init_block1/dim_inc/conv">
					<dim>1</dim>
					<dim>32</dim>
					<dim>256</dim>
					<dim>256</dim>
				</port>
			</output>
		</layer>
		<layer id="62" name="init_block1/dim_inc/fn" type="ReLU" version="opset1">
			<input>
				<port id="0">
					<dim>1</dim>
					<dim>32</dim>
					<dim>256</dim>
					<dim>256</dim>
				</port>
			</input>
			<output>
				<port id="1" precision="FP32" names="init_block1/dim_inc/conv">
					<dim>1</dim>
					<dim>32</dim>
					<dim>256</dim>
					<dim>256</dim>
				</port>
			</output>
		</layer>
		<layer id="63" name="bottleneck1_1/add/fq_input_0" type="FakeQuantize" version="opset1">
			<data levels="256" auto_broadcast="numpy"/>
			<input>
				<port id="0">
					<dim>1</dim>
					<dim>32</dim>
					<dim>256</dim>
					<dim>256</dim>
				</port>
				<port id="1">
					<dim>1</dim>
					<dim>1</dim>
					<dim>1</dim>
					<dim>1</dim>
				</port>
				<port id="2">
					<dim>1</dim>
					<dim>1</dim>
					<dim>1</dim>
					<dim>1</dim>
				</port>
				<port id="3">
					<dim>1</dim>
					<dim>1</dim>
					<dim>1</dim>
					<dim>1</dim>
				</port>
				<port id="4">
					<dim>1</dim>
					<dim>1</dim>
					<dim>1</dim>
					<dim>1</dim>
				</port>
			</input>
			<output>
				<port id="5" precision="FP32">
					<dim>1</dim>
					<dim>32</dim>
					<dim>256</dim>
					<dim>256</dim>
				</port>
			</output>
		</layer>
		<layer id="64" name="4453445725218" type="Const" version="opset1">
			<data offset="1569" size="4" shape="1,1,1,1" element_type="f32"/>
			<output>
				<port id="0" precision="FP32">
					<dim>1</dim>
					<dim>1</dim>
					<dim>1</dim>
					<dim>1</dim>
				</port>
			</output>
		</layer>
		<layer id="65" name="4454445828047" type="Const" version="opset1">
			<data offset="1573" size="4" shape="1,1,1,1" element_type="f32"/>
			<output>
				<port id="0" precision="FP32">
					<dim>1</dim>
					<dim>1</dim>
					<dim>1</dim>
					<dim>1</dim>
				</port>
			</output>
		</layer>
		<layer id="66" name="4455445928416" type="Const" version="opset1">
			<data offset="1569" size="4" shape="1,1,1,1" element_type="f32"/>
			<output>
				<port id="0" precision="FP32">
					<dim>1</dim>
					<dim>1</dim>
					<dim>1</dim>
					<dim>1</dim>
				</port>
			</output>
		</layer>
		<layer id="67" name="4456446028227" type="Const" version="opset1">
			<data offset="1573" size="4" shape="1,1,1,1" element_type="f32"/>
			<output>
				<port id="0" precision="FP32">
					<dim>1</dim>
					<dim>1</dim>
					<dim>1</dim>
					<dim>1</dim>
				</port>
			</output>
		</layer>
		<layer id="68" name="4343434726079" type="Const" version="opset1">
			<data offset="0" size="4" shape="1,1,1,1" element_type="f32"/>
			<output>
				<port id="0" precision="FP32">
					<dim>1</dim>
					<dim>1</dim>
					<dim>1</dim>
					<dim>1</dim>
				</port>
			</output>
		</layer>
		<layer id="69" name="4344434827669" type="Const" version="opset1">
			<data offset="1577" size="4" shape="1,1,1,1" element_type="f32"/>
			<output>
				<port id="0" precision="FP32">
					<dim>1</dim>
					<dim>1</dim>
					<dim>1</dim>
					<dim>1</dim>
				</port>
			</output>
		</layer>
		<layer id="70" name="4345434928233" type="Const" version="opset1">
			<data offset="0" size="4" shape="1,1,1,1" element_type="f32"/>
			<output>
				<port id="0" precision="FP32">
					<dim>1</dim>
					<dim>1</dim>
					<dim>1</dim>
					<dim>1</dim>
				</port>
			</output>
		</layer>
		<layer id="71" name="4346435025956" type="Const" version="opset1">
			<data offset="1577" size="4" shape="1,1,1,1" element_type="f32"/>
			<output>
				<port id="0" precision="FP32">
					<dim>1</dim>
					<dim>1</dim>
					<dim>1</dim>
					<dim>1</dim>
				</port>
			</output>
		</layer>
		<layer id="72" name="4103410727840" type="Const" version="opset1">
			<data offset="1581" size="32" shape="1,8,1,1" element_type="f32"/>
			<output>
				<port id="0" precision="FP32">
					<dim>1</dim>
					<dim>8</dim>
					<dim>1</dim>
					<dim>1</dim>
				</port>
			</output>
		</layer>
		<layer id="73" name="4104410827534" type="Const" version="opset1">
			<data offset="1613" size="32" shape="1,8,1,1" element_type="f32"/>
			<output>
				<port id="0" precision="FP32">
					<dim>1</dim>
					<dim>8</dim>
					<dim>1</dim>
					<dim>1</dim>
				</port>
			</output>
		</layer>
		<layer id="74" name="4105410927258" type="Const" version="opset1">
			<data offset="1581" size="32" shape="1,8,1,1" element_type="f32"/>
			<output>
				<port id="0" precision="FP32">
					<dim>1</dim>
					<dim>8</dim>
					<dim>1</dim>
					<dim>1</dim>
				</port>
			</output>
		</layer>
		<layer id="75" name="4106411027678" type="Const" version="opset1">
			<data offset="1613" size="32" shape="1,8,1,1" element_type="f32"/>
			<output>
				<port id="0" precision="FP32">
					<dim>1</dim>
					<dim>8</dim>
					<dim>1</dim>
					<dim>1</dim>
				</port>
			</output>
		</layer>
		<layer id="76" name="bottleneck1_1/dim_red/conv/fq_weights_1/scale1595926481" type="Const" version="opset1">
			<data offset="1645" size="32" shape="8,1,1,1" element_type="f32"/>
			<output>
				<port id="0" precision="FP32">
					<dim>8</dim>
					<dim>1</dim>
					<dim>1</dim>
					<dim>1</dim>
				</port>
			</output>
		</layer>
		<layer id="77" name="bottleneck1_1/dim_red/bn/mean/Fused_Mul__copy99013557/restored_convert/quantized1595125506" type="Const" version="opset1">
			<data offset="1677" size="256" shape="8,32,1,1" element_type="i8"/>
			<output>
				<port id="0" precision="I8">
					<dim>8</dim>
					<dim>32</dim>
					<dim>1</dim>
					<dim>1</dim>
				</port>
			</output>
		</layer>
		<layer id="78" name="bottleneck1_1/dim_red/bn/mean/Fused_Mul__copy99013557/restored_convert/quantized/to_f32" type="Convert" version="opset1">
			<data destination_type="f32"/>
			<input>
				<port id="0">
					<dim>8</dim>
					<dim>32</dim>
					<dim>1</dim>
					<dim>1</dim>
				</port>
			</input>
			<output>
				<port id="1" precision="FP32">
					<dim>8</dim>
					<dim>32</dim>
					<dim>1</dim>
					<dim>1</dim>
				</port>
			</output>
		</layer>
		<layer id="79" name="bottleneck1_1/dim_red/conv/fq_weights_1/mulpiply_by_scale" type="Multiply" version="opset1">
			<data auto_broadcast="numpy"/>
			<input>
				<port id="0">
					<dim>8</dim>
					<dim>32</dim>
					<dim>1</dim>
					<dim>1</dim>
				</port>
				<port id="1">
					<dim>8</dim>
					<dim>1</dim>
					<dim>1</dim>
					<dim>1</dim>
				</port>
			</input>
			<output>
				<port id="2" precision="FP32">
					<dim>8</dim>
					<dim>32</dim>
					<dim>1</dim>
					<dim>1</dim>
				</port>
			</output>
		</layer>
		<layer id="80" name="bottleneck1_1/dim_red/conv" type="Convolution" version="opset1">
			<data auto_pad="explicit" strides="1,1" dilations="1,1" pads_begin="0,0" pads_end="0,0"/>
			<input>
				<port id="0">
					<dim>1</dim>
					<dim>32</dim>
					<dim>256</dim>
					<dim>256</dim>
				</port>
				<port id="1">
					<dim>8</dim>
					<dim>32</dim>
					<dim>1</dim>
					<dim>1</dim>
				</port>
			</input>
			<output>
				<port id="2" precision="FP32">
					<dim>1</dim>
					<dim>8</dim>
					<dim>256</dim>
					<dim>256</dim>
				</port>
			</output>
		</layer>
		<layer id="81" name="data_add_256402564599326151" type="Const" version="opset1">
			<data offset="1933" size="16" shape="1,8,1,1" element_type="f16"/>
			<output>
				<port id="0" precision="FP16">
					<dim>1</dim>
					<dim>8</dim>
					<dim>1</dim>
					<dim>1</dim>
				</port>
			</output>
		</layer>
		<layer id="82" name="data_add_256402564599313558/restored_convert" type="Convert" version="opset1">
			<data destination_type="f32"/>
			<rt_info>
				<attribute name="decompression" version="0"/>
			</rt_info>
			<input>
				<port id="0">
					<dim>1</dim>
					<dim>8</dim>
					<dim>1</dim>
					<dim>1</dim>
				</port>
			</input>
			<output>
				<port id="1" precision="FP32">
					<dim>1</dim>
					<dim>8</dim>
					<dim>1</dim>
					<dim>1</dim>
				</port>
			</output>
		</layer>
		<layer id="83" name="bottleneck1_1/dim_red/bn/variance/Fused_Add_" type="Add" version="opset1">
			<data auto_broadcast="numpy"/>
			<input>
				<port id="0">
					<dim>1</dim>
					<dim>8</dim>
					<dim>256</dim>
					<dim>256</dim>
				</port>
				<port id="1">
					<dim>1</dim>
					<dim>8</dim>
					<dim>1</dim>
					<dim>1</dim>
				</port>
			</input>
			<output>
				<port id="2" precision="FP32" names="bottleneck1_1/dim_red/conv">
					<dim>1</dim>
					<dim>8</dim>
					<dim>256</dim>
					<dim>256</dim>
				</port>
			</output>
		</layer>
		<layer id="84" name="bottleneck1_1/dim_red/fn" type="Elu" version="opset1">
			<data alpha="1"/>
			<input>
				<port id="0">
					<dim>1</dim>
					<dim>8</dim>
					<dim>256</dim>
					<dim>256</dim>
				</port>
			</input>
			<output>
				<port id="1" precision="FP32" names="bottleneck1_1/dim_red/conv">
					<dim>1</dim>
					<dim>8</dim>
					<dim>256</dim>
					<dim>256</dim>
				</port>
			</output>
		</layer>
		<layer id="85" name="bottleneck1_1/inner/dw1/conv/fq_input_0" type="FakeQuantize" version="opset1">
			<data levels="256" auto_broadcast="numpy"/>
			<input>
				<port id="0">
					<dim>1</dim>
					<dim>8</dim>
					<dim>256</dim>
					<dim>256</dim>
				</port>
				<port id="1">
					<dim>1</dim>
					<dim>8</dim>
					<dim>1</dim>
					<dim>1</dim>
				</port>
				<port id="2">
					<dim>1</dim>
					<dim>8</dim>
					<dim>1</dim>
					<dim>1</dim>
				</port>
				<port id="3">
					<dim>1</dim>
					<dim>8</dim>
					<dim>1</dim>
					<dim>1</dim>
				</port>
				<port id="4">
					<dim>1</dim>
					<dim>8</dim>
					<dim>1</dim>
					<dim>1</dim>
				</port>
			</input>
			<output>
				<port id="5" precision="FP32">
					<dim>1</dim>
					<dim>8</dim>
					<dim>256</dim>
					<dim>256</dim>
				</port>
			</output>
		</layer>
		<layer id="86" name="bottleneck1_1/inner/dw1/conv/fq_weights_1/scale1610928044" type="Const" version="opset1">
			<data offset="1949" size="32" shape="8,1,1,1" element_type="f32"/>
			<output>
				<port id="0" precision="FP32">
					<dim>8</dim>
					<dim>1</dim>
					<dim>1</dim>
					<dim>1</dim>
				</port>
			</output>
		</layer>
		<layer id="87" name="bottleneck1_1/inner/dw1/bn/mean/Fused_Mul__copy99713559/restored_convert/quantized1610125554" type="Const" version="opset1">
			<data offset="1981" size="72" shape="8,1,3,3" element_type="i8"/>
			<output>
				<port id="0" precision="I8">
					<dim>8</dim>
					<dim>1</dim>
					<dim>3</dim>
					<dim>3</dim>
				</port>
			</output>
		</layer>
		<layer id="88" name="bottleneck1_1/inner/dw1/bn/mean/Fused_Mul__copy99713559/restored_convert/quantized/to_f32" type="Convert" version="opset1">
			<data destination_type="f32"/>
			<input>
				<port id="0">
					<dim>8</dim>
					<dim>1</dim>
					<dim>3</dim>
					<dim>3</dim>
				</port>
			</input>
			<output>
				<port id="1" precision="FP32">
					<dim>8</dim>
					<dim>1</dim>
					<dim>3</dim>
					<dim>3</dim>
				</port>
			</output>
		</layer>
		<layer id="89" name="bottleneck1_1/inner/dw1/conv/fq_weights_1/mulpiply_by_scale" type="Multiply" version="opset1">
			<data auto_broadcast="numpy"/>
			<input>
				<port id="0">
					<dim>8</dim>
					<dim>1</dim>
					<dim>3</dim>
					<dim>3</dim>
				</port>
				<port id="1">
					<dim>8</dim>
					<dim>1</dim>
					<dim>1</dim>
					<dim>1</dim>
				</port>
			</input>
			<output>
				<port id="2" precision="FP32">
					<dim>8</dim>
					<dim>1</dim>
					<dim>3</dim>
					<dim>3</dim>
				</port>
			</output>
		</layer>
		<layer id="90" name="bottleneck1_1/inner/dw1/conv/GOI_weights_part2234526310" type="Const" version="opset1">
			<data offset="2053" size="24" shape="3" element_type="i64"/>
			<output>
				<port id="0" precision="I64">
					<dim>3</dim>
				</port>
			</output>
		</layer>
		<layer id="91" name="bottleneck1_1/inner/dw1/conv/WeightsShape" type="ShapeOf" version="opset3">
			<data output_type="i64"/>
			<input>
				<port id="0">
					<dim>8</dim>
					<dim>1</dim>
					<dim>3</dim>
					<dim>3</dim>
				</port>
			</input>
			<output>
				<port id="1" precision="I64">
					<dim>4</dim>
				</port>
			</output>
		</layer>
		<layer id="92" name="bottleneck1_1/inner/dw1/conv/XY_weights_part_input_port_1/value2234126049" type="Const" version="opset1">
			<data offset="2077" size="16" shape="2" element_type="i64"/>
			<output>
				<port id="0" precision="I64">
					<dim>2</dim>
				</port>
			</output>
		</layer>
		<layer id="93" name="bottleneck1_1/inner/dw1/conv/XY_weights_part_input_port_2/value2234327045" type="Const" version="opset1">
			<data offset="2093" size="8" shape="" element_type="i64"/>
			<output>
				<port id="0" precision="I64"/>
			</output>
		</layer>
		<layer id="94" name="bottleneck1_1/inner/dw1/conv/XY_weights_part" type="Gather" version="opset8">
			<data batch_dims="0"/>
			<input>
				<port id="0">
					<dim>4</dim>
				</port>
				<port id="1">
					<dim>2</dim>
				</port>
				<port id="2"/>
			</input>
			<output>
				<port id="3" precision="I64">
					<dim>2</dim>
				</port>
			</output>
		</layer>
		<layer id="95" name="bottleneck1_1/inner/dw1/conv/weights_shape" type="Concat" version="opset1">
			<data axis="0"/>
			<input>
				<port id="0">
					<dim>3</dim>
				</port>
				<port id="1">
					<dim>2</dim>
				</port>
			</input>
			<output>
				<port id="2" precision="I64">
					<dim>5</dim>
				</port>
			</output>
		</layer>
		<layer id="96" name="22347" type="Reshape" version="opset1">
			<data special_zero="true"/>
			<input>
				<port id="0">
					<dim>8</dim>
					<dim>1</dim>
					<dim>3</dim>
					<dim>3</dim>
				</port>
				<port id="1">
					<dim>5</dim>
				</port>
			</input>
			<output>
				<port id="2" precision="FP32">
					<dim>8</dim>
					<dim>1</dim>
					<dim>1</dim>
					<dim>3</dim>
					<dim>3</dim>
				</port>
			</output>
		</layer>
		<layer id="97" name="bottleneck1_1/inner/dw1/conv" type="GroupConvolution" version="opset1">
			<data auto_pad="explicit" strides="1,1" dilations="1,1" pads_begin="1,1" pads_end="1,1"/>
			<input>
				<port id="0">
					<dim>1</dim>
					<dim>8</dim>
					<dim>256</dim>
					<dim>256</dim>
				</port>
				<port id="1">
					<dim>8</dim>
					<dim>1</dim>
					<dim>1</dim>
					<dim>3</dim>
					<dim>3</dim>
				</port>
			</input>
			<output>
				<port id="2" precision="FP32">
					<dim>1</dim>
					<dim>8</dim>
					<dim>256</dim>
					<dim>256</dim>
				</port>
			</output>
		</layer>
		<layer id="98" name="data_add_2564825653100027177" type="Const" version="opset1">
			<data offset="2101" size="16" shape="1,8,1,1" element_type="f16"/>
			<output>
				<port id="0" precision="FP16">
					<dim>1</dim>
					<dim>8</dim>
					<dim>1</dim>
					<dim>1</dim>
				</port>
			</output>
		</layer>
		<layer id="99" name="data_add_2564825653100013560/restored_convert" type="Convert" version="opset1">
			<data destination_type="f32"/>
			<rt_info>
				<attribute name="decompression" version="0"/>
			</rt_info>
			<input>
				<port id="0">
					<dim>1</dim>
					<dim>8</dim>
					<dim>1</dim>
					<dim>1</dim>
				</port>
			</input>
			<output>
				<port id="1" precision="FP32">
					<dim>1</dim>
					<dim>8</dim>
					<dim>1</dim>
					<dim>1</dim>
				</port>
			</output>
		</layer>
		<layer id="100" name="bottleneck1_1/inner/dw1/bn/variance/Fused_Add_" type="Add" version="opset1">
			<data auto_broadcast="numpy"/>
			<input>
				<port id="0">
					<dim>1</dim>
					<dim>8</dim>
					<dim>256</dim>
					<dim>256</dim>
				</port>
				<port id="1">
					<dim>1</dim>
					<dim>8</dim>
					<dim>1</dim>
					<dim>1</dim>
				</port>
			</input>
			<output>
				<port id="2" precision="FP32" names="bottleneck1_1/inner/dw1/conv">
					<dim>1</dim>
					<dim>8</dim>
					<dim>256</dim>
					<dim>256</dim>
				</port>
			</output>
		</layer>
		<layer id="101" name="bottleneck1_1/inner/dw1/fn" type="Elu" version="opset1">
			<data alpha="1"/>
			<input>
				<port id="0">
					<dim>1</dim>
					<dim>8</dim>
					<dim>256</dim>
					<dim>256</dim>
				</port>
			</input>
			<output>
				<port id="1" precision="FP32" names="bottleneck1_1/inner/dw1/conv">
					<dim>1</dim>
					<dim>8</dim>
					<dim>256</dim>
					<dim>256</dim>
				</port>
			</output>
		</layer>
		<layer id="102" name="bottleneck1_1/dim_inc/conv/fq_input_0" type="FakeQuantize" version="opset1">
			<data levels="256" auto_broadcast="numpy"/>
			<input>
				<port id="0">
					<dim>1</dim>
					<dim>8</dim>
					<dim>256</dim>
					<dim>256</dim>
				</port>
				<port id="1">
					<dim>1</dim>
					<dim>1</dim>
					<dim>1</dim>
					<dim>1</dim>
				</port>
				<port id="2">
					<dim>1</dim>
					<dim>1</dim>
					<dim>1</dim>
					<dim>1</dim>
				</port>
				<port id="3">
					<dim>1</dim>
					<dim>1</dim>
					<dim>1</dim>
					<dim>1</dim>
				</port>
				<port id="4">
					<dim>1</dim>
					<dim>1</dim>
					<dim>1</dim>
					<dim>1</dim>
				</port>
			</input>
			<output>
				<port id="5" precision="FP32">
					<dim>1</dim>
					<dim>8</dim>
					<dim>256</dim>
					<dim>256</dim>
				</port>
			</output>
		</layer>
		<layer id="103" name="bottleneck1_1/dim_inc/conv/fq_weights_1/scale1886927627" type="Const" version="opset1">
			<data offset="2117" size="128" shape="32,1,1,1" element_type="f32"/>
			<output>
				<port id="0" precision="FP32">
					<dim>32</dim>
					<dim>1</dim>
					<dim>1</dim>
					<dim>1</dim>
				</port>
			</output>
		</layer>
		<layer id="104" name="bottleneck1_1/dim_inc/bn/mean/Fused_Mul__copy100413561/restored_convert/quantized1886125155" type="Const" version="opset1">
			<data offset="2245" size="256" shape="32,8,1,1" element_type="i8"/>
			<output>
				<port id="0" precision="I8">
					<dim>32</dim>
					<dim>8</dim>
					<dim>1</dim>
					<dim>1</dim>
				</port>
			</output>
		</layer>
		<layer id="105" name="bottleneck1_1/dim_inc/bn/mean/Fused_Mul__copy100413561/restored_convert/quantized/to_f32" type="Convert" version="opset1">
			<data destination_type="f32"/>
			<input>
				<port id="0">
					<dim>32</dim>
					<dim>8</dim>
					<dim>1</dim>
					<dim>1</dim>
				</port>
			</input>
			<output>
				<port id="1" precision="FP32">
					<dim>32</dim>
					<dim>8</dim>
					<dim>1</dim>
					<dim>1</dim>
				</port>
			</output>
		</layer>
		<layer id="106" name="bottleneck1_1/dim_inc/conv/fq_weights_1/mulpiply_by_scale" type="Multiply" version="opset1">
			<data auto_broadcast="numpy"/>
			<input>
				<port id="0">
					<dim>32</dim>
					<dim>8</dim>
					<dim>1</dim>
					<dim>1</dim>
				</port>
				<port id="1">
					<dim>32</dim>
					<dim>1</dim>
					<dim>1</dim>
					<dim>1</dim>
				</port>
			</input>
			<output>
				<port id="2" precision="FP32">
					<dim>32</dim>
					<dim>8</dim>
					<dim>1</dim>
					<dim>1</dim>
				</port>
			</output>
		</layer>
		<layer id="107" name="bottleneck1_1/dim_inc/conv" type="Convolution" version="opset1">
			<data auto_pad="explicit" strides="1,1" dilations="1,1" pads_begin="0,0" pads_end="0,0"/>
			<input>
				<port id="0">
					<dim>1</dim>
					<dim>8</dim>
					<dim>256</dim>
					<dim>256</dim>
				</port>
				<port id="1">
					<dim>32</dim>
					<dim>8</dim>
					<dim>1</dim>
					<dim>1</dim>
				</port>
			</input>
			<output>
				<port id="2" precision="FP32">
					<dim>1</dim>
					<dim>32</dim>
					<dim>256</dim>
					<dim>256</dim>
				</port>
			</output>
		</layer>
		<layer id="108" name="data_add_2565625661100726967" type="Const" version="opset1">
			<data offset="2501" size="64" shape="1,32,1,1" element_type="f16"/>
			<output>
				<port id="0" precision="FP16">
					<dim>1</dim>
					<dim>32</dim>
					<dim>1</dim>
					<dim>1</dim>
				</port>
			</output>
		</layer>
		<layer id="109" name="data_add_2565625661100713562/restored_convert" type="Convert" version="opset1">
			<data destination_type="f32"/>
			<rt_info>
				<attribute name="decompression" version="0"/>
			</rt_info>
			<input>
				<port id="0">
					<dim>1</dim>
					<dim>32</dim>
					<dim>1</dim>
					<dim>1</dim>
				</port>
			</input>
			<output>
				<port id="1" precision="FP32">
					<dim>1</dim>
					<dim>32</dim>
					<dim>1</dim>
					<dim>1</dim>
				</port>
			</output>
		</layer>
		<layer id="110" name="bottleneck1_1/dim_inc/bn/variance/Fused_Add_" type="Add" version="opset1">
			<data auto_broadcast="numpy"/>
			<input>
				<port id="0">
					<dim>1</dim>
					<dim>32</dim>
					<dim>256</dim>
					<dim>256</dim>
				</port>
				<port id="1">
					<dim>1</dim>
					<dim>32</dim>
					<dim>1</dim>
					<dim>1</dim>
				</port>
			</input>
			<output>
				<port id="2" precision="FP32" names="bottleneck1_1/dim_inc/conv">
					<dim>1</dim>
					<dim>32</dim>
					<dim>256</dim>
					<dim>256</dim>
				</port>
			</output>
		</layer>
		<layer id="111" name="bottleneck1_1/add/fq_input_1" type="FakeQuantize" version="opset1">
			<data levels="256" auto_broadcast="numpy"/>
			<input>
				<port id="0">
					<dim>1</dim>
					<dim>32</dim>
					<dim>256</dim>
					<dim>256</dim>
				</port>
				<port id="1">
					<dim>1</dim>
					<dim>1</dim>
					<dim>1</dim>
					<dim>1</dim>
				</port>
				<port id="2">
					<dim>1</dim>
					<dim>1</dim>
					<dim>1</dim>
					<dim>1</dim>
				</port>
				<port id="3">
					<dim>1</dim>
					<dim>1</dim>
					<dim>1</dim>
					<dim>1</dim>
				</port>
				<port id="4">
					<dim>1</dim>
					<dim>1</dim>
					<dim>1</dim>
					<dim>1</dim>
				</port>
			</input>
			<output>
				<port id="5" precision="FP32">
					<dim>1</dim>
					<dim>32</dim>
					<dim>256</dim>
					<dim>256</dim>
				</port>
			</output>
		</layer>
		<layer id="112" name="bottleneck1_1/add" type="Add" version="opset1">
			<data auto_broadcast="numpy"/>
			<input>
				<port id="0">
					<dim>1</dim>
					<dim>32</dim>
					<dim>256</dim>
					<dim>256</dim>
				</port>
				<port id="1">
					<dim>1</dim>
					<dim>32</dim>
					<dim>256</dim>
					<dim>256</dim>
				</port>
			</input>
			<output>
				<port id="2" precision="FP32" names="bottleneck1_1/add">
					<dim>1</dim>
					<dim>32</dim>
					<dim>256</dim>
					<dim>256</dim>
				</port>
			</output>
		</layer>
		<layer id="113" name="bottleneck1_1/fn" type="Elu" version="opset1">
			<data alpha="1"/>
			<input>
				<port id="0">
					<dim>1</dim>
					<dim>32</dim>
					<dim>256</dim>
					<dim>256</dim>
				</port>
			</input>
			<output>
				<port id="1" precision="FP32" names="bottleneck1_1/add">
					<dim>1</dim>
					<dim>32</dim>
					<dim>256</dim>
					<dim>256</dim>
				</port>
			</output>
		</layer>
		<layer id="114" name="bottleneck1_2/add/fq_input_0" type="FakeQuantize" version="opset1">
			<data levels="256" auto_broadcast="numpy"/>
			<input>
				<port id="0">
					<dim>1</dim>
					<dim>32</dim>
					<dim>256</dim>
					<dim>256</dim>
				</port>
				<port id="1">
					<dim>1</dim>
					<dim>1</dim>
					<dim>1</dim>
					<dim>1</dim>
				</port>
				<port id="2">
					<dim>1</dim>
					<dim>1</dim>
					<dim>1</dim>
					<dim>1</dim>
				</port>
				<port id="3">
					<dim>1</dim>
					<dim>1</dim>
					<dim>1</dim>
					<dim>1</dim>
				</port>
				<port id="4">
					<dim>1</dim>
					<dim>1</dim>
					<dim>1</dim>
					<dim>1</dim>
				</port>
			</input>
			<output>
				<port id="5" precision="FP32">
					<dim>1</dim>
					<dim>32</dim>
					<dim>256</dim>
					<dim>256</dim>
				</port>
			</output>
		</layer>
		<layer id="115" name="5163516726325" type="Const" version="opset1">
			<data offset="2565" size="4" shape="1,1,1,1" element_type="f32"/>
			<output>
				<port id="0" precision="FP32">
					<dim>1</dim>
					<dim>1</dim>
					<dim>1</dim>
					<dim>1</dim>
				</port>
			</output>
		</layer>
		<layer id="116" name="5164516826979" type="Const" version="opset1">
			<data offset="2569" size="4" shape="1,1,1,1" element_type="f32"/>
			<output>
				<port id="0" precision="FP32">
					<dim>1</dim>
					<dim>1</dim>
					<dim>1</dim>
					<dim>1</dim>
				</port>
			</output>
		</layer>
		<layer id="117" name="5165516925773" type="Const" version="opset1">
			<data offset="2565" size="4" shape="1,1,1,1" element_type="f32"/>
			<output>
				<port id="0" precision="FP32">
					<dim>1</dim>
					<dim>1</dim>
					<dim>1</dim>
					<dim>1</dim>
				</port>
			</output>
		</layer>
		<layer id="118" name="5166517025677" type="Const" version="opset1">
			<data offset="2569" size="4" shape="1,1,1,1" element_type="f32"/>
			<output>
				<port id="0" precision="FP32">
					<dim>1</dim>
					<dim>1</dim>
					<dim>1</dim>
					<dim>1</dim>
				</port>
			</output>
		</layer>
		<layer id="119" name="4723472726757" type="Const" version="opset1">
			<data offset="2573" size="4" shape="1,1,1,1" element_type="f32"/>
			<output>
				<port id="0" precision="FP32">
					<dim>1</dim>
					<dim>1</dim>
					<dim>1</dim>
					<dim>1</dim>
				</port>
			</output>
		</layer>
		<layer id="120" name="4724472827585" type="Const" version="opset1">
			<data offset="2577" size="4" shape="1,1,1,1" element_type="f32"/>
			<output>
				<port id="0" precision="FP32">
					<dim>1</dim>
					<dim>1</dim>
					<dim>1</dim>
					<dim>1</dim>
				</port>
			</output>
		</layer>
		<layer id="121" name="4725472927987" type="Const" version="opset1">
			<data offset="2573" size="4" shape="1,1,1,1" element_type="f32"/>
			<output>
				<port id="0" precision="FP32">
					<dim>1</dim>
					<dim>1</dim>
					<dim>1</dim>
					<dim>1</dim>
				</port>
			</output>
		</layer>
		<layer id="122" name="4726473026244" type="Const" version="opset1">
			<data offset="2577" size="4" shape="1,1,1,1" element_type="f32"/>
			<output>
				<port id="0" precision="FP32">
					<dim>1</dim>
					<dim>1</dim>
					<dim>1</dim>
					<dim>1</dim>
				</port>
			</output>
		</layer>
		<layer id="123" name="4143414725143" type="Const" version="opset1">
			<data offset="2581" size="32" shape="1,8,1,1" element_type="f32"/>
			<output>
				<port id="0" precision="FP32">
					<dim>1</dim>
					<dim>8</dim>
					<dim>1</dim>
					<dim>1</dim>
				</port>
			</output>
		</layer>
		<layer id="124" name="4144414828242" type="Const" version="opset1">
			<data offset="2613" size="32" shape="1,8,1,1" element_type="f32"/>
			<output>
				<port id="0" precision="FP32">
					<dim>1</dim>
					<dim>8</dim>
					<dim>1</dim>
					<dim>1</dim>
				</port>
			</output>
		</layer>
		<layer id="125" name="4145414927030" type="Const" version="opset1">
			<data offset="2581" size="32" shape="1,8,1,1" element_type="f32"/>
			<output>
				<port id="0" precision="FP32">
					<dim>1</dim>
					<dim>8</dim>
					<dim>1</dim>
					<dim>1</dim>
				</port>
			</output>
		</layer>
		<layer id="126" name="4146415027327" type="Const" version="opset1">
			<data offset="2613" size="32" shape="1,8,1,1" element_type="f32"/>
			<output>
				<port id="0" precision="FP32">
					<dim>1</dim>
					<dim>8</dim>
					<dim>1</dim>
					<dim>1</dim>
				</port>
			</output>
		</layer>
		<layer id="127" name="bottleneck1_2/dim_red/conv/fq_weights_1/scale1874925251" type="Const" version="opset1">
			<data offset="2645" size="32" shape="8,1,1,1" element_type="f32"/>
			<output>
				<port id="0" precision="FP32">
					<dim>8</dim>
					<dim>1</dim>
					<dim>1</dim>
					<dim>1</dim>
				</port>
			</output>
		</layer>
		<layer id="128" name="bottleneck1_2/dim_red/bn/mean/Fused_Mul__copy101213563/restored_convert/quantized1874125248" type="Const" version="opset1">
			<data offset="2677" size="256" shape="8,32,1,1" element_type="i8"/>
			<output>
				<port id="0" precision="I8">
					<dim>8</dim>
					<dim>32</dim>
					<dim>1</dim>
					<dim>1</dim>
				</port>
			</output>
		</layer>
		<layer id="129" name="bottleneck1_2/dim_red/bn/mean/Fused_Mul__copy101213563/restored_convert/quantized/to_f32" type="Convert" version="opset1">
			<data destination_type="f32"/>
			<input>
				<port id="0">
					<dim>8</dim>
					<dim>32</dim>
					<dim>1</dim>
					<dim>1</dim>
				</port>
			</input>
			<output>
				<port id="1" precision="FP32">
					<dim>8</dim>
					<dim>32</dim>
					<dim>1</dim>
					<dim>1</dim>
				</port>
			</output>
		</layer>
		<layer id="130" name="bottleneck1_2/dim_red/conv/fq_weights_1/mulpiply_by_scale" type="Multiply" version="opset1">
			<data auto_broadcast="numpy"/>
			<input>
				<port id="0">
					<dim>8</dim>
					<dim>32</dim>
					<dim>1</dim>
					<dim>1</dim>
				</port>
				<port id="1">
					<dim>8</dim>
					<dim>1</dim>
					<dim>1</dim>
					<dim>1</dim>
				</port>
			</input>
			<output>
				<port id="2" precision="FP32">
					<dim>8</dim>
					<dim>32</dim>
					<dim>1</dim>
					<dim>1</dim>
				</port>
			</output>
		</layer>
		<layer id="131" name="bottleneck1_2/dim_red/conv" type="Convolution" version="opset1">
			<data auto_pad="explicit" strides="1,1" dilations="1,1" pads_begin="0,0" pads_end="0,0"/>
			<input>
				<port id="0">
					<dim>1</dim>
					<dim>32</dim>
					<dim>256</dim>
					<dim>256</dim>
				</port>
				<port id="1">
					<dim>8</dim>
					<dim>32</dim>
					<dim>1</dim>
					<dim>1</dim>
				</port>
			</input>
			<output>
				<port id="2" precision="FP32">
					<dim>1</dim>
					<dim>8</dim>
					<dim>256</dim>
					<dim>256</dim>
				</port>
			</output>
		</layer>
		<layer id="132" name="data_add_2566425669101527108" type="Const" version="opset1">
			<data offset="2933" size="16" shape="1,8,1,1" element_type="f16"/>
			<output>
				<port id="0" precision="FP16">
					<dim>1</dim>
					<dim>8</dim>
					<dim>1</dim>
					<dim>1</dim>
				</port>
			</output>
		</layer>
		<layer id="133" name="data_add_2566425669101513564/restored_convert" type="Convert" version="opset1">
			<data destination_type="f32"/>
			<rt_info>
				<attribute name="decompression" version="0"/>
			</rt_info>
			<input>
				<port id="0">
					<dim>1</dim>
					<dim>8</dim>
					<dim>1</dim>
					<dim>1</dim>
				</port>
			</input>
			<output>
				<port id="1" precision="FP32">
					<dim>1</dim>
					<dim>8</dim>
					<dim>1</dim>
					<dim>1</dim>
				</port>
			</output>
		</layer>
		<layer id="134" name="bottleneck1_2/dim_red/bn/variance/Fused_Add_" type="Add" version="opset1">
			<data auto_broadcast="numpy"/>
			<input>
				<port id="0">
					<dim>1</dim>
					<dim>8</dim>
					<dim>256</dim>
					<dim>256</dim>
				</port>
				<port id="1">
					<dim>1</dim>
					<dim>8</dim>
					<dim>1</dim>
					<dim>1</dim>
				</port>
			</input>
			<output>
				<port id="2" precision="FP32" names="bottleneck1_2/dim_red/conv">
					<dim>1</dim>
					<dim>8</dim>
					<dim>256</dim>
					<dim>256</dim>
				</port>
			</output>
		</layer>
		<layer id="135" name="bottleneck1_2/dim_red/fn" type="Elu" version="opset1">
			<data alpha="1"/>
			<input>
				<port id="0">
					<dim>1</dim>
					<dim>8</dim>
					<dim>256</dim>
					<dim>256</dim>
				</port>
			</input>
			<output>
				<port id="1" precision="FP32" names="bottleneck1_2/dim_red/conv">
					<dim>1</dim>
					<dim>8</dim>
					<dim>256</dim>
					<dim>256</dim>
				</port>
			</output>
		</layer>
		<layer id="136" name="bottleneck1_2/inner/dw1/conv/fq_input_0" type="FakeQuantize" version="opset1">
			<data levels="256" auto_broadcast="numpy"/>
			<input>
				<port id="0">
					<dim>1</dim>
					<dim>8</dim>
					<dim>256</dim>
					<dim>256</dim>
				</port>
				<port id="1">
					<dim>1</dim>
					<dim>8</dim>
					<dim>1</dim>
					<dim>1</dim>
				</port>
				<port id="2">
					<dim>1</dim>
					<dim>8</dim>
					<dim>1</dim>
					<dim>1</dim>
				</port>
				<port id="3">
					<dim>1</dim>
					<dim>8</dim>
					<dim>1</dim>
					<dim>1</dim>
				</port>
				<port id="4">
					<dim>1</dim>
					<dim>8</dim>
					<dim>1</dim>
					<dim>1</dim>
				</port>
			</input>
			<output>
				<port id="5" precision="FP32">
					<dim>1</dim>
					<dim>8</dim>
					<dim>256</dim>
					<dim>256</dim>
				</port>
			</output>
		</layer>
		<layer id="137" name="bottleneck1_2/inner/dw1/conv/fq_weights_1/scale1892925425" type="Const" version="opset1">
			<data offset="2949" size="32" shape="8,1,1,1" element_type="f32"/>
			<output>
				<port id="0" precision="FP32">
					<dim>8</dim>
					<dim>1</dim>
					<dim>1</dim>
					<dim>1</dim>
				</port>
			</output>
		</layer>
		<layer id="138" name="bottleneck1_2/inner/dw1/bn/mean/Fused_Mul__copy101913565/restored_convert/quantized1892126931" type="Const" version="opset1">
			<data offset="2981" size="72" shape="8,1,3,3" element_type="i8"/>
			<output>
				<port id="0" precision="I8">
					<dim>8</dim>
					<dim>1</dim>
					<dim>3</dim>
					<dim>3</dim>
				</port>
			</output>
		</layer>
		<layer id="139" name="bottleneck1_2/inner/dw1/bn/mean/Fused_Mul__copy101913565/restored_convert/quantized/to_f32" type="Convert" version="opset1">
			<data destination_type="f32"/>
			<input>
				<port id="0">
					<dim>8</dim>
					<dim>1</dim>
					<dim>3</dim>
					<dim>3</dim>
				</port>
			</input>
			<output>
				<port id="1" precision="FP32">
					<dim>8</dim>
					<dim>1</dim>
					<dim>3</dim>
					<dim>3</dim>
				</port>
			</output>
		</layer>
		<layer id="140" name="bottleneck1_2/inner/dw1/conv/fq_weights_1/mulpiply_by_scale" type="Multiply" version="opset1">
			<data auto_broadcast="numpy"/>
			<input>
				<port id="0">
					<dim>8</dim>
					<dim>1</dim>
					<dim>3</dim>
					<dim>3</dim>
				</port>
				<port id="1">
					<dim>8</dim>
					<dim>1</dim>
					<dim>1</dim>
					<dim>1</dim>
				</port>
			</input>
			<output>
				<port id="2" precision="FP32">
					<dim>8</dim>
					<dim>1</dim>
					<dim>3</dim>
					<dim>3</dim>
				</port>
			</output>
		</layer>
		<layer id="141" name="bottleneck1_2/inner/dw1/conv/GOI_weights_part2235926664" type="Const" version="opset1">
			<data offset="2053" size="24" shape="3" element_type="i64"/>
			<output>
				<port id="0" precision="I64">
					<dim>3</dim>
				</port>
			</output>
		</layer>
		<layer id="142" name="bottleneck1_2/inner/dw1/conv/WeightsShape" type="ShapeOf" version="opset3">
			<data output_type="i64"/>
			<input>
				<port id="0">
					<dim>8</dim>
					<dim>1</dim>
					<dim>3</dim>
					<dim>3</dim>
				</port>
			</input>
			<output>
				<port id="1" precision="I64">
					<dim>4</dim>
				</port>
			</output>
		</layer>
		<layer id="143" name="bottleneck1_2/inner/dw1/conv/XY_weights_part_input_port_1/value2235527681" type="Const" version="opset1">
			<data offset="2077" size="16" shape="2" element_type="i64"/>
			<output>
				<port id="0" precision="I64">
					<dim>2</dim>
				</port>
			</output>
		</layer>
		<layer id="144" name="bottleneck1_2/inner/dw1/conv/XY_weights_part_input_port_2/value2235725641" type="Const" version="opset1">
			<data offset="2093" size="8" shape="" element_type="i64"/>
			<output>
				<port id="0" precision="I64"/>
			</output>
		</layer>
		<layer id="145" name="bottleneck1_2/inner/dw1/conv/XY_weights_part" type="Gather" version="opset8">
			<data batch_dims="0"/>
			<input>
				<port id="0">
					<dim>4</dim>
				</port>
				<port id="1">
					<dim>2</dim>
				</port>
				<port id="2"/>
			</input>
			<output>
				<port id="3" precision="I64">
					<dim>2</dim>
				</port>
			</output>
		</layer>
		<layer id="146" name="bottleneck1_2/inner/dw1/conv/weights_shape" type="Concat" version="opset1">
			<data axis="0"/>
			<input>
				<port id="0">
					<dim>3</dim>
				</port>
				<port id="1">
					<dim>2</dim>
				</port>
			</input>
			<output>
				<port id="2" precision="I64">
					<dim>5</dim>
				</port>
			</output>
		</layer>
		<layer id="147" name="22361" type="Reshape" version="opset1">
			<data special_zero="true"/>
			<input>
				<port id="0">
					<dim>8</dim>
					<dim>1</dim>
					<dim>3</dim>
					<dim>3</dim>
				</port>
				<port id="1">
					<dim>5</dim>
				</port>
			</input>
			<output>
				<port id="2" precision="FP32">
					<dim>8</dim>
					<dim>1</dim>
					<dim>1</dim>
					<dim>3</dim>
					<dim>3</dim>
				</port>
			</output>
		</layer>
		<layer id="148" name="bottleneck1_2/inner/dw1/conv" type="GroupConvolution" version="opset1">
			<data auto_pad="explicit" strides="1,1" dilations="1,1" pads_begin="1,1" pads_end="1,1"/>
			<input>
				<port id="0">
					<dim>1</dim>
					<dim>8</dim>
					<dim>256</dim>
					<dim>256</dim>
				</port>
				<port id="1">
					<dim>8</dim>
					<dim>1</dim>
					<dim>1</dim>
					<dim>3</dim>
					<dim>3</dim>
				</port>
			</input>
			<output>
				<port id="2" precision="FP32">
					<dim>1</dim>
					<dim>8</dim>
					<dim>256</dim>
					<dim>256</dim>
				</port>
			</output>
		</layer>
		<layer id="149" name="data_add_2567225677102225785" type="Const" version="opset1">
			<data offset="3053" size="16" shape="1,8,1,1" element_type="f16"/>
			<output>
				<port id="0" precision="FP16">
					<dim>1</dim>
					<dim>8</dim>
					<dim>1</dim>
					<dim>1</dim>
				</port>
			</output>
		</layer>
		<layer id="150" name="data_add_2567225677102213566/restored_convert" type="Convert" version="opset1">
			<data destination_type="f32"/>
			<rt_info>
				<attribute name="decompression" version="0"/>
			</rt_info>
			<input>
				<port id="0">
					<dim>1</dim>
					<dim>8</dim>
					<dim>1</dim>
					<dim>1</dim>
				</port>
			</input>
			<output>
				<port id="1" precision="FP32">
					<dim>1</dim>
					<dim>8</dim>
					<dim>1</dim>
					<dim>1</dim>
				</port>
			</output>
		</layer>
		<layer id="151" name="bottleneck1_2/inner/dw1/bn/variance/Fused_Add_" type="Add" version="opset1">
			<data auto_broadcast="numpy"/>
			<input>
				<port id="0">
					<dim>1</dim>
					<dim>8</dim>
					<dim>256</dim>
					<dim>256</dim>
				</port>
				<port id="1">
					<dim>1</dim>
					<dim>8</dim>
					<dim>1</dim>
					<dim>1</dim>
				</port>
			</input>
			<output>
				<port id="2" precision="FP32" names="bottleneck1_2/inner/dw1/conv">
					<dim>1</dim>
					<dim>8</dim>
					<dim>256</dim>
					<dim>256</dim>
				</port>
			</output>
		</layer>
		<layer id="152" name="bottleneck1_2/inner/dw1/fn" type="Elu" version="opset1">
			<data alpha="1"/>
			<input>
				<port id="0">
					<dim>1</dim>
					<dim>8</dim>
					<dim>256</dim>
					<dim>256</dim>
				</port>
			</input>
			<output>
				<port id="1" precision="FP32" names="bottleneck1_2/inner/dw1/conv">
					<dim>1</dim>
					<dim>8</dim>
					<dim>256</dim>
					<dim>256</dim>
				</port>
			</output>
		</layer>
		<layer id="153" name="bottleneck1_2/dim_inc/conv/fq_input_0" type="FakeQuantize" version="opset1">
			<data levels="256" auto_broadcast="numpy"/>
			<input>
				<port id="0">
					<dim>1</dim>
					<dim>8</dim>
					<dim>256</dim>
					<dim>256</dim>
				</port>
				<port id="1">
					<dim>1</dim>
					<dim>1</dim>
					<dim>1</dim>
					<dim>1</dim>
				</port>
				<port id="2">
					<dim>1</dim>
					<dim>1</dim>
					<dim>1</dim>
					<dim>1</dim>
				</port>
				<port id="3">
					<dim>1</dim>
					<dim>1</dim>
					<dim>1</dim>
					<dim>1</dim>
				</port>
				<port id="4">
					<dim>1</dim>
					<dim>1</dim>
					<dim>1</dim>
					<dim>1</dim>
				</port>
			</input>
			<output>
				<port id="5" precision="FP32">
					<dim>1</dim>
					<dim>8</dim>
					<dim>256</dim>
					<dim>256</dim>
				</port>
			</output>
		</layer>
		<layer id="154" name="bottleneck1_2/dim_inc/conv/fq_weights_1/scale1805928185" type="Const" version="opset1">
			<data offset="3069" size="128" shape="32,1,1,1" element_type="f32"/>
			<output>
				<port id="0" precision="FP32">
					<dim>32</dim>
					<dim>1</dim>
					<dim>1</dim>
					<dim>1</dim>
				</port>
			</output>
		</layer>
		<layer id="155" name="bottleneck1_2/dim_inc/bn/mean/Fused_Mul__copy102613567/restored_convert/quantized1805125236" type="Const" version="opset1">
			<data offset="3197" size="256" shape="32,8,1,1" element_type="i8"/>
			<output>
				<port id="0" precision="I8">
					<dim>32</dim>
					<dim>8</dim>
					<dim>1</dim>
					<dim>1</dim>
				</port>
			</output>
		</layer>
		<layer id="156" name="bottleneck1_2/dim_inc/bn/mean/Fused_Mul__copy102613567/restored_convert/quantized/to_f32" type="Convert" version="opset1">
			<data destination_type="f32"/>
			<input>
				<port id="0">
					<dim>32</dim>
					<dim>8</dim>
					<dim>1</dim>
					<dim>1</dim>
				</port>
			</input>
			<output>
				<port id="1" precision="FP32">
					<dim>32</dim>
					<dim>8</dim>
					<dim>1</dim>
					<dim>1</dim>
				</port>
			</output>
		</layer>
		<layer id="157" name="bottleneck1_2/dim_inc/conv/fq_weights_1/mulpiply_by_scale" type="Multiply" version="opset1">
			<data auto_broadcast="numpy"/>
			<input>
				<port id="0">
					<dim>32</dim>
					<dim>8</dim>
					<dim>1</dim>
					<dim>1</dim>
				</port>
				<port id="1">
					<dim>32</dim>
					<dim>1</dim>
					<dim>1</dim>
					<dim>1</dim>
				</port>
			</input>
			<output>
				<port id="2" precision="FP32">
					<dim>32</dim>
					<dim>8</dim>
					<dim>1</dim>
					<dim>1</dim>
				</port>
			</output>
		</layer>
		<layer id="158" name="bottleneck1_2/dim_inc/conv" type="Convolution" version="opset1">
			<data auto_pad="explicit" strides="1,1" dilations="1,1" pads_begin="0,0" pads_end="0,0"/>
			<input>
				<port id="0">
					<dim>1</dim>
					<dim>8</dim>
					<dim>256</dim>
					<dim>256</dim>
				</port>
				<port id="1">
					<dim>32</dim>
					<dim>8</dim>
					<dim>1</dim>
					<dim>1</dim>
				</port>
			</input>
			<output>
				<port id="2" precision="FP32">
					<dim>1</dim>
					<dim>32</dim>
					<dim>256</dim>
					<dim>256</dim>
				</port>
			</output>
		</layer>
		<layer id="159" name="data_add_2568025685102926577" type="Const" version="opset1">
			<data offset="3453" size="64" shape="1,32,1,1" element_type="f16"/>
			<output>
				<port id="0" precision="FP16">
					<dim>1</dim>
					<dim>32</dim>
					<dim>1</dim>
					<dim>1</dim>
				</port>
			</output>
		</layer>
		<layer id="160" name="data_add_2568025685102913568/restored_convert" type="Convert" version="opset1">
			<data destination_type="f32"/>
			<rt_info>
				<attribute name="decompression" version="0"/>
			</rt_info>
			<input>
				<port id="0">
					<dim>1</dim>
					<dim>32</dim>
					<dim>1</dim>
					<dim>1</dim>
				</port>
			</input>
			<output>
				<port id="1" precision="FP32">
					<dim>1</dim>
					<dim>32</dim>
					<dim>1</dim>
					<dim>1</dim>
				</port>
			</output>
		</layer>
		<layer id="161" name="bottleneck1_2/dim_inc/bn/variance/Fused_Add_" type="Add" version="opset1">
			<data auto_broadcast="numpy"/>
			<input>
				<port id="0">
					<dim>1</dim>
					<dim>32</dim>
					<dim>256</dim>
					<dim>256</dim>
				</port>
				<port id="1">
					<dim>1</dim>
					<dim>32</dim>
					<dim>1</dim>
					<dim>1</dim>
				</port>
			</input>
			<output>
				<port id="2" precision="FP32" names="bottleneck1_2/dim_inc/conv">
					<dim>1</dim>
					<dim>32</dim>
					<dim>256</dim>
					<dim>256</dim>
				</port>
			</output>
		</layer>
		<layer id="162" name="bottleneck1_2/add/fq_input_1" type="FakeQuantize" version="opset1">
			<data levels="256" auto_broadcast="numpy"/>
			<input>
				<port id="0">
					<dim>1</dim>
					<dim>32</dim>
					<dim>256</dim>
					<dim>256</dim>
				</port>
				<port id="1">
					<dim>1</dim>
					<dim>1</dim>
					<dim>1</dim>
					<dim>1</dim>
				</port>
				<port id="2">
					<dim>1</dim>
					<dim>1</dim>
					<dim>1</dim>
					<dim>1</dim>
				</port>
				<port id="3">
					<dim>1</dim>
					<dim>1</dim>
					<dim>1</dim>
					<dim>1</dim>
				</port>
				<port id="4">
					<dim>1</dim>
					<dim>1</dim>
					<dim>1</dim>
					<dim>1</dim>
				</port>
			</input>
			<output>
				<port id="5" precision="FP32">
					<dim>1</dim>
					<dim>32</dim>
					<dim>256</dim>
					<dim>256</dim>
				</port>
			</output>
		</layer>
		<layer id="163" name="bottleneck1_2/add" type="Add" version="opset1">
			<data auto_broadcast="numpy"/>
			<input>
				<port id="0">
					<dim>1</dim>
					<dim>32</dim>
					<dim>256</dim>
					<dim>256</dim>
				</port>
				<port id="1">
					<dim>1</dim>
					<dim>32</dim>
					<dim>256</dim>
					<dim>256</dim>
				</port>
			</input>
			<output>
				<port id="2" precision="FP32" names="bottleneck1_2/add">
					<dim>1</dim>
					<dim>32</dim>
					<dim>256</dim>
					<dim>256</dim>
				</port>
			</output>
		</layer>
		<layer id="164" name="bottleneck1_2/fn" type="Elu" version="opset1">
			<data alpha="1"/>
			<input>
				<port id="0">
					<dim>1</dim>
					<dim>32</dim>
					<dim>256</dim>
					<dim>256</dim>
				</port>
			</input>
			<output>
				<port id="1" precision="FP32" names="bottleneck1_2/add">
					<dim>1</dim>
					<dim>32</dim>
					<dim>256</dim>
					<dim>256</dim>
				</port>
			</output>
		</layer>
		<layer id="165" name="bottleneck1_3/add/fq_input_0" type="FakeQuantize" version="opset1">
			<data levels="256" auto_broadcast="numpy"/>
			<input>
				<port id="0">
					<dim>1</dim>
					<dim>32</dim>
					<dim>256</dim>
					<dim>256</dim>
				</port>
				<port id="1">
					<dim>1</dim>
					<dim>1</dim>
					<dim>1</dim>
					<dim>1</dim>
				</port>
				<port id="2">
					<dim>1</dim>
					<dim>1</dim>
					<dim>1</dim>
					<dim>1</dim>
				</port>
				<port id="3">
					<dim>1</dim>
					<dim>1</dim>
					<dim>1</dim>
					<dim>1</dim>
				</port>
				<port id="4">
					<dim>1</dim>
					<dim>1</dim>
					<dim>1</dim>
					<dim>1</dim>
				</port>
			</input>
			<output>
				<port id="5" precision="FP32">
					<dim>1</dim>
					<dim>32</dim>
					<dim>256</dim>
					<dim>256</dim>
				</port>
			</output>
		</layer>
		<layer id="166" name="3913391726631" type="Const" version="opset1">
			<data offset="3517" size="4" shape="1,1,1,1" element_type="f32"/>
			<output>
				<port id="0" precision="FP32">
					<dim>1</dim>
					<dim>1</dim>
					<dim>1</dim>
					<dim>1</dim>
				</port>
			</output>
		</layer>
		<layer id="167" name="3914391827816" type="Const" version="opset1">
			<data offset="3521" size="4" shape="1,1,1,1" element_type="f32"/>
			<output>
				<port id="0" precision="FP32">
					<dim>1</dim>
					<dim>1</dim>
					<dim>1</dim>
					<dim>1</dim>
				</port>
			</output>
		</layer>
		<layer id="168" name="3915391926112" type="Const" version="opset1">
			<data offset="3517" size="4" shape="1,1,1,1" element_type="f32"/>
			<output>
				<port id="0" precision="FP32">
					<dim>1</dim>
					<dim>1</dim>
					<dim>1</dim>
					<dim>1</dim>
				</port>
			</output>
		</layer>
		<layer id="169" name="3916392026937" type="Const" version="opset1">
			<data offset="3521" size="4" shape="1,1,1,1" element_type="f32"/>
			<output>
				<port id="0" precision="FP32">
					<dim>1</dim>
					<dim>1</dim>
					<dim>1</dim>
					<dim>1</dim>
				</port>
			</output>
		</layer>
		<layer id="170" name="3103310726433" type="Const" version="opset1">
			<data offset="0" size="4" shape="1,1,1,1" element_type="f32"/>
			<output>
				<port id="0" precision="FP32">
					<dim>1</dim>
					<dim>1</dim>
					<dim>1</dim>
					<dim>1</dim>
				</port>
			</output>
		</layer>
		<layer id="171" name="3104310827354" type="Const" version="opset1">
			<data offset="1577" size="4" shape="1,1,1,1" element_type="f32"/>
			<output>
				<port id="0" precision="FP32">
					<dim>1</dim>
					<dim>1</dim>
					<dim>1</dim>
					<dim>1</dim>
				</port>
			</output>
		</layer>
		<layer id="172" name="3105310927636" type="Const" version="opset1">
			<data offset="0" size="4" shape="1,1,1,1" element_type="f32"/>
			<output>
				<port id="0" precision="FP32">
					<dim>1</dim>
					<dim>1</dim>
					<dim>1</dim>
					<dim>1</dim>
				</port>
			</output>
		</layer>
		<layer id="173" name="3106311026142" type="Const" version="opset1">
			<data offset="1577" size="4" shape="1,1,1,1" element_type="f32"/>
			<output>
				<port id="0" precision="FP32">
					<dim>1</dim>
					<dim>1</dim>
					<dim>1</dim>
					<dim>1</dim>
				</port>
			</output>
		</layer>
		<layer id="174" name="5133513725572" type="Const" version="opset1">
			<data offset="3525" size="32" shape="1,8,1,1" element_type="f32"/>
			<output>
				<port id="0" precision="FP32">
					<dim>1</dim>
					<dim>8</dim>
					<dim>1</dim>
					<dim>1</dim>
				</port>
			</output>
		</layer>
		<layer id="175" name="5134513828386" type="Const" version="opset1">
			<data offset="3557" size="32" shape="1,8,1,1" element_type="f32"/>
			<output>
				<port id="0" precision="FP32">
					<dim>1</dim>
					<dim>8</dim>
					<dim>1</dim>
					<dim>1</dim>
				</port>
			</output>
		</layer>
		<layer id="176" name="5135513925332" type="Const" version="opset1">
			<data offset="3525" size="32" shape="1,8,1,1" element_type="f32"/>
			<output>
				<port id="0" precision="FP32">
					<dim>1</dim>
					<dim>8</dim>
					<dim>1</dim>
					<dim>1</dim>
				</port>
			</output>
		</layer>
		<layer id="177" name="5136514027624" type="Const" version="opset1">
			<data offset="3557" size="32" shape="1,8,1,1" element_type="f32"/>
			<output>
				<port id="0" precision="FP32">
					<dim>1</dim>
					<dim>8</dim>
					<dim>1</dim>
					<dim>1</dim>
				</port>
			</output>
		</layer>
		<layer id="178" name="bottleneck1_3/dim_red/conv/fq_weights_1/scale1790927378" type="Const" version="opset1">
			<data offset="3589" size="32" shape="8,1,1,1" element_type="f32"/>
			<output>
				<port id="0" precision="FP32">
					<dim>8</dim>
					<dim>1</dim>
					<dim>1</dim>
					<dim>1</dim>
				</port>
			</output>
		</layer>
		<layer id="179" name="bottleneck1_3/dim_red/bn/mean/Fused_Mul__copy103413569/restored_convert/quantized1790125308" type="Const" version="opset1">
			<data offset="3621" size="256" shape="8,32,1,1" element_type="i8"/>
			<output>
				<port id="0" precision="I8">
					<dim>8</dim>
					<dim>32</dim>
					<dim>1</dim>
					<dim>1</dim>
				</port>
			</output>
		</layer>
		<layer id="180" name="bottleneck1_3/dim_red/bn/mean/Fused_Mul__copy103413569/restored_convert/quantized/to_f32" type="Convert" version="opset1">
			<data destination_type="f32"/>
			<input>
				<port id="0">
					<dim>8</dim>
					<dim>32</dim>
					<dim>1</dim>
					<dim>1</dim>
				</port>
			</input>
			<output>
				<port id="1" precision="FP32">
					<dim>8</dim>
					<dim>32</dim>
					<dim>1</dim>
					<dim>1</dim>
				</port>
			</output>
		</layer>
		<layer id="181" name="bottleneck1_3/dim_red/conv/fq_weights_1/mulpiply_by_scale" type="Multiply" version="opset1">
			<data auto_broadcast="numpy"/>
			<input>
				<port id="0">
					<dim>8</dim>
					<dim>32</dim>
					<dim>1</dim>
					<dim>1</dim>
				</port>
				<port id="1">
					<dim>8</dim>
					<dim>1</dim>
					<dim>1</dim>
					<dim>1</dim>
				</port>
			</input>
			<output>
				<port id="2" precision="FP32">
					<dim>8</dim>
					<dim>32</dim>
					<dim>1</dim>
					<dim>1</dim>
				</port>
			</output>
		</layer>
		<layer id="182" name="bottleneck1_3/dim_red/conv" type="Convolution" version="opset1">
			<data auto_pad="explicit" strides="1,1" dilations="1,1" pads_begin="0,0" pads_end="0,0"/>
			<input>
				<port id="0">
					<dim>1</dim>
					<dim>32</dim>
					<dim>256</dim>
					<dim>256</dim>
				</port>
				<port id="1">
					<dim>8</dim>
					<dim>32</dim>
					<dim>1</dim>
					<dim>1</dim>
				</port>
			</input>
			<output>
				<port id="2" precision="FP32">
					<dim>1</dim>
					<dim>8</dim>
					<dim>256</dim>
					<dim>256</dim>
				</port>
			</output>
		</layer>
		<layer id="183" name="data_add_2568825693103725713" type="Const" version="opset1">
			<data offset="3877" size="16" shape="1,8,1,1" element_type="f16"/>
			<output>
				<port id="0" precision="FP16">
					<dim>1</dim>
					<dim>8</dim>
					<dim>1</dim>
					<dim>1</dim>
				</port>
			</output>
		</layer>
		<layer id="184" name="data_add_2568825693103713570/restored_convert" type="Convert" version="opset1">
			<data destination_type="f32"/>
			<rt_info>
				<attribute name="decompression" version="0"/>
			</rt_info>
			<input>
				<port id="0">
					<dim>1</dim>
					<dim>8</dim>
					<dim>1</dim>
					<dim>1</dim>
				</port>
			</input>
			<output>
				<port id="1" precision="FP32">
					<dim>1</dim>
					<dim>8</dim>
					<dim>1</dim>
					<dim>1</dim>
				</port>
			</output>
		</layer>
		<layer id="185" name="bottleneck1_3/dim_red/bn/variance/Fused_Add_" type="Add" version="opset1">
			<data auto_broadcast="numpy"/>
			<input>
				<port id="0">
					<dim>1</dim>
					<dim>8</dim>
					<dim>256</dim>
					<dim>256</dim>
				</port>
				<port id="1">
					<dim>1</dim>
					<dim>8</dim>
					<dim>1</dim>
					<dim>1</dim>
				</port>
			</input>
			<output>
				<port id="2" precision="FP32" names="bottleneck1_3/dim_red/conv">
					<dim>1</dim>
					<dim>8</dim>
					<dim>256</dim>
					<dim>256</dim>
				</port>
			</output>
		</layer>
		<layer id="186" name="bottleneck1_3/dim_red/fn" type="Elu" version="opset1">
			<data alpha="1"/>
			<input>
				<port id="0">
					<dim>1</dim>
					<dim>8</dim>
					<dim>256</dim>
					<dim>256</dim>
				</port>
			</input>
			<output>
				<port id="1" precision="FP32" names="bottleneck1_3/dim_red/conv">
					<dim>1</dim>
					<dim>8</dim>
					<dim>256</dim>
					<dim>256</dim>
				</port>
			</output>
		</layer>
		<layer id="187" name="bottleneck1_3/inner/dw1/conv/fq_input_0" type="FakeQuantize" version="opset1">
			<data levels="256" auto_broadcast="numpy"/>
			<input>
				<port id="0">
					<dim>1</dim>
					<dim>8</dim>
					<dim>256</dim>
					<dim>256</dim>
				</port>
				<port id="1">
					<dim>1</dim>
					<dim>8</dim>
					<dim>1</dim>
					<dim>1</dim>
				</port>
				<port id="2">
					<dim>1</dim>
					<dim>8</dim>
					<dim>1</dim>
					<dim>1</dim>
				</port>
				<port id="3">
					<dim>1</dim>
					<dim>8</dim>
					<dim>1</dim>
					<dim>1</dim>
				</port>
				<port id="4">
					<dim>1</dim>
					<dim>8</dim>
					<dim>1</dim>
					<dim>1</dim>
				</port>
			</input>
			<output>
				<port id="5" precision="FP32">
					<dim>1</dim>
					<dim>8</dim>
					<dim>256</dim>
					<dim>256</dim>
				</port>
			</output>
		</layer>
		<layer id="188" name="bottleneck1_3/inner/dw1/conv/fq_weights_1/scale1835926997" type="Const" version="opset1">
			<data offset="3893" size="32" shape="8,1,1,1" element_type="f32"/>
			<output>
				<port id="0" precision="FP32">
					<dim>8</dim>
					<dim>1</dim>
					<dim>1</dim>
					<dim>1</dim>
				</port>
			</output>
		</layer>
		<layer id="189" name="bottleneck1_3/inner/dw1/bn/mean/Fused_Mul__copy104113571/restored_convert/quantized1835128014" type="Const" version="opset1">
			<data offset="3925" size="72" shape="8,1,3,3" element_type="i8"/>
			<output>
				<port id="0" precision="I8">
					<dim>8</dim>
					<dim>1</dim>
					<dim>3</dim>
					<dim>3</dim>
				</port>
			</output>
		</layer>
		<layer id="190" name="bottleneck1_3/inner/dw1/bn/mean/Fused_Mul__copy104113571/restored_convert/quantized/to_f32" type="Convert" version="opset1">
			<data destination_type="f32"/>
			<input>
				<port id="0">
					<dim>8</dim>
					<dim>1</dim>
					<dim>3</dim>
					<dim>3</dim>
				</port>
			</input>
			<output>
				<port id="1" precision="FP32">
					<dim>8</dim>
					<dim>1</dim>
					<dim>3</dim>
					<dim>3</dim>
				</port>
			</output>
		</layer>
		<layer id="191" name="bottleneck1_3/inner/dw1/conv/fq_weights_1/mulpiply_by_scale" type="Multiply" version="opset1">
			<data auto_broadcast="numpy"/>
			<input>
				<port id="0">
					<dim>8</dim>
					<dim>1</dim>
					<dim>3</dim>
					<dim>3</dim>
				</port>
				<port id="1">
					<dim>8</dim>
					<dim>1</dim>
					<dim>1</dim>
					<dim>1</dim>
				</port>
			</input>
			<output>
				<port id="2" precision="FP32">
					<dim>8</dim>
					<dim>1</dim>
					<dim>3</dim>
					<dim>3</dim>
				</port>
			</output>
		</layer>
		<layer id="192" name="bottleneck1_3/inner/dw1/conv/GOI_weights_part2237325464" type="Const" version="opset1">
			<data offset="2053" size="24" shape="3" element_type="i64"/>
			<output>
				<port id="0" precision="I64">
					<dim>3</dim>
				</port>
			</output>
		</layer>
		<layer id="193" name="bottleneck1_3/inner/dw1/conv/WeightsShape" type="ShapeOf" version="opset3">
			<data output_type="i64"/>
			<input>
				<port id="0">
					<dim>8</dim>
					<dim>1</dim>
					<dim>3</dim>
					<dim>3</dim>
				</port>
			</input>
			<output>
				<port id="1" precision="I64">
					<dim>4</dim>
				</port>
			</output>
		</layer>
		<layer id="194" name="bottleneck1_3/inner/dw1/conv/XY_weights_part_input_port_1/value2236928254" type="Const" version="opset1">
			<data offset="2077" size="16" shape="2" element_type="i64"/>
			<output>
				<port id="0" precision="I64">
					<dim>2</dim>
				</port>
			</output>
		</layer>
		<layer id="195" name="bottleneck1_3/inner/dw1/conv/XY_weights_part_input_port_2/value2237125914" type="Const" version="opset1">
			<data offset="2093" size="8" shape="" element_type="i64"/>
			<output>
				<port id="0" precision="I64"/>
			</output>
		</layer>
		<layer id="196" name="bottleneck1_3/inner/dw1/conv/XY_weights_part" type="Gather" version="opset8">
			<data batch_dims="0"/>
			<input>
				<port id="0">
					<dim>4</dim>
				</port>
				<port id="1">
					<dim>2</dim>
				</port>
				<port id="2"/>
			</input>
			<output>
				<port id="3" precision="I64">
					<dim>2</dim>
				</port>
			</output>
		</layer>
		<layer id="197" name="bottleneck1_3/inner/dw1/conv/weights_shape" type="Concat" version="opset1">
			<data axis="0"/>
			<input>
				<port id="0">
					<dim>3</dim>
				</port>
				<port id="1">
					<dim>2</dim>
				</port>
			</input>
			<output>
				<port id="2" precision="I64">
					<dim>5</dim>
				</port>
			</output>
		</layer>
		<layer id="198" name="22375" type="Reshape" version="opset1">
			<data special_zero="true"/>
			<input>
				<port id="0">
					<dim>8</dim>
					<dim>1</dim>
					<dim>3</dim>
					<dim>3</dim>
				</port>
				<port id="1">
					<dim>5</dim>
				</port>
			</input>
			<output>
				<port id="2" precision="FP32">
					<dim>8</dim>
					<dim>1</dim>
					<dim>1</dim>
					<dim>3</dim>
					<dim>3</dim>
				</port>
			</output>
		</layer>
		<layer id="199" name="bottleneck1_3/inner/dw1/conv" type="GroupConvolution" version="opset1">
			<data auto_pad="explicit" strides="1,1" dilations="1,1" pads_begin="1,1" pads_end="1,1"/>
			<input>
				<port id="0">
					<dim>1</dim>
					<dim>8</dim>
					<dim>256</dim>
					<dim>256</dim>
				</port>
				<port id="1">
					<dim>8</dim>
					<dim>1</dim>
					<dim>1</dim>
					<dim>3</dim>
					<dim>3</dim>
				</port>
			</input>
			<output>
				<port id="2" precision="FP32">
					<dim>1</dim>
					<dim>8</dim>
					<dim>256</dim>
					<dim>256</dim>
				</port>
			</output>
		</layer>
		<layer id="200" name="data_add_2569625701104427492" type="Const" version="opset1">
			<data offset="3997" size="16" shape="1,8,1,1" element_type="f16"/>
			<output>
				<port id="0" precision="FP16">
					<dim>1</dim>
					<dim>8</dim>
					<dim>1</dim>
					<dim>1</dim>
				</port>
			</output>
		</layer>
		<layer id="201" name="data_add_2569625701104413572/restored_convert" type="Convert" version="opset1">
			<data destination_type="f32"/>
			<rt_info>
				<attribute name="decompression" version="0"/>
			</rt_info>
			<input>
				<port id="0">
					<dim>1</dim>
					<dim>8</dim>
					<dim>1</dim>
					<dim>1</dim>
				</port>
			</input>
			<output>
				<port id="1" precision="FP32">
					<dim>1</dim>
					<dim>8</dim>
					<dim>1</dim>
					<dim>1</dim>
				</port>
			</output>
		</layer>
		<layer id="202" name="bottleneck1_3/inner/dw1/bn/variance/Fused_Add_" type="Add" version="opset1">
			<data auto_broadcast="numpy"/>
			<input>
				<port id="0">
					<dim>1</dim>
					<dim>8</dim>
					<dim>256</dim>
					<dim>256</dim>
				</port>
				<port id="1">
					<dim>1</dim>
					<dim>8</dim>
					<dim>1</dim>
					<dim>1</dim>
				</port>
			</input>
			<output>
				<port id="2" precision="FP32" names="bottleneck1_3/inner/dw1/conv">
					<dim>1</dim>
					<dim>8</dim>
					<dim>256</dim>
					<dim>256</dim>
				</port>
			</output>
		</layer>
		<layer id="203" name="bottleneck1_3/inner/dw1/fn" type="Elu" version="opset1">
			<data alpha="1"/>
			<input>
				<port id="0">
					<dim>1</dim>
					<dim>8</dim>
					<dim>256</dim>
					<dim>256</dim>
				</port>
			</input>
			<output>
				<port id="1" precision="FP32" names="bottleneck1_3/inner/dw1/conv">
					<dim>1</dim>
					<dim>8</dim>
					<dim>256</dim>
					<dim>256</dim>
				</port>
			</output>
		</layer>
		<layer id="204" name="bottleneck1_3/dim_inc/conv/fq_input_0" type="FakeQuantize" version="opset1">
			<data levels="256" auto_broadcast="numpy"/>
			<input>
				<port id="0">
					<dim>1</dim>
					<dim>8</dim>
					<dim>256</dim>
					<dim>256</dim>
				</port>
				<port id="1">
					<dim>1</dim>
					<dim>1</dim>
					<dim>1</dim>
					<dim>1</dim>
				</port>
				<port id="2">
					<dim>1</dim>
					<dim>1</dim>
					<dim>1</dim>
					<dim>1</dim>
				</port>
				<port id="3">
					<dim>1</dim>
					<dim>1</dim>
					<dim>1</dim>
					<dim>1</dim>
				</port>
				<port id="4">
					<dim>1</dim>
					<dim>1</dim>
					<dim>1</dim>
					<dim>1</dim>
				</port>
			</input>
			<output>
				<port id="5" precision="FP32">
					<dim>1</dim>
					<dim>8</dim>
					<dim>256</dim>
					<dim>256</dim>
				</port>
			</output>
		</layer>
		<layer id="205" name="bottleneck1_3/dim_inc/conv/fq_weights_1/scale1769926286" type="Const" version="opset1">
			<data offset="4013" size="128" shape="32,1,1,1" element_type="f32"/>
			<output>
				<port id="0" precision="FP32">
					<dim>32</dim>
					<dim>1</dim>
					<dim>1</dim>
					<dim>1</dim>
				</port>
			</output>
		</layer>
		<layer id="206" name="bottleneck1_3/dim_inc/bn/mean/Fused_Mul__copy104813573/restored_convert/quantized1769128344" type="Const" version="opset1">
			<data offset="4141" size="256" shape="32,8,1,1" element_type="i8"/>
			<output>
				<port id="0" precision="I8">
					<dim>32</dim>
					<dim>8</dim>
					<dim>1</dim>
					<dim>1</dim>
				</port>
			</output>
		</layer>
		<layer id="207" name="bottleneck1_3/dim_inc/bn/mean/Fused_Mul__copy104813573/restored_convert/quantized/to_f32" type="Convert" version="opset1">
			<data destination_type="f32"/>
			<input>
				<port id="0">
					<dim>32</dim>
					<dim>8</dim>
					<dim>1</dim>
					<dim>1</dim>
				</port>
			</input>
			<output>
				<port id="1" precision="FP32">
					<dim>32</dim>
					<dim>8</dim>
					<dim>1</dim>
					<dim>1</dim>
				</port>
			</output>
		</layer>
		<layer id="208" name="bottleneck1_3/dim_inc/conv/fq_weights_1/mulpiply_by_scale" type="Multiply" version="opset1">
			<data auto_broadcast="numpy"/>
			<input>
				<port id="0">
					<dim>32</dim>
					<dim>8</dim>
					<dim>1</dim>
					<dim>1</dim>
				</port>
				<port id="1">
					<dim>32</dim>
					<dim>1</dim>
					<dim>1</dim>
					<dim>1</dim>
				</port>
			</input>
			<output>
				<port id="2" precision="FP32">
					<dim>32</dim>
					<dim>8</dim>
					<dim>1</dim>
					<dim>1</dim>
				</port>
			</output>
		</layer>
		<layer id="209" name="bottleneck1_3/dim_inc/conv" type="Convolution" version="opset1">
			<data auto_pad="explicit" strides="1,1" dilations="1,1" pads_begin="0,0" pads_end="0,0"/>
			<input>
				<port id="0">
					<dim>1</dim>
					<dim>8</dim>
					<dim>256</dim>
					<dim>256</dim>
				</port>
				<port id="1">
					<dim>32</dim>
					<dim>8</dim>
					<dim>1</dim>
					<dim>1</dim>
				</port>
			</input>
			<output>
				<port id="2" precision="FP32">
					<dim>1</dim>
					<dim>32</dim>
					<dim>256</dim>
					<dim>256</dim>
				</port>
			</output>
		</layer>
		<layer id="210" name="data_add_2570425709105127447" type="Const" version="opset1">
			<data offset="4397" size="64" shape="1,32,1,1" element_type="f16"/>
			<output>
				<port id="0" precision="FP16">
					<dim>1</dim>
					<dim>32</dim>
					<dim>1</dim>
					<dim>1</dim>
				</port>
			</output>
		</layer>
		<layer id="211" name="data_add_2570425709105113574/restored_convert" type="Convert" version="opset1">
			<data destination_type="f32"/>
			<rt_info>
				<attribute name="decompression" version="0"/>
			</rt_info>
			<input>
				<port id="0">
					<dim>1</dim>
					<dim>32</dim>
					<dim>1</dim>
					<dim>1</dim>
				</port>
			</input>
			<output>
				<port id="1" precision="FP32">
					<dim>1</dim>
					<dim>32</dim>
					<dim>1</dim>
					<dim>1</dim>
				</port>
			</output>
		</layer>
		<layer id="212" name="bottleneck1_3/dim_inc/bn/variance/Fused_Add_" type="Add" version="opset1">
			<data auto_broadcast="numpy"/>
			<input>
				<port id="0">
					<dim>1</dim>
					<dim>32</dim>
					<dim>256</dim>
					<dim>256</dim>
				</port>
				<port id="1">
					<dim>1</dim>
					<dim>32</dim>
					<dim>1</dim>
					<dim>1</dim>
				</port>
			</input>
			<output>
				<port id="2" precision="FP32" names="bottleneck1_3/dim_inc/conv">
					<dim>1</dim>
					<dim>32</dim>
					<dim>256</dim>
					<dim>256</dim>
				</port>
			</output>
		</layer>
		<layer id="213" name="bottleneck1_3/add/fq_input_1" type="FakeQuantize" version="opset1">
			<data levels="256" auto_broadcast="numpy"/>
			<input>
				<port id="0">
					<dim>1</dim>
					<dim>32</dim>
					<dim>256</dim>
					<dim>256</dim>
				</port>
				<port id="1">
					<dim>1</dim>
					<dim>1</dim>
					<dim>1</dim>
					<dim>1</dim>
				</port>
				<port id="2">
					<dim>1</dim>
					<dim>1</dim>
					<dim>1</dim>
					<dim>1</dim>
				</port>
				<port id="3">
					<dim>1</dim>
					<dim>1</dim>
					<dim>1</dim>
					<dim>1</dim>
				</port>
				<port id="4">
					<dim>1</dim>
					<dim>1</dim>
					<dim>1</dim>
					<dim>1</dim>
				</port>
			</input>
			<output>
				<port id="5" precision="FP32">
					<dim>1</dim>
					<dim>32</dim>
					<dim>256</dim>
					<dim>256</dim>
				</port>
			</output>
		</layer>
		<layer id="214" name="bottleneck1_3/add" type="Add" version="opset1">
			<data auto_broadcast="numpy"/>
			<input>
				<port id="0">
					<dim>1</dim>
					<dim>32</dim>
					<dim>256</dim>
					<dim>256</dim>
				</port>
				<port id="1">
					<dim>1</dim>
					<dim>32</dim>
					<dim>256</dim>
					<dim>256</dim>
				</port>
			</input>
			<output>
				<port id="2" precision="FP32" names="bottleneck1_3/add">
					<dim>1</dim>
					<dim>32</dim>
					<dim>256</dim>
					<dim>256</dim>
				</port>
			</output>
		</layer>
		<layer id="215" name="bottleneck1_3/fn" type="Elu" version="opset1">
			<data alpha="1"/>
			<input>
				<port id="0">
					<dim>1</dim>
					<dim>32</dim>
					<dim>256</dim>
					<dim>256</dim>
				</port>
			</input>
			<output>
				<port id="1" precision="FP32" names="bottleneck1_3/add">
					<dim>1</dim>
					<dim>32</dim>
					<dim>256</dim>
					<dim>256</dim>
				</port>
			</output>
		</layer>
		<layer id="216" name="bottleneck1_4/add/fq_input_0" type="FakeQuantize" version="opset1">
			<data levels="256" auto_broadcast="numpy"/>
			<input>
				<port id="0">
					<dim>1</dim>
					<dim>32</dim>
					<dim>256</dim>
					<dim>256</dim>
				</port>
				<port id="1">
					<dim>1</dim>
					<dim>1</dim>
					<dim>1</dim>
					<dim>1</dim>
				</port>
				<port id="2">
					<dim>1</dim>
					<dim>1</dim>
					<dim>1</dim>
					<dim>1</dim>
				</port>
				<port id="3">
					<dim>1</dim>
					<dim>1</dim>
					<dim>1</dim>
					<dim>1</dim>
				</port>
				<port id="4">
					<dim>1</dim>
					<dim>1</dim>
					<dim>1</dim>
					<dim>1</dim>
				</port>
			</input>
			<output>
				<port id="5" precision="FP32">
					<dim>1</dim>
					<dim>32</dim>
					<dim>256</dim>
					<dim>256</dim>
				</port>
			</output>
		</layer>
		<layer id="217" name="4693469727939" type="Const" version="opset1">
			<data offset="4461" size="4" shape="1,1,1,1" element_type="f32"/>
			<output>
				<port id="0" precision="FP32">
					<dim>1</dim>
					<dim>1</dim>
					<dim>1</dim>
					<dim>1</dim>
				</port>
			</output>
		</layer>
		<layer id="218" name="4694469828275" type="Const" version="opset1">
			<data offset="4465" size="4" shape="1,1,1,1" element_type="f32"/>
			<output>
				<port id="0" precision="FP32">
					<dim>1</dim>
					<dim>1</dim>
					<dim>1</dim>
					<dim>1</dim>
				</port>
			</output>
		</layer>
		<layer id="219" name="4695469926655" type="Const" version="opset1">
			<data offset="4461" size="4" shape="1,1,1,1" element_type="f32"/>
			<output>
				<port id="0" precision="FP32">
					<dim>1</dim>
					<dim>1</dim>
					<dim>1</dim>
					<dim>1</dim>
				</port>
			</output>
		</layer>
		<layer id="220" name="4696470025290" type="Const" version="opset1">
			<data offset="4465" size="4" shape="1,1,1,1" element_type="f32"/>
			<output>
				<port id="0" precision="FP32">
					<dim>1</dim>
					<dim>1</dim>
					<dim>1</dim>
					<dim>1</dim>
				</port>
			</output>
		</layer>
		<layer id="221" name="5353535726850" type="Const" version="opset1">
			<data offset="0" size="4" shape="1,1,1,1" element_type="f32"/>
			<output>
				<port id="0" precision="FP32">
					<dim>1</dim>
					<dim>1</dim>
					<dim>1</dim>
					<dim>1</dim>
				</port>
			</output>
		</layer>
		<layer id="222" name="5354535826820" type="Const" version="opset1">
			<data offset="1577" size="4" shape="1,1,1,1" element_type="f32"/>
			<output>
				<port id="0" precision="FP32">
					<dim>1</dim>
					<dim>1</dim>
					<dim>1</dim>
					<dim>1</dim>
				</port>
			</output>
		</layer>
		<layer id="223" name="5355535927474" type="Const" version="opset1">
			<data offset="0" size="4" shape="1,1,1,1" element_type="f32"/>
			<output>
				<port id="0" precision="FP32">
					<dim>1</dim>
					<dim>1</dim>
					<dim>1</dim>
					<dim>1</dim>
				</port>
			</output>
		</layer>
		<layer id="224" name="5356536026892" type="Const" version="opset1">
			<data offset="1577" size="4" shape="1,1,1,1" element_type="f32"/>
			<output>
				<port id="0" precision="FP32">
					<dim>1</dim>
					<dim>1</dim>
					<dim>1</dim>
					<dim>1</dim>
				</port>
			</output>
		</layer>
		<layer id="225" name="3283328725779" type="Const" version="opset1">
			<data offset="4469" size="32" shape="1,8,1,1" element_type="f32"/>
			<output>
				<port id="0" precision="FP32">
					<dim>1</dim>
					<dim>8</dim>
					<dim>1</dim>
					<dim>1</dim>
				</port>
			</output>
		</layer>
		<layer id="226" name="3284328826295" type="Const" version="opset1">
			<data offset="4501" size="32" shape="1,8,1,1" element_type="f32"/>
			<output>
				<port id="0" precision="FP32">
					<dim>1</dim>
					<dim>8</dim>
					<dim>1</dim>
					<dim>1</dim>
				</port>
			</output>
		</layer>
		<layer id="227" name="3285328926823" type="Const" version="opset1">
			<data offset="4469" size="32" shape="1,8,1,1" element_type="f32"/>
			<output>
				<port id="0" precision="FP32">
					<dim>1</dim>
					<dim>8</dim>
					<dim>1</dim>
					<dim>1</dim>
				</port>
			</output>
		</layer>
		<layer id="228" name="3286329027054" type="Const" version="opset1">
			<data offset="4501" size="32" shape="1,8,1,1" element_type="f32"/>
			<output>
				<port id="0" precision="FP32">
					<dim>1</dim>
					<dim>8</dim>
					<dim>1</dim>
					<dim>1</dim>
				</port>
			</output>
		</layer>
		<layer id="229" name="bottleneck1_4/dim_red/conv/fq_weights_1/scale1820925257" type="Const" version="opset1">
			<data offset="4533" size="32" shape="8,1,1,1" element_type="f32"/>
			<output>
				<port id="0" precision="FP32">
					<dim>8</dim>
					<dim>1</dim>
					<dim>1</dim>
					<dim>1</dim>
				</port>
			</output>
		</layer>
		<layer id="230" name="bottleneck1_4/dim_red/bn/mean/Fused_Mul__copy105613575/restored_convert/quantized1820126121" type="Const" version="opset1">
			<data offset="4565" size="256" shape="8,32,1,1" element_type="i8"/>
			<output>
				<port id="0" precision="I8">
					<dim>8</dim>
					<dim>32</dim>
					<dim>1</dim>
					<dim>1</dim>
				</port>
			</output>
		</layer>
		<layer id="231" name="bottleneck1_4/dim_red/bn/mean/Fused_Mul__copy105613575/restored_convert/quantized/to_f32" type="Convert" version="opset1">
			<data destination_type="f32"/>
			<input>
				<port id="0">
					<dim>8</dim>
					<dim>32</dim>
					<dim>1</dim>
					<dim>1</dim>
				</port>
			</input>
			<output>
				<port id="1" precision="FP32">
					<dim>8</dim>
					<dim>32</dim>
					<dim>1</dim>
					<dim>1</dim>
				</port>
			</output>
		</layer>
		<layer id="232" name="bottleneck1_4/dim_red/conv/fq_weights_1/mulpiply_by_scale" type="Multiply" version="opset1">
			<data auto_broadcast="numpy"/>
			<input>
				<port id="0">
					<dim>8</dim>
					<dim>32</dim>
					<dim>1</dim>
					<dim>1</dim>
				</port>
				<port id="1">
					<dim>8</dim>
					<dim>1</dim>
					<dim>1</dim>
					<dim>1</dim>
				</port>
			</input>
			<output>
				<port id="2" precision="FP32">
					<dim>8</dim>
					<dim>32</dim>
					<dim>1</dim>
					<dim>1</dim>
				</port>
			</output>
		</layer>
		<layer id="233" name="bottleneck1_4/dim_red/conv" type="Convolution" version="opset1">
			<data auto_pad="explicit" strides="1,1" dilations="1,1" pads_begin="0,0" pads_end="0,0"/>
			<input>
				<port id="0">
					<dim>1</dim>
					<dim>32</dim>
					<dim>256</dim>
					<dim>256</dim>
				</port>
				<port id="1">
					<dim>8</dim>
					<dim>32</dim>
					<dim>1</dim>
					<dim>1</dim>
				</port>
			</input>
			<output>
				<port id="2" precision="FP32">
					<dim>1</dim>
					<dim>8</dim>
					<dim>256</dim>
					<dim>256</dim>
				</port>
			</output>
		</layer>
		<layer id="234" name="data_add_2571225717105928278" type="Const" version="opset1">
			<data offset="4821" size="16" shape="1,8,1,1" element_type="f16"/>
			<output>
				<port id="0" precision="FP16">
					<dim>1</dim>
					<dim>8</dim>
					<dim>1</dim>
					<dim>1</dim>
				</port>
			</output>
		</layer>
		<layer id="235" name="data_add_2571225717105913576/restored_convert" type="Convert" version="opset1">
			<data destination_type="f32"/>
			<rt_info>
				<attribute name="decompression" version="0"/>
			</rt_info>
			<input>
				<port id="0">
					<dim>1</dim>
					<dim>8</dim>
					<dim>1</dim>
					<dim>1</dim>
				</port>
			</input>
			<output>
				<port id="1" precision="FP32">
					<dim>1</dim>
					<dim>8</dim>
					<dim>1</dim>
					<dim>1</dim>
				</port>
			</output>
		</layer>
		<layer id="236" name="bottleneck1_4/dim_red/bn/variance/Fused_Add_" type="Add" version="opset1">
			<data auto_broadcast="numpy"/>
			<input>
				<port id="0">
					<dim>1</dim>
					<dim>8</dim>
					<dim>256</dim>
					<dim>256</dim>
				</port>
				<port id="1">
					<dim>1</dim>
					<dim>8</dim>
					<dim>1</dim>
					<dim>1</dim>
				</port>
			</input>
			<output>
				<port id="2" precision="FP32" names="bottleneck1_4/dim_red/conv">
					<dim>1</dim>
					<dim>8</dim>
					<dim>256</dim>
					<dim>256</dim>
				</port>
			</output>
		</layer>
		<layer id="237" name="bottleneck1_4/dim_red/fn" type="Elu" version="opset1">
			<data alpha="1"/>
			<input>
				<port id="0">
					<dim>1</dim>
					<dim>8</dim>
					<dim>256</dim>
					<dim>256</dim>
				</port>
			</input>
			<output>
				<port id="1" precision="FP32" names="bottleneck1_4/dim_red/conv">
					<dim>1</dim>
					<dim>8</dim>
					<dim>256</dim>
					<dim>256</dim>
				</port>
			</output>
		</layer>
		<layer id="238" name="bottleneck1_4/inner/dw1/conv/fq_input_0" type="FakeQuantize" version="opset1">
			<data levels="256" auto_broadcast="numpy"/>
			<input>
				<port id="0">
					<dim>1</dim>
					<dim>8</dim>
					<dim>256</dim>
					<dim>256</dim>
				</port>
				<port id="1">
					<dim>1</dim>
					<dim>8</dim>
					<dim>1</dim>
					<dim>1</dim>
				</port>
				<port id="2">
					<dim>1</dim>
					<dim>8</dim>
					<dim>1</dim>
					<dim>1</dim>
				</port>
				<port id="3">
					<dim>1</dim>
					<dim>8</dim>
					<dim>1</dim>
					<dim>1</dim>
				</port>
				<port id="4">
					<dim>1</dim>
					<dim>8</dim>
					<dim>1</dim>
					<dim>1</dim>
				</port>
			</input>
			<output>
				<port id="5" precision="FP32">
					<dim>1</dim>
					<dim>8</dim>
					<dim>256</dim>
					<dim>256</dim>
				</port>
			</output>
		</layer>
		<layer id="239" name="bottleneck1_4/inner/dw1/conv/fq_weights_1/scale1799925140" type="Const" version="opset1">
			<data offset="4837" size="32" shape="8,1,1,1" element_type="f32"/>
			<output>
				<port id="0" precision="FP32">
					<dim>8</dim>
					<dim>1</dim>
					<dim>1</dim>
					<dim>1</dim>
				</port>
			</output>
		</layer>
		<layer id="240" name="bottleneck1_4/inner/dw1/bn/mean/Fused_Mul__copy106313577/restored_convert/quantized1799126637" type="Const" version="opset1">
			<data offset="4869" size="72" shape="8,1,3,3" element_type="i8"/>
			<output>
				<port id="0" precision="I8">
					<dim>8</dim>
					<dim>1</dim>
					<dim>3</dim>
					<dim>3</dim>
				</port>
			</output>
		</layer>
		<layer id="241" name="bottleneck1_4/inner/dw1/bn/mean/Fused_Mul__copy106313577/restored_convert/quantized/to_f32" type="Convert" version="opset1">
			<data destination_type="f32"/>
			<input>
				<port id="0">
					<dim>8</dim>
					<dim>1</dim>
					<dim>3</dim>
					<dim>3</dim>
				</port>
			</input>
			<output>
				<port id="1" precision="FP32">
					<dim>8</dim>
					<dim>1</dim>
					<dim>3</dim>
					<dim>3</dim>
				</port>
			</output>
		</layer>
		<layer id="242" name="bottleneck1_4/inner/dw1/conv/fq_weights_1/mulpiply_by_scale" type="Multiply" version="opset1">
			<data auto_broadcast="numpy"/>
			<input>
				<port id="0">
					<dim>8</dim>
					<dim>1</dim>
					<dim>3</dim>
					<dim>3</dim>
				</port>
				<port id="1">
					<dim>8</dim>
					<dim>1</dim>
					<dim>1</dim>
					<dim>1</dim>
				</port>
			</input>
			<output>
				<port id="2" precision="FP32">
					<dim>8</dim>
					<dim>1</dim>
					<dim>3</dim>
					<dim>3</dim>
				</port>
			</output>
		</layer>
		<layer id="243" name="bottleneck1_4/inner/dw1/conv/GOI_weights_part2238727387" type="Const" version="opset1">
			<data offset="2053" size="24" shape="3" element_type="i64"/>
			<output>
				<port id="0" precision="I64">
					<dim>3</dim>
				</port>
			</output>
		</layer>
		<layer id="244" name="bottleneck1_4/inner/dw1/conv/WeightsShape" type="ShapeOf" version="opset3">
			<data output_type="i64"/>
			<input>
				<port id="0">
					<dim>8</dim>
					<dim>1</dim>
					<dim>3</dim>
					<dim>3</dim>
				</port>
			</input>
			<output>
				<port id="1" precision="I64">
					<dim>4</dim>
				</port>
			</output>
		</layer>
		<layer id="245" name="bottleneck1_4/inner/dw1/conv/XY_weights_part_input_port_1/value2238326529" type="Const" version="opset1">
			<data offset="2077" size="16" shape="2" element_type="i64"/>
			<output>
				<port id="0" precision="I64">
					<dim>2</dim>
				</port>
			</output>
		</layer>
		<layer id="246" name="bottleneck1_4/inner/dw1/conv/XY_weights_part_input_port_2/value2238526466" type="Const" version="opset1">
			<data offset="2093" size="8" shape="" element_type="i64"/>
			<output>
				<port id="0" precision="I64"/>
			</output>
		</layer>
		<layer id="247" name="bottleneck1_4/inner/dw1/conv/XY_weights_part" type="Gather" version="opset8">
			<data batch_dims="0"/>
			<input>
				<port id="0">
					<dim>4</dim>
				</port>
				<port id="1">
					<dim>2</dim>
				</port>
				<port id="2"/>
			</input>
			<output>
				<port id="3" precision="I64">
					<dim>2</dim>
				</port>
			</output>
		</layer>
		<layer id="248" name="bottleneck1_4/inner/dw1/conv/weights_shape" type="Concat" version="opset1">
			<data axis="0"/>
			<input>
				<port id="0">
					<dim>3</dim>
				</port>
				<port id="1">
					<dim>2</dim>
				</port>
			</input>
			<output>
				<port id="2" precision="I64">
					<dim>5</dim>
				</port>
			</output>
		</layer>
		<layer id="249" name="22389" type="Reshape" version="opset1">
			<data special_zero="true"/>
			<input>
				<port id="0">
					<dim>8</dim>
					<dim>1</dim>
					<dim>3</dim>
					<dim>3</dim>
				</port>
				<port id="1">
					<dim>5</dim>
				</port>
			</input>
			<output>
				<port id="2" precision="FP32">
					<dim>8</dim>
					<dim>1</dim>
					<dim>1</dim>
					<dim>3</dim>
					<dim>3</dim>
				</port>
			</output>
		</layer>
		<layer id="250" name="bottleneck1_4/inner/dw1/conv" type="GroupConvolution" version="opset1">
			<data auto_pad="explicit" strides="1,1" dilations="1,1" pads_begin="1,1" pads_end="1,1"/>
			<input>
				<port id="0">
					<dim>1</dim>
					<dim>8</dim>
					<dim>256</dim>
					<dim>256</dim>
				</port>
				<port id="1">
					<dim>8</dim>
					<dim>1</dim>
					<dim>1</dim>
					<dim>3</dim>
					<dim>3</dim>
				</port>
			</input>
			<output>
				<port id="2" precision="FP32">
					<dim>1</dim>
					<dim>8</dim>
					<dim>256</dim>
					<dim>256</dim>
				</port>
			</output>
		</layer>
		<layer id="251" name="data_add_2572025725106627522" type="Const" version="opset1">
			<data offset="4941" size="16" shape="1,8,1,1" element_type="f16"/>
			<output>
				<port id="0" precision="FP16">
					<dim>1</dim>
					<dim>8</dim>
					<dim>1</dim>
					<dim>1</dim>
				</port>
			</output>
		</layer>
		<layer id="252" name="data_add_2572025725106613578/restored_convert" type="Convert" version="opset1">
			<data destination_type="f32"/>
			<rt_info>
				<attribute name="decompression" version="0"/>
			</rt_info>
			<input>
				<port id="0">
					<dim>1</dim>
					<dim>8</dim>
					<dim>1</dim>
					<dim>1</dim>
				</port>
			</input>
			<output>
				<port id="1" precision="FP32">
					<dim>1</dim>
					<dim>8</dim>
					<dim>1</dim>
					<dim>1</dim>
				</port>
			</output>
		</layer>
		<layer id="253" name="bottleneck1_4/inner/dw1/bn/variance/Fused_Add_" type="Add" version="opset1">
			<data auto_broadcast="numpy"/>
			<input>
				<port id="0">
					<dim>1</dim>
					<dim>8</dim>
					<dim>256</dim>
					<dim>256</dim>
				</port>
				<port id="1">
					<dim>1</dim>
					<dim>8</dim>
					<dim>1</dim>
					<dim>1</dim>
				</port>
			</input>
			<output>
				<port id="2" precision="FP32" names="bottleneck1_4/inner/dw1/conv">
					<dim>1</dim>
					<dim>8</dim>
					<dim>256</dim>
					<dim>256</dim>
				</port>
			</output>
		</layer>
		<layer id="254" name="bottleneck1_4/inner/dw1/fn" type="Elu" version="opset1">
			<data alpha="1"/>
			<input>
				<port id="0">
					<dim>1</dim>
					<dim>8</dim>
					<dim>256</dim>
					<dim>256</dim>
				</port>
			</input>
			<output>
				<port id="1" precision="FP32" names="bottleneck1_4/inner/dw1/conv">
					<dim>1</dim>
					<dim>8</dim>
					<dim>256</dim>
					<dim>256</dim>
				</port>
			</output>
		</layer>
		<layer id="255" name="bottleneck1_4/dim_inc/conv/fq_input_0" type="FakeQuantize" version="opset1">
			<data levels="256" auto_broadcast="numpy"/>
			<input>
				<port id="0">
					<dim>1</dim>
					<dim>8</dim>
					<dim>256</dim>
					<dim>256</dim>
				</port>
				<port id="1">
					<dim>1</dim>
					<dim>1</dim>
					<dim>1</dim>
					<dim>1</dim>
				</port>
				<port id="2">
					<dim>1</dim>
					<dim>1</dim>
					<dim>1</dim>
					<dim>1</dim>
				</port>
				<port id="3">
					<dim>1</dim>
					<dim>1</dim>
					<dim>1</dim>
					<dim>1</dim>
				</port>
				<port id="4">
					<dim>1</dim>
					<dim>1</dim>
					<dim>1</dim>
					<dim>1</dim>
				</port>
			</input>
			<output>
				<port id="5" precision="FP32">
					<dim>1</dim>
					<dim>8</dim>
					<dim>256</dim>
					<dim>256</dim>
				</port>
			</output>
		</layer>
		<layer id="256" name="bottleneck1_4/dim_inc/conv/fq_weights_1/scale1652927597" type="Const" version="opset1">
			<data offset="4957" size="128" shape="32,1,1,1" element_type="f32"/>
			<output>
				<port id="0" precision="FP32">
					<dim>32</dim>
					<dim>1</dim>
					<dim>1</dim>
					<dim>1</dim>
				</port>
			</output>
		</layer>
		<layer id="257" name="bottleneck1_4/dim_inc/bn/mean/Fused_Mul__copy107013579/restored_convert/quantized1652127708" type="Const" version="opset1">
			<data offset="5085" size="256" shape="32,8,1,1" element_type="i8"/>
			<output>
				<port id="0" precision="I8">
					<dim>32</dim>
					<dim>8</dim>
					<dim>1</dim>
					<dim>1</dim>
				</port>
			</output>
		</layer>
		<layer id="258" name="bottleneck1_4/dim_inc/bn/mean/Fused_Mul__copy107013579/restored_convert/quantized/to_f32" type="Convert" version="opset1">
			<data destination_type="f32"/>
			<input>
				<port id="0">
					<dim>32</dim>
					<dim>8</dim>
					<dim>1</dim>
					<dim>1</dim>
				</port>
			</input>
			<output>
				<port id="1" precision="FP32">
					<dim>32</dim>
					<dim>8</dim>
					<dim>1</dim>
					<dim>1</dim>
				</port>
			</output>
		</layer>
		<layer id="259" name="bottleneck1_4/dim_inc/conv/fq_weights_1/mulpiply_by_scale" type="Multiply" version="opset1">
			<data auto_broadcast="numpy"/>
			<input>
				<port id="0">
					<dim>32</dim>
					<dim>8</dim>
					<dim>1</dim>
					<dim>1</dim>
				</port>
				<port id="1">
					<dim>32</dim>
					<dim>1</dim>
					<dim>1</dim>
					<dim>1</dim>
				</port>
			</input>
			<output>
				<port id="2" precision="FP32">
					<dim>32</dim>
					<dim>8</dim>
					<dim>1</dim>
					<dim>1</dim>
				</port>
			</output>
		</layer>
		<layer id="260" name="bottleneck1_4/dim_inc/conv" type="Convolution" version="opset1">
			<data auto_pad="explicit" strides="1,1" dilations="1,1" pads_begin="0,0" pads_end="0,0"/>
			<input>
				<port id="0">
					<dim>1</dim>
					<dim>8</dim>
					<dim>256</dim>
					<dim>256</dim>
				</port>
				<port id="1">
					<dim>32</dim>
					<dim>8</dim>
					<dim>1</dim>
					<dim>1</dim>
				</port>
			</input>
			<output>
				<port id="2" precision="FP32">
					<dim>1</dim>
					<dim>32</dim>
					<dim>256</dim>
					<dim>256</dim>
				</port>
			</output>
		</layer>
		<layer id="261" name="data_add_2572825733107325722" type="Const" version="opset1">
			<data offset="5341" size="64" shape="1,32,1,1" element_type="f16"/>
			<output>
				<port id="0" precision="FP16">
					<dim>1</dim>
					<dim>32</dim>
					<dim>1</dim>
					<dim>1</dim>
				</port>
			</output>
		</layer>
		<layer id="262" name="data_add_2572825733107313580/restored_convert" type="Convert" version="opset1">
			<data destination_type="f32"/>
			<rt_info>
				<attribute name="decompression" version="0"/>
			</rt_info>
			<input>
				<port id="0">
					<dim>1</dim>
					<dim>32</dim>
					<dim>1</dim>
					<dim>1</dim>
				</port>
			</input>
			<output>
				<port id="1" precision="FP32">
					<dim>1</dim>
					<dim>32</dim>
					<dim>1</dim>
					<dim>1</dim>
				</port>
			</output>
		</layer>
		<layer id="263" name="bottleneck1_4/dim_inc/bn/variance/Fused_Add_" type="Add" version="opset1">
			<data auto_broadcast="numpy"/>
			<input>
				<port id="0">
					<dim>1</dim>
					<dim>32</dim>
					<dim>256</dim>
					<dim>256</dim>
				</port>
				<port id="1">
					<dim>1</dim>
					<dim>32</dim>
					<dim>1</dim>
					<dim>1</dim>
				</port>
			</input>
			<output>
				<port id="2" precision="FP32" names="bottleneck1_4/dim_inc/conv">
					<dim>1</dim>
					<dim>32</dim>
					<dim>256</dim>
					<dim>256</dim>
				</port>
			</output>
		</layer>
		<layer id="264" name="bottleneck1_4/add/fq_input_1" type="FakeQuantize" version="opset1">
			<data levels="256" auto_broadcast="numpy"/>
			<input>
				<port id="0">
					<dim>1</dim>
					<dim>32</dim>
					<dim>256</dim>
					<dim>256</dim>
				</port>
				<port id="1">
					<dim>1</dim>
					<dim>1</dim>
					<dim>1</dim>
					<dim>1</dim>
				</port>
				<port id="2">
					<dim>1</dim>
					<dim>1</dim>
					<dim>1</dim>
					<dim>1</dim>
				</port>
				<port id="3">
					<dim>1</dim>
					<dim>1</dim>
					<dim>1</dim>
					<dim>1</dim>
				</port>
				<port id="4">
					<dim>1</dim>
					<dim>1</dim>
					<dim>1</dim>
					<dim>1</dim>
				</port>
			</input>
			<output>
				<port id="5" precision="FP32">
					<dim>1</dim>
					<dim>32</dim>
					<dim>256</dim>
					<dim>256</dim>
				</port>
			</output>
		</layer>
		<layer id="265" name="bottleneck1_4/add" type="Add" version="opset1">
			<data auto_broadcast="numpy"/>
			<input>
				<port id="0">
					<dim>1</dim>
					<dim>32</dim>
					<dim>256</dim>
					<dim>256</dim>
				</port>
				<port id="1">
					<dim>1</dim>
					<dim>32</dim>
					<dim>256</dim>
					<dim>256</dim>
				</port>
			</input>
			<output>
				<port id="2" precision="FP32" names="bottleneck1_4/add">
					<dim>1</dim>
					<dim>32</dim>
					<dim>256</dim>
					<dim>256</dim>
				</port>
			</output>
		</layer>
		<layer id="266" name="bottleneck1_4/fn" type="Elu" version="opset1">
			<data alpha="1"/>
			<input>
				<port id="0">
					<dim>1</dim>
					<dim>32</dim>
					<dim>256</dim>
					<dim>256</dim>
				</port>
			</input>
			<output>
				<port id="1" precision="FP32" names="bottleneck1_4/add">
					<dim>1</dim>
					<dim>32</dim>
					<dim>256</dim>
					<dim>256</dim>
				</port>
			</output>
		</layer>
		<layer id="267" name="bottleneck2_0/dim_red/conv/fq_input_0" type="FakeQuantize" version="opset1">
			<data levels="256" auto_broadcast="numpy"/>
			<input>
				<port id="0">
					<dim>1</dim>
					<dim>32</dim>
					<dim>256</dim>
					<dim>256</dim>
				</port>
				<port id="1">
					<dim>1</dim>
					<dim>1</dim>
					<dim>1</dim>
					<dim>1</dim>
				</port>
				<port id="2">
					<dim>1</dim>
					<dim>1</dim>
					<dim>1</dim>
					<dim>1</dim>
				</port>
				<port id="3">
					<dim>1</dim>
					<dim>1</dim>
					<dim>1</dim>
					<dim>1</dim>
				</port>
				<port id="4">
					<dim>1</dim>
					<dim>1</dim>
					<dim>1</dim>
					<dim>1</dim>
				</port>
			</input>
			<output>
				<port id="5" precision="FP32">
					<dim>1</dim>
					<dim>32</dim>
					<dim>256</dim>
					<dim>256</dim>
				</port>
			</output>
		</layer>
		<layer id="268" name="bottleneck2_0/skip/pooling" type="MaxPool" version="opset8">
			<data strides="2,2" kernel="2,2" pads_begin="0,0" pads_end="0,0" rounding_type="ceil" auto_pad="explicit" dilations="1,1" axis="0" index_element_type="i64"/>
			<input>
				<port id="0">
					<dim>1</dim>
					<dim>32</dim>
					<dim>256</dim>
					<dim>256</dim>
				</port>
			</input>
			<output>
				<port id="1" precision="FP32" names="bottleneck2_0/skip/pooling">
					<dim>1</dim>
					<dim>32</dim>
					<dim>128</dim>
					<dim>128</dim>
				</port>
				<port id="2" precision="FP32">
					<dim>1</dim>
					<dim>32</dim>
					<dim>128</dim>
					<dim>128</dim>
					<rt_info/>
				</port>
			</output>
		</layer>
		<layer id="270" name="4823482726253" type="Const" version="opset1">
			<data offset="5405" size="4" shape="1,1,1,1" element_type="f32"/>
			<output>
				<port id="0" precision="FP32">
					<dim>1</dim>
					<dim>1</dim>
					<dim>1</dim>
					<dim>1</dim>
				</port>
			</output>
		</layer>
		<layer id="271" name="4824482826934" type="Const" version="opset1">
			<data offset="5409" size="4" shape="1,1,1,1" element_type="f32"/>
			<output>
				<port id="0" precision="FP32">
					<dim>1</dim>
					<dim>1</dim>
					<dim>1</dim>
					<dim>1</dim>
				</port>
			</output>
		</layer>
		<layer id="272" name="4825482925395" type="Const" version="opset1">
			<data offset="5405" size="4" shape="1,1,1,1" element_type="f32"/>
			<output>
				<port id="0" precision="FP32">
					<dim>1</dim>
					<dim>1</dim>
					<dim>1</dim>
					<dim>1</dim>
				</port>
			</output>
		</layer>
		<layer id="273" name="4826483028155" type="Const" version="opset1">
			<data offset="5409" size="4" shape="1,1,1,1" element_type="f32"/>
			<output>
				<port id="0" precision="FP32">
					<dim>1</dim>
					<dim>1</dim>
					<dim>1</dim>
					<dim>1</dim>
				</port>
			</output>
		</layer>
		<layer id="274" name="5813581725239" type="Const" version="opset1">
			<data offset="5413" size="4" shape="1,1,1,1" element_type="f32"/>
			<output>
				<port id="0" precision="FP32">
					<dim>1</dim>
					<dim>1</dim>
					<dim>1</dim>
					<dim>1</dim>
				</port>
			</output>
		</layer>
		<layer id="275" name="5814581828026" type="Const" version="opset1">
			<data offset="5417" size="4" shape="1,1,1,1" element_type="f32"/>
			<output>
				<port id="0" precision="FP32">
					<dim>1</dim>
					<dim>1</dim>
					<dim>1</dim>
					<dim>1</dim>
				</port>
			</output>
		</layer>
		<layer id="276" name="5815581925941" type="Const" version="opset1">
			<data offset="5413" size="4" shape="1,1,1,1" element_type="f32"/>
			<output>
				<port id="0" precision="FP32">
					<dim>1</dim>
					<dim>1</dim>
					<dim>1</dim>
					<dim>1</dim>
				</port>
			</output>
		</layer>
		<layer id="277" name="5816582025905" type="Const" version="opset1">
			<data offset="5417" size="4" shape="1,1,1,1" element_type="f32"/>
			<output>
				<port id="0" precision="FP32">
					<dim>1</dim>
					<dim>1</dim>
					<dim>1</dim>
					<dim>1</dim>
				</port>
			</output>
		</layer>
		<layer id="278" name="3703370728182" type="Const" version="opset1">
			<data offset="5421" size="4" shape="1,1,1,1" element_type="f32"/>
			<output>
				<port id="0" precision="FP32">
					<dim>1</dim>
					<dim>1</dim>
					<dim>1</dim>
					<dim>1</dim>
				</port>
			</output>
		</layer>
		<layer id="279" name="3704370825416" type="Const" version="opset1">
			<data offset="5425" size="4" shape="1,1,1,1" element_type="f32"/>
			<output>
				<port id="0" precision="FP32">
					<dim>1</dim>
					<dim>1</dim>
					<dim>1</dim>
					<dim>1</dim>
				</port>
			</output>
		</layer>
		<layer id="280" name="3705370927588" type="Const" version="opset1">
			<data offset="5421" size="4" shape="1,1,1,1" element_type="f32"/>
			<output>
				<port id="0" precision="FP32">
					<dim>1</dim>
					<dim>1</dim>
					<dim>1</dim>
					<dim>1</dim>
				</port>
			</output>
		</layer>
		<layer id="281" name="3706371028101" type="Const" version="opset1">
			<data offset="5425" size="4" shape="1,1,1,1" element_type="f32"/>
			<output>
				<port id="0" precision="FP32">
					<dim>1</dim>
					<dim>1</dim>
					<dim>1</dim>
					<dim>1</dim>
				</port>
			</output>
		</layer>
		<layer id="282" name="4323432727858" type="Const" version="opset1">
			<data offset="5429" size="4" shape="1,1,1,1" element_type="f32"/>
			<output>
				<port id="0" precision="FP32">
					<dim>1</dim>
					<dim>1</dim>
					<dim>1</dim>
					<dim>1</dim>
				</port>
			</output>
		</layer>
		<layer id="283" name="4324432827798" type="Const" version="opset1">
			<data offset="5433" size="4" shape="1,1,1,1" element_type="f32"/>
			<output>
				<port id="0" precision="FP32">
					<dim>1</dim>
					<dim>1</dim>
					<dim>1</dim>
					<dim>1</dim>
				</port>
			</output>
		</layer>
		<layer id="284" name="4325432925386" type="Const" version="opset1">
			<data offset="5429" size="4" shape="1,1,1,1" element_type="f32"/>
			<output>
				<port id="0" precision="FP32">
					<dim>1</dim>
					<dim>1</dim>
					<dim>1</dim>
					<dim>1</dim>
				</port>
			</output>
		</layer>
		<layer id="285" name="4326433025965" type="Const" version="opset1">
			<data offset="5433" size="4" shape="1,1,1,1" element_type="f32"/>
			<output>
				<port id="0" precision="FP32">
					<dim>1</dim>
					<dim>1</dim>
					<dim>1</dim>
					<dim>1</dim>
				</port>
			</output>
		</layer>
		<layer id="286" name="4883488727165" type="Const" version="opset1">
			<data offset="5437" size="4" shape="1,1,1,1" element_type="f32"/>
			<output>
				<port id="0" precision="FP32">
					<dim>1</dim>
					<dim>1</dim>
					<dim>1</dim>
					<dim>1</dim>
				</port>
			</output>
		</layer>
		<layer id="287" name="4884488826475" type="Const" version="opset1">
			<data offset="5441" size="4" shape="1,1,1,1" element_type="f32"/>
			<output>
				<port id="0" precision="FP32">
					<dim>1</dim>
					<dim>1</dim>
					<dim>1</dim>
					<dim>1</dim>
				</port>
			</output>
		</layer>
		<layer id="288" name="4885488927978" type="Const" version="opset1">
			<data offset="5437" size="4" shape="1,1,1,1" element_type="f32"/>
			<output>
				<port id="0" precision="FP32">
					<dim>1</dim>
					<dim>1</dim>
					<dim>1</dim>
					<dim>1</dim>
				</port>
			</output>
		</layer>
		<layer id="289" name="4886489026550" type="Const" version="opset1">
			<data offset="5441" size="4" shape="1,1,1,1" element_type="f32"/>
			<output>
				<port id="0" precision="FP32">
					<dim>1</dim>
					<dim>1</dim>
					<dim>1</dim>
					<dim>1</dim>
				</port>
			</output>
		</layer>
		<layer id="290" name="5113511728149" type="Const" version="opset1">
			<data offset="5445" size="4" shape="1,1,1,1" element_type="f32"/>
			<output>
				<port id="0" precision="FP32">
					<dim>1</dim>
					<dim>1</dim>
					<dim>1</dim>
					<dim>1</dim>
				</port>
			</output>
		</layer>
		<layer id="291" name="5114511825443" type="Const" version="opset1">
			<data offset="5449" size="4" shape="1,1,1,1" element_type="f32"/>
			<output>
				<port id="0" precision="FP32">
					<dim>1</dim>
					<dim>1</dim>
					<dim>1</dim>
					<dim>1</dim>
				</port>
			</output>
		</layer>
		<layer id="292" name="5115511926973" type="Const" version="opset1">
			<data offset="5445" size="4" shape="1,1,1,1" element_type="f32"/>
			<output>
				<port id="0" precision="FP32">
					<dim>1</dim>
					<dim>1</dim>
					<dim>1</dim>
					<dim>1</dim>
				</port>
			</output>
		</layer>
		<layer id="293" name="5116512027960" type="Const" version="opset1">
			<data offset="5449" size="4" shape="1,1,1,1" element_type="f32"/>
			<output>
				<port id="0" precision="FP32">
					<dim>1</dim>
					<dim>1</dim>
					<dim>1</dim>
					<dim>1</dim>
				</port>
			</output>
		</layer>
		<layer id="294" name="4973497726274" type="Const" version="opset1">
			<data offset="5453" size="4" shape="1,1,1,1" element_type="f32"/>
			<output>
				<port id="0" precision="FP32">
					<dim>1</dim>
					<dim>1</dim>
					<dim>1</dim>
					<dim>1</dim>
				</port>
			</output>
		</layer>
		<layer id="295" name="4974497826847" type="Const" version="opset1">
			<data offset="5457" size="4" shape="1,1,1,1" element_type="f32"/>
			<output>
				<port id="0" precision="FP32">
					<dim>1</dim>
					<dim>1</dim>
					<dim>1</dim>
					<dim>1</dim>
				</port>
			</output>
		</layer>
		<layer id="296" name="4975497927402" type="Const" version="opset1">
			<data offset="5453" size="4" shape="1,1,1,1" element_type="f32"/>
			<output>
				<port id="0" precision="FP32">
					<dim>1</dim>
					<dim>1</dim>
					<dim>1</dim>
					<dim>1</dim>
				</port>
			</output>
		</layer>
		<layer id="297" name="4976498026730" type="Const" version="opset1">
			<data offset="5457" size="4" shape="1,1,1,1" element_type="f32"/>
			<output>
				<port id="0" precision="FP32">
					<dim>1</dim>
					<dim>1</dim>
					<dim>1</dim>
					<dim>1</dim>
				</port>
			</output>
		</layer>
		<layer id="298" name="4243424728248" type="Const" version="opset1">
			<data offset="0" size="4" shape="1,1,1,1" element_type="f32"/>
			<output>
				<port id="0" precision="FP32">
					<dim>1</dim>
					<dim>1</dim>
					<dim>1</dim>
					<dim>1</dim>
				</port>
			</output>
		</layer>
		<layer id="299" name="4244424825881" type="Const" version="opset1">
			<data offset="5461" size="4" shape="1,1,1,1" element_type="f32"/>
			<output>
				<port id="0" precision="FP32">
					<dim>1</dim>
					<dim>1</dim>
					<dim>1</dim>
					<dim>1</dim>
				</port>
			</output>
		</layer>
		<layer id="300" name="4245424927240" type="Const" version="opset1">
			<data offset="0" size="4" shape="1,1,1,1" element_type="f32"/>
			<output>
				<port id="0" precision="FP32">
					<dim>1</dim>
					<dim>1</dim>
					<dim>1</dim>
					<dim>1</dim>
				</port>
			</output>
		</layer>
		<layer id="301" name="4246425026649" type="Const" version="opset1">
			<data offset="5461" size="4" shape="1,1,1,1" element_type="f32"/>
			<output>
				<port id="0" precision="FP32">
					<dim>1</dim>
					<dim>1</dim>
					<dim>1</dim>
					<dim>1</dim>
				</port>
			</output>
		</layer>
		<layer id="302" name="4603460727171" type="Const" version="opset1">
			<data offset="0" size="4" shape="1,1,1,1" element_type="f32"/>
			<output>
				<port id="0" precision="FP32">
					<dim>1</dim>
					<dim>1</dim>
					<dim>1</dim>
					<dim>1</dim>
				</port>
			</output>
		</layer>
		<layer id="303" name="4604460825875" type="Const" version="opset1">
			<data offset="5465" size="4" shape="1,1,1,1" element_type="f32"/>
			<output>
				<port id="0" precision="FP32">
					<dim>1</dim>
					<dim>1</dim>
					<dim>1</dim>
					<dim>1</dim>
				</port>
			</output>
		</layer>
		<layer id="304" name="4605460928107" type="Const" version="opset1">
			<data offset="0" size="4" shape="1,1,1,1" element_type="f32"/>
			<output>
				<port id="0" precision="FP32">
					<dim>1</dim>
					<dim>1</dim>
					<dim>1</dim>
					<dim>1</dim>
				</port>
			</output>
		</layer>
		<layer id="305" name="4606461025830" type="Const" version="opset1">
			<data offset="5465" size="4" shape="1,1,1,1" element_type="f32"/>
			<output>
				<port id="0" precision="FP32">
					<dim>1</dim>
					<dim>1</dim>
					<dim>1</dim>
					<dim>1</dim>
				</port>
			</output>
		</layer>
		<layer id="306" name="3143314726367" type="Const" version="opset1">
			<data offset="5469" size="4" shape="1,1,1,1" element_type="f32"/>
			<output>
				<port id="0" precision="FP32">
					<dim>1</dim>
					<dim>1</dim>
					<dim>1</dim>
					<dim>1</dim>
				</port>
			</output>
		</layer>
		<layer id="307" name="3144314826781" type="Const" version="opset1">
			<data offset="5473" size="4" shape="1,1,1,1" element_type="f32"/>
			<output>
				<port id="0" precision="FP32">
					<dim>1</dim>
					<dim>1</dim>
					<dim>1</dim>
					<dim>1</dim>
				</port>
			</output>
		</layer>
		<layer id="308" name="3145314925584" type="Const" version="opset1">
			<data offset="5469" size="4" shape="1,1,1,1" element_type="f32"/>
			<output>
				<port id="0" precision="FP32">
					<dim>1</dim>
					<dim>1</dim>
					<dim>1</dim>
					<dim>1</dim>
				</port>
			</output>
		</layer>
		<layer id="309" name="3146315027393" type="Const" version="opset1">
			<data offset="5473" size="4" shape="1,1,1,1" element_type="f32"/>
			<output>
				<port id="0" precision="FP32">
					<dim>1</dim>
					<dim>1</dim>
					<dim>1</dim>
					<dim>1</dim>
				</port>
			</output>
		</layer>
		<layer id="310" name="bottleneck2_0/skip/conv/fq_weights_1/scale1841926406" type="Const" version="opset1">
			<data offset="5477" size="256" shape="64,1,1,1" element_type="f32"/>
			<output>
				<port id="0" precision="FP32">
					<dim>64</dim>
					<dim>1</dim>
					<dim>1</dim>
					<dim>1</dim>
				</port>
			</output>
		</layer>
		<layer id="311" name="bottleneck2_0/skip/bn/mean/Fused_Mul__copy107913581/restored_convert/quantized1841126313" type="Const" version="opset1">
			<data offset="5733" size="2048" shape="64,32,1,1" element_type="i8"/>
			<output>
				<port id="0" precision="I8">
					<dim>64</dim>
					<dim>32</dim>
					<dim>1</dim>
					<dim>1</dim>
				</port>
			</output>
		</layer>
		<layer id="312" name="bottleneck2_0/skip/bn/mean/Fused_Mul__copy107913581/restored_convert/quantized/to_f32" type="Convert" version="opset1">
			<data destination_type="f32"/>
			<input>
				<port id="0">
					<dim>64</dim>
					<dim>32</dim>
					<dim>1</dim>
					<dim>1</dim>
				</port>
			</input>
			<output>
				<port id="1" precision="FP32">
					<dim>64</dim>
					<dim>32</dim>
					<dim>1</dim>
					<dim>1</dim>
				</port>
			</output>
		</layer>
		<layer id="313" name="bottleneck2_0/skip/conv/fq_weights_1/mulpiply_by_scale" type="Multiply" version="opset1">
			<data auto_broadcast="numpy"/>
			<input>
				<port id="0">
					<dim>64</dim>
					<dim>32</dim>
					<dim>1</dim>
					<dim>1</dim>
				</port>
				<port id="1">
					<dim>64</dim>
					<dim>1</dim>
					<dim>1</dim>
					<dim>1</dim>
				</port>
			</input>
			<output>
				<port id="2" precision="FP32">
					<dim>64</dim>
					<dim>32</dim>
					<dim>1</dim>
					<dim>1</dim>
				</port>
			</output>
		</layer>
		<layer id="314" name="bottleneck2_0/skip/conv" type="Convolution" version="opset1">
			<data auto_pad="explicit" strides="1,1" dilations="1,1" pads_begin="0,0" pads_end="0,0"/>
			<input>
				<port id="0">
					<dim>1</dim>
					<dim>32</dim>
					<dim>128</dim>
					<dim>128</dim>
				</port>
				<port id="1">
					<dim>64</dim>
					<dim>32</dim>
					<dim>1</dim>
					<dim>1</dim>
				</port>
			</input>
			<output>
				<port id="2" precision="FP32">
					<dim>1</dim>
					<dim>64</dim>
					<dim>128</dim>
					<dim>128</dim>
				</port>
			</output>
		</layer>
		<layer id="315" name="data_add_2573625741108226061" type="Const" version="opset1">
			<data offset="7781" size="128" shape="1,64,1,1" element_type="f16"/>
			<output>
				<port id="0" precision="FP16">
					<dim>1</dim>
					<dim>64</dim>
					<dim>1</dim>
					<dim>1</dim>
				</port>
			</output>
		</layer>
		<layer id="316" name="data_add_2573625741108213582/restored_convert" type="Convert" version="opset1">
			<data destination_type="f32"/>
			<rt_info>
				<attribute name="decompression" version="0"/>
			</rt_info>
			<input>
				<port id="0">
					<dim>1</dim>
					<dim>64</dim>
					<dim>1</dim>
					<dim>1</dim>
				</port>
			</input>
			<output>
				<port id="1" precision="FP32">
					<dim>1</dim>
					<dim>64</dim>
					<dim>1</dim>
					<dim>1</dim>
				</port>
			</output>
		</layer>
		<layer id="317" name="bottleneck2_0/skip/bn/variance/Fused_Add_" type="Add" version="opset1">
			<data auto_broadcast="numpy"/>
			<input>
				<port id="0">
					<dim>1</dim>
					<dim>64</dim>
					<dim>128</dim>
					<dim>128</dim>
				</port>
				<port id="1">
					<dim>1</dim>
					<dim>64</dim>
					<dim>1</dim>
					<dim>1</dim>
				</port>
			</input>
			<output>
				<port id="2" precision="FP32" names="bottleneck2_0/skip/conv">
					<dim>1</dim>
					<dim>64</dim>
					<dim>128</dim>
					<dim>128</dim>
				</port>
			</output>
		</layer>
		<layer id="318" name="bottleneck2_0/add/fq_input_0" type="FakeQuantize" version="opset1">
			<data levels="256" auto_broadcast="numpy"/>
			<input>
				<port id="0">
					<dim>1</dim>
					<dim>64</dim>
					<dim>128</dim>
					<dim>128</dim>
				</port>
				<port id="1">
					<dim>1</dim>
					<dim>1</dim>
					<dim>1</dim>
					<dim>1</dim>
				</port>
				<port id="2">
					<dim>1</dim>
					<dim>1</dim>
					<dim>1</dim>
					<dim>1</dim>
				</port>
				<port id="3">
					<dim>1</dim>
					<dim>1</dim>
					<dim>1</dim>
					<dim>1</dim>
				</port>
				<port id="4">
					<dim>1</dim>
					<dim>1</dim>
					<dim>1</dim>
					<dim>1</dim>
				</port>
			</input>
			<output>
				<port id="5" precision="FP32">
					<dim>1</dim>
					<dim>64</dim>
					<dim>128</dim>
					<dim>128</dim>
				</port>
			</output>
		</layer>
		<layer id="319" name="3153315725311" type="Const" version="opset1">
			<data offset="7909" size="4" shape="1,1,1,1" element_type="f32"/>
			<output>
				<port id="0" precision="FP32">
					<dim>1</dim>
					<dim>1</dim>
					<dim>1</dim>
					<dim>1</dim>
				</port>
			</output>
		</layer>
		<layer id="320" name="3154315826424" type="Const" version="opset1">
			<data offset="7913" size="4" shape="1,1,1,1" element_type="f32"/>
			<output>
				<port id="0" precision="FP32">
					<dim>1</dim>
					<dim>1</dim>
					<dim>1</dim>
					<dim>1</dim>
				</port>
			</output>
		</layer>
		<layer id="321" name="3155315927216" type="Const" version="opset1">
			<data offset="7909" size="4" shape="1,1,1,1" element_type="f32"/>
			<output>
				<port id="0" precision="FP32">
					<dim>1</dim>
					<dim>1</dim>
					<dim>1</dim>
					<dim>1</dim>
				</port>
			</output>
		</layer>
		<layer id="322" name="3156316027918" type="Const" version="opset1">
			<data offset="7913" size="4" shape="1,1,1,1" element_type="f32"/>
			<output>
				<port id="0" precision="FP32">
					<dim>1</dim>
					<dim>1</dim>
					<dim>1</dim>
					<dim>1</dim>
				</port>
			</output>
		</layer>
		<layer id="323" name="3963396726598" type="Const" version="opset1">
			<data offset="7917" size="4" shape="1,1,1,1" element_type="f32"/>
			<output>
				<port id="0" precision="FP32">
					<dim>1</dim>
					<dim>1</dim>
					<dim>1</dim>
					<dim>1</dim>
				</port>
			</output>
		</layer>
		<layer id="324" name="3964396828113" type="Const" version="opset1">
			<data offset="7921" size="4" shape="1,1,1,1" element_type="f32"/>
			<output>
				<port id="0" precision="FP32">
					<dim>1</dim>
					<dim>1</dim>
					<dim>1</dim>
					<dim>1</dim>
				</port>
			</output>
		</layer>
		<layer id="325" name="3965396925902" type="Const" version="opset1">
			<data offset="7917" size="4" shape="1,1,1,1" element_type="f32"/>
			<output>
				<port id="0" precision="FP32">
					<dim>1</dim>
					<dim>1</dim>
					<dim>1</dim>
					<dim>1</dim>
				</port>
			</output>
		</layer>
		<layer id="326" name="3966397026409" type="Const" version="opset1">
			<data offset="7921" size="4" shape="1,1,1,1" element_type="f32"/>
			<output>
				<port id="0" precision="FP32">
					<dim>1</dim>
					<dim>1</dim>
					<dim>1</dim>
					<dim>1</dim>
				</port>
			</output>
		</layer>
		<layer id="327" name="3223322725419" type="Const" version="opset1">
			<data offset="7925" size="64" shape="1,16,1,1" element_type="f32"/>
			<output>
				<port id="0" precision="FP32">
					<dim>1</dim>
					<dim>16</dim>
					<dim>1</dim>
					<dim>1</dim>
				</port>
			</output>
		</layer>
		<layer id="328" name="3224322827981" type="Const" version="opset1">
			<data offset="7989" size="64" shape="1,16,1,1" element_type="f32"/>
			<output>
				<port id="0" precision="FP32">
					<dim>1</dim>
					<dim>16</dim>
					<dim>1</dim>
					<dim>1</dim>
				</port>
			</output>
		</layer>
		<layer id="329" name="3225322926811" type="Const" version="opset1">
			<data offset="7925" size="64" shape="1,16,1,1" element_type="f32"/>
			<output>
				<port id="0" precision="FP32">
					<dim>1</dim>
					<dim>16</dim>
					<dim>1</dim>
					<dim>1</dim>
				</port>
			</output>
		</layer>
		<layer id="330" name="3226323025692" type="Const" version="opset1">
			<data offset="7989" size="64" shape="1,16,1,1" element_type="f32"/>
			<output>
				<port id="0" precision="FP32">
					<dim>1</dim>
					<dim>16</dim>
					<dim>1</dim>
					<dim>1</dim>
				</port>
			</output>
		</layer>
		<layer id="331" name="bottleneck2_0/dim_red/conv/fq_weights_1/scale1601927333" type="Const" version="opset1">
			<data offset="8053" size="64" shape="16,1,1,1" element_type="f32"/>
			<output>
				<port id="0" precision="FP32">
					<dim>16</dim>
					<dim>1</dim>
					<dim>1</dim>
					<dim>1</dim>
				</port>
			</output>
		</layer>
		<layer id="332" name="bottleneck2_0/dim_red/bn/mean/Fused_Mul__copy108513583/restored_convert/quantized1601125857" type="Const" version="opset1">
			<data offset="8117" size="512" shape="16,32,1,1" element_type="i8"/>
			<output>
				<port id="0" precision="I8">
					<dim>16</dim>
					<dim>32</dim>
					<dim>1</dim>
					<dim>1</dim>
				</port>
			</output>
		</layer>
		<layer id="333" name="bottleneck2_0/dim_red/bn/mean/Fused_Mul__copy108513583/restored_convert/quantized/to_f32" type="Convert" version="opset1">
			<data destination_type="f32"/>
			<input>
				<port id="0">
					<dim>16</dim>
					<dim>32</dim>
					<dim>1</dim>
					<dim>1</dim>
				</port>
			</input>
			<output>
				<port id="1" precision="FP32">
					<dim>16</dim>
					<dim>32</dim>
					<dim>1</dim>
					<dim>1</dim>
				</port>
			</output>
		</layer>
		<layer id="334" name="bottleneck2_0/dim_red/conv/fq_weights_1/mulpiply_by_scale" type="Multiply" version="opset1">
			<data auto_broadcast="numpy"/>
			<input>
				<port id="0">
					<dim>16</dim>
					<dim>32</dim>
					<dim>1</dim>
					<dim>1</dim>
				</port>
				<port id="1">
					<dim>16</dim>
					<dim>1</dim>
					<dim>1</dim>
					<dim>1</dim>
				</port>
			</input>
			<output>
				<port id="2" precision="FP32">
					<dim>16</dim>
					<dim>32</dim>
					<dim>1</dim>
					<dim>1</dim>
				</port>
			</output>
		</layer>
		<layer id="335" name="bottleneck2_0/dim_red/conv" type="Convolution" version="opset1">
			<data auto_pad="explicit" strides="1,1" dilations="1,1" pads_begin="0,0" pads_end="0,0"/>
			<input>
				<port id="0">
					<dim>1</dim>
					<dim>32</dim>
					<dim>256</dim>
					<dim>256</dim>
				</port>
				<port id="1">
					<dim>16</dim>
					<dim>32</dim>
					<dim>1</dim>
					<dim>1</dim>
				</port>
			</input>
			<output>
				<port id="2" precision="FP32">
					<dim>1</dim>
					<dim>16</dim>
					<dim>256</dim>
					<dim>256</dim>
				</port>
			</output>
		</layer>
		<layer id="336" name="data_add_2574425749108825797" type="Const" version="opset1">
			<data offset="8629" size="32" shape="1,16,1,1" element_type="f16"/>
			<output>
				<port id="0" precision="FP16">
					<dim>1</dim>
					<dim>16</dim>
					<dim>1</dim>
					<dim>1</dim>
				</port>
			</output>
		</layer>
		<layer id="337" name="data_add_2574425749108813584/restored_convert" type="Convert" version="opset1">
			<data destination_type="f32"/>
			<rt_info>
				<attribute name="decompression" version="0"/>
			</rt_info>
			<input>
				<port id="0">
					<dim>1</dim>
					<dim>16</dim>
					<dim>1</dim>
					<dim>1</dim>
				</port>
			</input>
			<output>
				<port id="1" precision="FP32">
					<dim>1</dim>
					<dim>16</dim>
					<dim>1</dim>
					<dim>1</dim>
				</port>
			</output>
		</layer>
		<layer id="338" name="bottleneck2_0/dim_red/bn/variance/Fused_Add_" type="Add" version="opset1">
			<data auto_broadcast="numpy"/>
			<input>
				<port id="0">
					<dim>1</dim>
					<dim>16</dim>
					<dim>256</dim>
					<dim>256</dim>
				</port>
				<port id="1">
					<dim>1</dim>
					<dim>16</dim>
					<dim>1</dim>
					<dim>1</dim>
				</port>
			</input>
			<output>
				<port id="2" precision="FP32" names="bottleneck2_0/dim_red/conv">
					<dim>1</dim>
					<dim>16</dim>
					<dim>256</dim>
					<dim>256</dim>
				</port>
			</output>
		</layer>
		<layer id="339" name="bottleneck2_0/dim_red/fn" type="Elu" version="opset1">
			<data alpha="1"/>
			<input>
				<port id="0">
					<dim>1</dim>
					<dim>16</dim>
					<dim>256</dim>
					<dim>256</dim>
				</port>
			</input>
			<output>
				<port id="1" precision="FP32" names="bottleneck2_0/dim_red/conv">
					<dim>1</dim>
					<dim>16</dim>
					<dim>256</dim>
					<dim>256</dim>
				</port>
			</output>
		</layer>
		<layer id="340" name="bottleneck2_0/inner/dw1/conv/fq_input_0" type="FakeQuantize" version="opset1">
			<data levels="256" auto_broadcast="numpy"/>
			<input>
				<port id="0">
					<dim>1</dim>
					<dim>16</dim>
					<dim>256</dim>
					<dim>256</dim>
				</port>
				<port id="1">
					<dim>1</dim>
					<dim>16</dim>
					<dim>1</dim>
					<dim>1</dim>
				</port>
				<port id="2">
					<dim>1</dim>
					<dim>16</dim>
					<dim>1</dim>
					<dim>1</dim>
				</port>
				<port id="3">
					<dim>1</dim>
					<dim>16</dim>
					<dim>1</dim>
					<dim>1</dim>
				</port>
				<port id="4">
					<dim>1</dim>
					<dim>16</dim>
					<dim>1</dim>
					<dim>1</dim>
				</port>
			</input>
			<output>
				<port id="5" precision="FP32">
					<dim>1</dim>
					<dim>16</dim>
					<dim>256</dim>
					<dim>256</dim>
				</port>
			</output>
		</layer>
		<layer id="341" name="bottleneck2_0/inner/dw1/conv/fq_weights_1/scale1637925329" type="Const" version="opset1">
			<data offset="8661" size="64" shape="16,1,1,1" element_type="f32"/>
			<output>
				<port id="0" precision="FP32">
					<dim>16</dim>
					<dim>1</dim>
					<dim>1</dim>
					<dim>1</dim>
				</port>
			</output>
		</layer>
		<layer id="342" name="bottleneck2_0/inner/dw1/bn/mean/Fused_Mul__copy109213585/restored_convert/quantized1637125920" type="Const" version="opset1">
			<data offset="8725" size="144" shape="16,1,3,3" element_type="i8"/>
			<output>
				<port id="0" precision="I8">
					<dim>16</dim>
					<dim>1</dim>
					<dim>3</dim>
					<dim>3</dim>
				</port>
			</output>
		</layer>
		<layer id="343" name="bottleneck2_0/inner/dw1/bn/mean/Fused_Mul__copy109213585/restored_convert/quantized/to_f32" type="Convert" version="opset1">
			<data destination_type="f32"/>
			<input>
				<port id="0">
					<dim>16</dim>
					<dim>1</dim>
					<dim>3</dim>
					<dim>3</dim>
				</port>
			</input>
			<output>
				<port id="1" precision="FP32">
					<dim>16</dim>
					<dim>1</dim>
					<dim>3</dim>
					<dim>3</dim>
				</port>
			</output>
		</layer>
		<layer id="344" name="bottleneck2_0/inner/dw1/conv/fq_weights_1/mulpiply_by_scale" type="Multiply" version="opset1">
			<data auto_broadcast="numpy"/>
			<input>
				<port id="0">
					<dim>16</dim>
					<dim>1</dim>
					<dim>3</dim>
					<dim>3</dim>
				</port>
				<port id="1">
					<dim>16</dim>
					<dim>1</dim>
					<dim>1</dim>
					<dim>1</dim>
				</port>
			</input>
			<output>
				<port id="2" precision="FP32">
					<dim>16</dim>
					<dim>1</dim>
					<dim>3</dim>
					<dim>3</dim>
				</port>
			</output>
		</layer>
		<layer id="345" name="bottleneck2_0/inner/dw1/conv/GOI_weights_part2240128038" type="Const" version="opset1">
			<data offset="8869" size="24" shape="3" element_type="i64"/>
			<output>
				<port id="0" precision="I64">
					<dim>3</dim>
				</port>
			</output>
		</layer>
		<layer id="346" name="bottleneck2_0/inner/dw1/conv/WeightsShape" type="ShapeOf" version="opset3">
			<data output_type="i64"/>
			<input>
				<port id="0">
					<dim>16</dim>
					<dim>1</dim>
					<dim>3</dim>
					<dim>3</dim>
				</port>
			</input>
			<output>
				<port id="1" precision="I64">
					<dim>4</dim>
				</port>
			</output>
		</layer>
		<layer id="347" name="bottleneck2_0/inner/dw1/conv/XY_weights_part_input_port_1/value2239726985" type="Const" version="opset1">
			<data offset="2077" size="16" shape="2" element_type="i64"/>
			<output>
				<port id="0" precision="I64">
					<dim>2</dim>
				</port>
			</output>
		</layer>
		<layer id="348" name="bottleneck2_0/inner/dw1/conv/XY_weights_part_input_port_2/value2239926832" type="Const" version="opset1">
			<data offset="2093" size="8" shape="" element_type="i64"/>
			<output>
				<port id="0" precision="I64"/>
			</output>
		</layer>
		<layer id="349" name="bottleneck2_0/inner/dw1/conv/XY_weights_part" type="Gather" version="opset8">
			<data batch_dims="0"/>
			<input>
				<port id="0">
					<dim>4</dim>
				</port>
				<port id="1">
					<dim>2</dim>
				</port>
				<port id="2"/>
			</input>
			<output>
				<port id="3" precision="I64">
					<dim>2</dim>
				</port>
			</output>
		</layer>
		<layer id="350" name="bottleneck2_0/inner/dw1/conv/weights_shape" type="Concat" version="opset1">
			<data axis="0"/>
			<input>
				<port id="0">
					<dim>3</dim>
				</port>
				<port id="1">
					<dim>2</dim>
				</port>
			</input>
			<output>
				<port id="2" precision="I64">
					<dim>5</dim>
				</port>
			</output>
		</layer>
		<layer id="351" name="22403" type="Reshape" version="opset1">
			<data special_zero="true"/>
			<input>
				<port id="0">
					<dim>16</dim>
					<dim>1</dim>
					<dim>3</dim>
					<dim>3</dim>
				</port>
				<port id="1">
					<dim>5</dim>
				</port>
			</input>
			<output>
				<port id="2" precision="FP32">
					<dim>16</dim>
					<dim>1</dim>
					<dim>1</dim>
					<dim>3</dim>
					<dim>3</dim>
				</port>
			</output>
		</layer>
		<layer id="352" name="bottleneck2_0/inner/dw1/conv" type="GroupConvolution" version="opset1">
			<data auto_pad="explicit" strides="2,2" dilations="1,1" pads_begin="1,1" pads_end="1,1"/>
			<input>
				<port id="0">
					<dim>1</dim>
					<dim>16</dim>
					<dim>256</dim>
					<dim>256</dim>
				</port>
				<port id="1">
					<dim>16</dim>
					<dim>1</dim>
					<dim>1</dim>
					<dim>3</dim>
					<dim>3</dim>
				</port>
			</input>
			<output>
				<port id="2" precision="FP32">
					<dim>1</dim>
					<dim>16</dim>
					<dim>128</dim>
					<dim>128</dim>
				</port>
			</output>
		</layer>
		<layer id="353" name="data_add_2575225757109527123" type="Const" version="opset1">
			<data offset="8893" size="32" shape="1,16,1,1" element_type="f16"/>
			<output>
				<port id="0" precision="FP16">
					<dim>1</dim>
					<dim>16</dim>
					<dim>1</dim>
					<dim>1</dim>
				</port>
			</output>
		</layer>
		<layer id="354" name="data_add_2575225757109513586/restored_convert" type="Convert" version="opset1">
			<data destination_type="f32"/>
			<rt_info>
				<attribute name="decompression" version="0"/>
			</rt_info>
			<input>
				<port id="0">
					<dim>1</dim>
					<dim>16</dim>
					<dim>1</dim>
					<dim>1</dim>
				</port>
			</input>
			<output>
				<port id="1" precision="FP32">
					<dim>1</dim>
					<dim>16</dim>
					<dim>1</dim>
					<dim>1</dim>
				</port>
			</output>
		</layer>
		<layer id="355" name="bottleneck2_0/inner/dw1/bn/variance/Fused_Add_" type="Add" version="opset1">
			<data auto_broadcast="numpy"/>
			<input>
				<port id="0">
					<dim>1</dim>
					<dim>16</dim>
					<dim>128</dim>
					<dim>128</dim>
				</port>
				<port id="1">
					<dim>1</dim>
					<dim>16</dim>
					<dim>1</dim>
					<dim>1</dim>
				</port>
			</input>
			<output>
				<port id="2" precision="FP32" names="bottleneck2_0/inner/dw1/conv">
					<dim>1</dim>
					<dim>16</dim>
					<dim>128</dim>
					<dim>128</dim>
				</port>
			</output>
		</layer>
		<layer id="356" name="bottleneck2_0/inner/dw1/fn" type="Elu" version="opset1">
			<data alpha="1"/>
			<input>
				<port id="0">
					<dim>1</dim>
					<dim>16</dim>
					<dim>128</dim>
					<dim>128</dim>
				</port>
			</input>
			<output>
				<port id="1" precision="FP32" names="bottleneck2_0/inner/dw1/conv">
					<dim>1</dim>
					<dim>16</dim>
					<dim>128</dim>
					<dim>128</dim>
				</port>
			</output>
		</layer>
		<layer id="357" name="bottleneck2_0/dim_inc/conv/fq_input_0" type="FakeQuantize" version="opset1">
			<data levels="256" auto_broadcast="numpy"/>
			<input>
				<port id="0">
					<dim>1</dim>
					<dim>16</dim>
					<dim>128</dim>
					<dim>128</dim>
				</port>
				<port id="1">
					<dim>1</dim>
					<dim>1</dim>
					<dim>1</dim>
					<dim>1</dim>
				</port>
				<port id="2">
					<dim>1</dim>
					<dim>1</dim>
					<dim>1</dim>
					<dim>1</dim>
				</port>
				<port id="3">
					<dim>1</dim>
					<dim>1</dim>
					<dim>1</dim>
					<dim>1</dim>
				</port>
				<port id="4">
					<dim>1</dim>
					<dim>1</dim>
					<dim>1</dim>
					<dim>1</dim>
				</port>
			</input>
			<output>
				<port id="5" precision="FP32">
					<dim>1</dim>
					<dim>16</dim>
					<dim>128</dim>
					<dim>128</dim>
				</port>
			</output>
		</layer>
		<layer id="358" name="bottleneck2_0/dim_inc/conv/fq_weights_1/scale1907928170" type="Const" version="opset1">
			<data offset="8925" size="256" shape="64,1,1,1" element_type="f32"/>
			<output>
				<port id="0" precision="FP32">
					<dim>64</dim>
					<dim>1</dim>
					<dim>1</dim>
					<dim>1</dim>
				</port>
			</output>
		</layer>
		<layer id="359" name="bottleneck2_0/dim_inc/bn/mean/Fused_Mul__copy109913587/restored_convert/quantized1907128398" type="Const" version="opset1">
			<data offset="9181" size="1024" shape="64,16,1,1" element_type="i8"/>
			<output>
				<port id="0" precision="I8">
					<dim>64</dim>
					<dim>16</dim>
					<dim>1</dim>
					<dim>1</dim>
				</port>
			</output>
		</layer>
		<layer id="360" name="bottleneck2_0/dim_inc/bn/mean/Fused_Mul__copy109913587/restored_convert/quantized/to_f32" type="Convert" version="opset1">
			<data destination_type="f32"/>
			<input>
				<port id="0">
					<dim>64</dim>
					<dim>16</dim>
					<dim>1</dim>
					<dim>1</dim>
				</port>
			</input>
			<output>
				<port id="1" precision="FP32">
					<dim>64</dim>
					<dim>16</dim>
					<dim>1</dim>
					<dim>1</dim>
				</port>
			</output>
		</layer>
		<layer id="361" name="bottleneck2_0/dim_inc/conv/fq_weights_1/mulpiply_by_scale" type="Multiply" version="opset1">
			<data auto_broadcast="numpy"/>
			<input>
				<port id="0">
					<dim>64</dim>
					<dim>16</dim>
					<dim>1</dim>
					<dim>1</dim>
				</port>
				<port id="1">
					<dim>64</dim>
					<dim>1</dim>
					<dim>1</dim>
					<dim>1</dim>
				</port>
			</input>
			<output>
				<port id="2" precision="FP32">
					<dim>64</dim>
					<dim>16</dim>
					<dim>1</dim>
					<dim>1</dim>
				</port>
			</output>
		</layer>
		<layer id="362" name="bottleneck2_0/dim_inc/conv" type="Convolution" version="opset1">
			<data auto_pad="explicit" strides="1,1" dilations="1,1" pads_begin="0,0" pads_end="0,0"/>
			<input>
				<port id="0">
					<dim>1</dim>
					<dim>16</dim>
					<dim>128</dim>
					<dim>128</dim>
				</port>
				<port id="1">
					<dim>64</dim>
					<dim>16</dim>
					<dim>1</dim>
					<dim>1</dim>
				</port>
			</input>
			<output>
				<port id="2" precision="FP32">
					<dim>1</dim>
					<dim>64</dim>
					<dim>128</dim>
					<dim>128</dim>
				</port>
			</output>
		</layer>
		<layer id="363" name="data_add_2576025765110227033" type="Const" version="opset1">
			<data offset="10205" size="128" shape="1,64,1,1" element_type="f16"/>
			<output>
				<port id="0" precision="FP16">
					<dim>1</dim>
					<dim>64</dim>
					<dim>1</dim>
					<dim>1</dim>
				</port>
			</output>
		</layer>
		<layer id="364" name="data_add_2576025765110213588/restored_convert" type="Convert" version="opset1">
			<data destination_type="f32"/>
			<rt_info>
				<attribute name="decompression" version="0"/>
			</rt_info>
			<input>
				<port id="0">
					<dim>1</dim>
					<dim>64</dim>
					<dim>1</dim>
					<dim>1</dim>
				</port>
			</input>
			<output>
				<port id="1" precision="FP32">
					<dim>1</dim>
					<dim>64</dim>
					<dim>1</dim>
					<dim>1</dim>
				</port>
			</output>
		</layer>
		<layer id="365" name="bottleneck2_0/dim_inc/bn/variance/Fused_Add_" type="Add" version="opset1">
			<data auto_broadcast="numpy"/>
			<input>
				<port id="0">
					<dim>1</dim>
					<dim>64</dim>
					<dim>128</dim>
					<dim>128</dim>
				</port>
				<port id="1">
					<dim>1</dim>
					<dim>64</dim>
					<dim>1</dim>
					<dim>1</dim>
				</port>
			</input>
			<output>
				<port id="2" precision="FP32" names="bottleneck2_0/dim_inc/conv">
					<dim>1</dim>
					<dim>64</dim>
					<dim>128</dim>
					<dim>128</dim>
				</port>
			</output>
		</layer>
		<layer id="366" name="bottleneck2_0/add/fq_input_1" type="FakeQuantize" version="opset1">
			<data levels="256" auto_broadcast="numpy"/>
			<input>
				<port id="0">
					<dim>1</dim>
					<dim>64</dim>
					<dim>128</dim>
					<dim>128</dim>
				</port>
				<port id="1">
					<dim>1</dim>
					<dim>1</dim>
					<dim>1</dim>
					<dim>1</dim>
				</port>
				<port id="2">
					<dim>1</dim>
					<dim>1</dim>
					<dim>1</dim>
					<dim>1</dim>
				</port>
				<port id="3">
					<dim>1</dim>
					<dim>1</dim>
					<dim>1</dim>
					<dim>1</dim>
				</port>
				<port id="4">
					<dim>1</dim>
…
		<edge from-layer="1658" from-port="0" to-layer="1670" to-port="2"/>
		<edge from-layer="1659" from-port="0" to-layer="1670" to-port="3"/>
		<edge from-layer="1660" from-port="0" to-layer="1670" to-port="4"/>
		<edge from-layer="1672" from-port="0" to-layer="1673" to-port="0"/>
		<edge from-layer="1673" from-port="1" to-layer="1674" to-port="0"/>
		<edge from-layer="1671" from-port="0" to-layer="1674" to-port="1"/>
		<edge from-layer="1674" from-port="2" to-layer="1676" to-port="0"/>
		<edge from-layer="1676" from-port="1" to-layer="1679" to-port="0"/>
		<edge from-layer="1677" from-port="0" to-layer="1679" to-port="1"/>
		<edge from-layer="1678" from-port="0" to-layer="1679" to-port="2"/>
		<edge from-layer="1675" from-port="0" to-layer="1680" to-port="0"/>
		<edge from-layer="1679" from-port="3" to-layer="1680" to-port="1"/>
		<edge from-layer="1674" from-port="2" to-layer="1681" to-port="0"/>
		<edge from-layer="1680" from-port="2" to-layer="1681" to-port="1"/>
		<edge from-layer="1670" from-port="5" to-layer="1682" to-port="0"/>
		<edge from-layer="1681" from-port="2" to-layer="1682" to-port="1"/>
		<edge from-layer="1683" from-port="0" to-layer="1684" to-port="0"/>
		<edge from-layer="1682" from-port="2" to-layer="1685" to-port="0"/>
		<edge from-layer="1684" from-port="1" to-layer="1685" to-port="1"/>
		<edge from-layer="1685" from-port="2" to-layer="1686" to-port="0"/>
		<edge from-layer="1686" from-port="1" to-layer="1687" to-port="0"/>
		<edge from-layer="1653" from-port="0" to-layer="1687" to-port="1"/>
		<edge from-layer="1654" from-port="0" to-layer="1687" to-port="2"/>
		<edge from-layer="1655" from-port="0" to-layer="1687" to-port="3"/>
		<edge from-layer="1656" from-port="0" to-layer="1687" to-port="4"/>
		<edge from-layer="1689" from-port="0" to-layer="1690" to-port="0"/>
		<edge from-layer="1690" from-port="1" to-layer="1691" to-port="0"/>
		<edge from-layer="1688" from-port="0" to-layer="1691" to-port="1"/>
		<edge from-layer="1687" from-port="5" to-layer="1692" to-port="0"/>
		<edge from-layer="1691" from-port="2" to-layer="1692" to-port="1"/>
		<edge from-layer="1693" from-port="0" to-layer="1694" to-port="0"/>
		<edge from-layer="1692" from-port="2" to-layer="1695" to-port="0"/>
		<edge from-layer="1694" from-port="1" to-layer="1695" to-port="1"/>
		<edge from-layer="1695" from-port="2" to-layer="1696" to-port="0"/>
		<edge from-layer="1649" from-port="0" to-layer="1696" to-port="1"/>
		<edge from-layer="1650" from-port="0" to-layer="1696" to-port="2"/>
		<edge from-layer="1651" from-port="0" to-layer="1696" to-port="3"/>
		<edge from-layer="1652" from-port="0" to-layer="1696" to-port="4"/>
		<edge from-layer="1648" from-port="5" to-layer="1697" to-port="0"/>
		<edge from-layer="1696" from-port="5" to-layer="1697" to-port="1"/>
		<edge from-layer="1697" from-port="2" to-layer="1698" to-port="0"/>
		<edge from-layer="1698" from-port="1" to-layer="1699" to-port="0"/>
		<edge from-layer="1461" from-port="0" to-layer="1699" to-port="1"/>
		<edge from-layer="1462" from-port="0" to-layer="1699" to-port="2"/>
		<edge from-layer="1463" from-port="0" to-layer="1699" to-port="3"/>
		<edge from-layer="1464" from-port="0" to-layer="1699" to-port="4"/>
		<edge from-layer="1713" from-port="0" to-layer="1714" to-port="0"/>
		<edge from-layer="1714" from-port="1" to-layer="1715" to-port="0"/>
		<edge from-layer="1712" from-port="0" to-layer="1715" to-port="1"/>
		<edge from-layer="1699" from-port="5" to-layer="1716" to-port="0"/>
		<edge from-layer="1715" from-port="2" to-layer="1716" to-port="1"/>
		<edge from-layer="1717" from-port="0" to-layer="1718" to-port="0"/>
		<edge from-layer="1716" from-port="2" to-layer="1719" to-port="0"/>
		<edge from-layer="1718" from-port="1" to-layer="1719" to-port="1"/>
		<edge from-layer="1719" from-port="2" to-layer="1720" to-port="0"/>
		<edge from-layer="1720" from-port="1" to-layer="1721" to-port="0"/>
		<edge from-layer="1708" from-port="0" to-layer="1721" to-port="1"/>
		<edge from-layer="1709" from-port="0" to-layer="1721" to-port="2"/>
		<edge from-layer="1710" from-port="0" to-layer="1721" to-port="3"/>
		<edge from-layer="1711" from-port="0" to-layer="1721" to-port="4"/>
		<edge from-layer="1723" from-port="0" to-layer="1724" to-port="0"/>
		<edge from-layer="1724" from-port="1" to-layer="1725" to-port="0"/>
		<edge from-layer="1722" from-port="0" to-layer="1725" to-port="1"/>
		<edge from-layer="1725" from-port="2" to-layer="1727" to-port="0"/>
		<edge from-layer="1727" from-port="1" to-layer="1730" to-port="0"/>
		<edge from-layer="1728" from-port="0" to-layer="1730" to-port="1"/>
		<edge from-layer="1729" from-port="0" to-layer="1730" to-port="2"/>
		<edge from-layer="1726" from-port="0" to-layer="1731" to-port="0"/>
		<edge from-layer="1730" from-port="3" to-layer="1731" to-port="1"/>
		<edge from-layer="1725" from-port="2" to-layer="1732" to-port="0"/>
		<edge from-layer="1731" from-port="2" to-layer="1732" to-port="1"/>
		<edge from-layer="1721" from-port="5" to-layer="1733" to-port="0"/>
		<edge from-layer="1732" from-port="2" to-layer="1733" to-port="1"/>
		<edge from-layer="1734" from-port="0" to-layer="1735" to-port="0"/>
		<edge from-layer="1733" from-port="2" to-layer="1736" to-port="0"/>
		<edge from-layer="1735" from-port="1" to-layer="1736" to-port="1"/>
		<edge from-layer="1736" from-port="2" to-layer="1737" to-port="0"/>
		<edge from-layer="1737" from-port="1" to-layer="1738" to-port="0"/>
		<edge from-layer="1704" from-port="0" to-layer="1738" to-port="1"/>
		<edge from-layer="1705" from-port="0" to-layer="1738" to-port="2"/>
		<edge from-layer="1706" from-port="0" to-layer="1738" to-port="3"/>
		<edge from-layer="1707" from-port="0" to-layer="1738" to-port="4"/>
		<edge from-layer="1740" from-port="0" to-layer="1741" to-port="0"/>
		<edge from-layer="1741" from-port="1" to-layer="1742" to-port="0"/>
		<edge from-layer="1739" from-port="0" to-layer="1742" to-port="1"/>
		<edge from-layer="1738" from-port="5" to-layer="1743" to-port="0"/>
		<edge from-layer="1742" from-port="2" to-layer="1743" to-port="1"/>
		<edge from-layer="1744" from-port="0" to-layer="1745" to-port="0"/>
		<edge from-layer="1743" from-port="2" to-layer="1746" to-port="0"/>
		<edge from-layer="1745" from-port="1" to-layer="1746" to-port="1"/>
		<edge from-layer="1746" from-port="2" to-layer="1747" to-port="0"/>
		<edge from-layer="1700" from-port="0" to-layer="1747" to-port="1"/>
		<edge from-layer="1701" from-port="0" to-layer="1747" to-port="2"/>
		<edge from-layer="1702" from-port="0" to-layer="1747" to-port="3"/>
		<edge from-layer="1703" from-port="0" to-layer="1747" to-port="4"/>
		<edge from-layer="1699" from-port="5" to-layer="1748" to-port="0"/>
		<edge from-layer="1747" from-port="5" to-layer="1748" to-port="1"/>
		<edge from-layer="1748" from-port="2" to-layer="1749" to-port="0"/>
		<edge from-layer="1749" from-port="1" to-layer="1750" to-port="0"/>
		<edge from-layer="1457" from-port="0" to-layer="1750" to-port="1"/>
		<edge from-layer="1458" from-port="0" to-layer="1750" to-port="2"/>
		<edge from-layer="1459" from-port="0" to-layer="1750" to-port="3"/>
		<edge from-layer="1460" from-port="0" to-layer="1750" to-port="4"/>
		<edge from-layer="1764" from-port="0" to-layer="1765" to-port="0"/>
		<edge from-layer="1765" from-port="1" to-layer="1766" to-port="0"/>
		<edge from-layer="1763" from-port="0" to-layer="1766" to-port="1"/>
		<edge from-layer="1750" from-port="5" to-layer="1767" to-port="0"/>
		<edge from-layer="1766" from-port="2" to-layer="1767" to-port="1"/>
		<edge from-layer="1768" from-port="0" to-layer="1769" to-port="0"/>
		<edge from-layer="1767" from-port="2" to-layer="1770" to-port="0"/>
		<edge from-layer="1769" from-port="1" to-layer="1770" to-port="1"/>
		<edge from-layer="1770" from-port="2" to-layer="1771" to-port="0"/>
		<edge from-layer="1771" from-port="1" to-layer="1772" to-port="0"/>
		<edge from-layer="1759" from-port="0" to-layer="1772" to-port="1"/>
		<edge from-layer="1760" from-port="0" to-layer="1772" to-port="2"/>
		<edge from-layer="1761" from-port="0" to-layer="1772" to-port="3"/>
		<edge from-layer="1762" from-port="0" to-layer="1772" to-port="4"/>
		<edge from-layer="1774" from-port="0" to-layer="1775" to-port="0"/>
		<edge from-layer="1775" from-port="1" to-layer="1776" to-port="0"/>
		<edge from-layer="1773" from-port="0" to-layer="1776" to-port="1"/>
		<edge from-layer="1776" from-port="2" to-layer="1778" to-port="0"/>
		<edge from-layer="1778" from-port="1" to-layer="1781" to-port="0"/>
		<edge from-layer="1779" from-port="0" to-layer="1781" to-port="1"/>
		<edge from-layer="1780" from-port="0" to-layer="1781" to-port="2"/>
		<edge from-layer="1777" from-port="0" to-layer="1782" to-port="0"/>
		<edge from-layer="1781" from-port="3" to-layer="1782" to-port="1"/>
		<edge from-layer="1776" from-port="2" to-layer="1783" to-port="0"/>
		<edge from-layer="1782" from-port="2" to-layer="1783" to-port="1"/>
		<edge from-layer="1772" from-port="5" to-layer="1784" to-port="0"/>
		<edge from-layer="1783" from-port="2" to-layer="1784" to-port="1"/>
		<edge from-layer="1785" from-port="0" to-layer="1786" to-port="0"/>
		<edge from-layer="1784" from-port="2" to-layer="1787" to-port="0"/>
		<edge from-layer="1786" from-port="1" to-layer="1787" to-port="1"/>
		<edge from-layer="1787" from-port="2" to-layer="1788" to-port="0"/>
		<edge from-layer="1788" from-port="1" to-layer="1789" to-port="0"/>
		<edge from-layer="1755" from-port="0" to-layer="1789" to-port="1"/>
		<edge from-layer="1756" from-port="0" to-layer="1789" to-port="2"/>
		<edge from-layer="1757" from-port="0" to-layer="1789" to-port="3"/>
		<edge from-layer="1758" from-port="0" to-layer="1789" to-port="4"/>
		<edge from-layer="1791" from-port="0" to-layer="1792" to-port="0"/>
		<edge from-layer="1792" from-port="1" to-layer="1793" to-port="0"/>
		<edge from-layer="1790" from-port="0" to-layer="1793" to-port="1"/>
		<edge from-layer="1789" from-port="5" to-layer="1794" to-port="0"/>
		<edge from-layer="1793" from-port="2" to-layer="1794" to-port="1"/>
		<edge from-layer="1795" from-port="0" to-layer="1796" to-port="0"/>
		<edge from-layer="1794" from-port="2" to-layer="1797" to-port="0"/>
		<edge from-layer="1796" from-port="1" to-layer="1797" to-port="1"/>
		<edge from-layer="1797" from-port="2" to-layer="1798" to-port="0"/>
		<edge from-layer="1751" from-port="0" to-layer="1798" to-port="1"/>
		<edge from-layer="1752" from-port="0" to-layer="1798" to-port="2"/>
		<edge from-layer="1753" from-port="0" to-layer="1798" to-port="3"/>
		<edge from-layer="1754" from-port="0" to-layer="1798" to-port="4"/>
		<edge from-layer="1750" from-port="5" to-layer="1799" to-port="0"/>
		<edge from-layer="1798" from-port="5" to-layer="1799" to-port="1"/>
		<edge from-layer="1799" from-port="2" to-layer="1800" to-port="0"/>
		<edge from-layer="1800" from-port="1" to-layer="1801" to-port="0"/>
		<edge from-layer="1453" from-port="0" to-layer="1801" to-port="1"/>
		<edge from-layer="1454" from-port="0" to-layer="1801" to-port="2"/>
		<edge from-layer="1455" from-port="0" to-layer="1801" to-port="3"/>
		<edge from-layer="1456" from-port="0" to-layer="1801" to-port="4"/>
		<edge from-layer="1815" from-port="0" to-layer="1816" to-port="0"/>
		<edge from-layer="1816" from-port="1" to-layer="1817" to-port="0"/>
		<edge from-layer="1814" from-port="0" to-layer="1817" to-port="1"/>
		<edge from-layer="1801" from-port="5" to-layer="1818" to-port="0"/>
		<edge from-layer="1817" from-port="2" to-layer="1818" to-port="1"/>
		<edge from-layer="1819" from-port="0" to-layer="1820" to-port="0"/>
		<edge from-layer="1818" from-port="2" to-layer="1821" to-port="0"/>
		<edge from-layer="1820" from-port="1" to-layer="1821" to-port="1"/>
		<edge from-layer="1821" from-port="2" to-layer="1822" to-port="0"/>
		<edge from-layer="1822" from-port="1" to-layer="1823" to-port="0"/>
		<edge from-layer="1810" from-port="0" to-layer="1823" to-port="1"/>
		<edge from-layer="1811" from-port="0" to-layer="1823" to-port="2"/>
		<edge from-layer="1812" from-port="0" to-layer="1823" to-port="3"/>
		<edge from-layer="1813" from-port="0" to-layer="1823" to-port="4"/>
		<edge from-layer="1825" from-port="0" to-layer="1826" to-port="0"/>
		<edge from-layer="1826" from-port="1" to-layer="1827" to-port="0"/>
		<edge from-layer="1824" from-port="0" to-layer="1827" to-port="1"/>
		<edge from-layer="1827" from-port="2" to-layer="1829" to-port="0"/>
		<edge from-layer="1829" from-port="1" to-layer="1832" to-port="0"/>
		<edge from-layer="1830" from-port="0" to-layer="1832" to-port="1"/>
		<edge from-layer="1831" from-port="0" to-layer="1832" to-port="2"/>
		<edge from-layer="1828" from-port="0" to-layer="1833" to-port="0"/>
		<edge from-layer="1832" from-port="3" to-layer="1833" to-port="1"/>
		<edge from-layer="1827" from-port="2" to-layer="1834" to-port="0"/>
		<edge from-layer="1833" from-port="2" to-layer="1834" to-port="1"/>
		<edge from-layer="1823" from-port="5" to-layer="1835" to-port="0"/>
		<edge from-layer="1834" from-port="2" to-layer="1835" to-port="1"/>
		<edge from-layer="1836" from-port="0" to-layer="1837" to-port="0"/>
		<edge from-layer="1835" from-port="2" to-layer="1838" to-port="0"/>
		<edge from-layer="1837" from-port="1" to-layer="1838" to-port="1"/>
		<edge from-layer="1838" from-port="2" to-layer="1839" to-port="0"/>
		<edge from-layer="1839" from-port="1" to-layer="1840" to-port="0"/>
		<edge from-layer="1806" from-port="0" to-layer="1840" to-port="1"/>
		<edge from-layer="1807" from-port="0" to-layer="1840" to-port="2"/>
		<edge from-layer="1808" from-port="0" to-layer="1840" to-port="3"/>
		<edge from-layer="1809" from-port="0" to-layer="1840" to-port="4"/>
		<edge from-layer="1842" from-port="0" to-layer="1843" to-port="0"/>
		<edge from-layer="1843" from-port="1" to-layer="1844" to-port="0"/>
		<edge from-layer="1841" from-port="0" to-layer="1844" to-port="1"/>
		<edge from-layer="1840" from-port="5" to-layer="1845" to-port="0"/>
		<edge from-layer="1844" from-port="2" to-layer="1845" to-port="1"/>
		<edge from-layer="1846" from-port="0" to-layer="1847" to-port="0"/>
		<edge from-layer="1845" from-port="2" to-layer="1848" to-port="0"/>
		<edge from-layer="1847" from-port="1" to-layer="1848" to-port="1"/>
		<edge from-layer="1848" from-port="2" to-layer="1849" to-port="0"/>
		<edge from-layer="1802" from-port="0" to-layer="1849" to-port="1"/>
		<edge from-layer="1803" from-port="0" to-layer="1849" to-port="2"/>
		<edge from-layer="1804" from-port="0" to-layer="1849" to-port="3"/>
		<edge from-layer="1805" from-port="0" to-layer="1849" to-port="4"/>
		<edge from-layer="1801" from-port="5" to-layer="1850" to-port="0"/>
		<edge from-layer="1849" from-port="5" to-layer="1850" to-port="1"/>
		<edge from-layer="1850" from-port="2" to-layer="1851" to-port="0"/>
		<edge from-layer="1851" from-port="1" to-layer="1852" to-port="0"/>
		<edge from-layer="1449" from-port="0" to-layer="1852" to-port="1"/>
		<edge from-layer="1450" from-port="0" to-layer="1852" to-port="2"/>
		<edge from-layer="1451" from-port="0" to-layer="1852" to-port="3"/>
		<edge from-layer="1452" from-port="0" to-layer="1852" to-port="4"/>
		<edge from-layer="1866" from-port="0" to-layer="1867" to-port="0"/>
		<edge from-layer="1867" from-port="1" to-layer="1868" to-port="0"/>
		<edge from-layer="1865" from-port="0" to-layer="1868" to-port="1"/>
		<edge from-layer="1852" from-port="5" to-layer="1869" to-port="0"/>
		<edge from-layer="1868" from-port="2" to-layer="1869" to-port="1"/>
		<edge from-layer="1870" from-port="0" to-layer="1871" to-port="0"/>
		<edge from-layer="1869" from-port="2" to-layer="1872" to-port="0"/>
		<edge from-layer="1871" from-port="1" to-layer="1872" to-port="1"/>
		<edge from-layer="1872" from-port="2" to-layer="1873" to-port="0"/>
		<edge from-layer="1873" from-port="1" to-layer="1874" to-port="0"/>
		<edge from-layer="1861" from-port="0" to-layer="1874" to-port="1"/>
		<edge from-layer="1862" from-port="0" to-layer="1874" to-port="2"/>
		<edge from-layer="1863" from-port="0" to-layer="1874" to-port="3"/>
		<edge from-layer="1864" from-port="0" to-layer="1874" to-port="4"/>
		<edge from-layer="1876" from-port="0" to-layer="1877" to-port="0"/>
		<edge from-layer="1877" from-port="1" to-layer="1878" to-port="0"/>
		<edge from-layer="1875" from-port="0" to-layer="1878" to-port="1"/>
		<edge from-layer="1878" from-port="2" to-layer="1880" to-port="0"/>
		<edge from-layer="1880" from-port="1" to-layer="1883" to-port="0"/>
		<edge from-layer="1881" from-port="0" to-layer="1883" to-port="1"/>
		<edge from-layer="1882" from-port="0" to-layer="1883" to-port="2"/>
		<edge from-layer="1879" from-port="0" to-layer="1884" to-port="0"/>
		<edge from-layer="1883" from-port="3" to-layer="1884" to-port="1"/>
		<edge from-layer="1878" from-port="2" to-layer="1885" to-port="0"/>
		<edge from-layer="1884" from-port="2" to-layer="1885" to-port="1"/>
		<edge from-layer="1874" from-port="5" to-layer="1886" to-port="0"/>
		<edge from-layer="1885" from-port="2" to-layer="1886" to-port="1"/>
		<edge from-layer="1887" from-port="0" to-layer="1888" to-port="0"/>
		<edge from-layer="1886" from-port="2" to-layer="1889" to-port="0"/>
		<edge from-layer="1888" from-port="1" to-layer="1889" to-port="1"/>
		<edge from-layer="1889" from-port="2" to-layer="1890" to-port="0"/>
		<edge from-layer="1890" from-port="1" to-layer="1891" to-port="0"/>
		<edge from-layer="1857" from-port="0" to-layer="1891" to-port="1"/>
		<edge from-layer="1858" from-port="0" to-layer="1891" to-port="2"/>
		<edge from-layer="1859" from-port="0" to-layer="1891" to-port="3"/>
		<edge from-layer="1860" from-port="0" to-layer="1891" to-port="4"/>
		<edge from-layer="1893" from-port="0" to-layer="1894" to-port="0"/>
		<edge from-layer="1894" from-port="1" to-layer="1895" to-port="0"/>
		<edge from-layer="1892" from-port="0" to-layer="1895" to-port="1"/>
		<edge from-layer="1891" from-port="5" to-layer="1896" to-port="0"/>
		<edge from-layer="1895" from-port="2" to-layer="1896" to-port="1"/>
		<edge from-layer="1897" from-port="0" to-layer="1898" to-port="0"/>
		<edge from-layer="1896" from-port="2" to-layer="1899" to-port="0"/>
		<edge from-layer="1898" from-port="1" to-layer="1899" to-port="1"/>
		<edge from-layer="1899" from-port="2" to-layer="1900" to-port="0"/>
		<edge from-layer="1853" from-port="0" to-layer="1900" to-port="1"/>
		<edge from-layer="1854" from-port="0" to-layer="1900" to-port="2"/>
		<edge from-layer="1855" from-port="0" to-layer="1900" to-port="3"/>
		<edge from-layer="1856" from-port="0" to-layer="1900" to-port="4"/>
		<edge from-layer="1852" from-port="5" to-layer="1901" to-port="0"/>
		<edge from-layer="1900" from-port="5" to-layer="1901" to-port="1"/>
		<edge from-layer="1901" from-port="2" to-layer="1902" to-port="0"/>
		<edge from-layer="1902" from-port="1" to-layer="1903" to-port="0"/>
		<edge from-layer="1445" from-port="0" to-layer="1903" to-port="1"/>
		<edge from-layer="1446" from-port="0" to-layer="1903" to-port="2"/>
		<edge from-layer="1447" from-port="0" to-layer="1903" to-port="3"/>
		<edge from-layer="1448" from-port="0" to-layer="1903" to-port="4"/>
		<edge from-layer="1917" from-port="0" to-layer="1918" to-port="0"/>
		<edge from-layer="1918" from-port="1" to-layer="1919" to-port="0"/>
		<edge from-layer="1916" from-port="0" to-layer="1919" to-port="1"/>
		<edge from-layer="1903" from-port="5" to-layer="1920" to-port="0"/>
		<edge from-layer="1919" from-port="2" to-layer="1920" to-port="1"/>
		<edge from-layer="1921" from-port="0" to-layer="1922" to-port="0"/>
		<edge from-layer="1920" from-port="2" to-layer="1923" to-port="0"/>
		<edge from-layer="1922" from-port="1" to-layer="1923" to-port="1"/>
		<edge from-layer="1923" from-port="2" to-layer="1924" to-port="0"/>
		<edge from-layer="1924" from-port="1" to-layer="1925" to-port="0"/>
		<edge from-layer="1912" from-port="0" to-layer="1925" to-port="1"/>
		<edge from-layer="1913" from-port="0" to-layer="1925" to-port="2"/>
		<edge from-layer="1914" from-port="0" to-layer="1925" to-port="3"/>
		<edge from-layer="1915" from-port="0" to-layer="1925" to-port="4"/>
		<edge from-layer="1927" from-port="0" to-layer="1928" to-port="0"/>
		<edge from-layer="1928" from-port="1" to-layer="1929" to-port="0"/>
		<edge from-layer="1926" from-port="0" to-layer="1929" to-port="1"/>
		<edge from-layer="1929" from-port="2" to-layer="1931" to-port="0"/>
		<edge from-layer="1931" from-port="1" to-layer="1934" to-port="0"/>
		<edge from-layer="1932" from-port="0" to-layer="1934" to-port="1"/>
		<edge from-layer="1933" from-port="0" to-layer="1934" to-port="2"/>
		<edge from-layer="1930" from-port="0" to-layer="1935" to-port="0"/>
		<edge from-layer="1934" from-port="3" to-layer="1935" to-port="1"/>
		<edge from-layer="1929" from-port="2" to-layer="1936" to-port="0"/>
		<edge from-layer="1935" from-port="2" to-layer="1936" to-port="1"/>
		<edge from-layer="1925" from-port="5" to-layer="1937" to-port="0"/>
		<edge from-layer="1936" from-port="2" to-layer="1937" to-port="1"/>
		<edge from-layer="1938" from-port="0" to-layer="1939" to-port="0"/>
		<edge from-layer="1937" from-port="2" to-layer="1940" to-port="0"/>
		<edge from-layer="1939" from-port="1" to-layer="1940" to-port="1"/>
		<edge from-layer="1940" from-port="2" to-layer="1941" to-port="0"/>
		<edge from-layer="1941" from-port="1" to-layer="1942" to-port="0"/>
		<edge from-layer="1908" from-port="0" to-layer="1942" to-port="1"/>
		<edge from-layer="1909" from-port="0" to-layer="1942" to-port="2"/>
		<edge from-layer="1910" from-port="0" to-layer="1942" to-port="3"/>
		<edge from-layer="1911" from-port="0" to-layer="1942" to-port="4"/>
		<edge from-layer="1944" from-port="0" to-layer="1945" to-port="0"/>
		<edge from-layer="1945" from-port="1" to-layer="1946" to-port="0"/>
		<edge from-layer="1943" from-port="0" to-layer="1946" to-port="1"/>
		<edge from-layer="1942" from-port="5" to-layer="1947" to-port="0"/>
		<edge from-layer="1946" from-port="2" to-layer="1947" to-port="1"/>
		<edge from-layer="1948" from-port="0" to-layer="1949" to-port="0"/>
		<edge from-layer="1947" from-port="2" to-layer="1950" to-port="0"/>
		<edge from-layer="1949" from-port="1" to-layer="1950" to-port="1"/>
		<edge from-layer="1950" from-port="2" to-layer="1951" to-port="0"/>
		<edge from-layer="1904" from-port="0" to-layer="1951" to-port="1"/>
		<edge from-layer="1905" from-port="0" to-layer="1951" to-port="2"/>
		<edge from-layer="1906" from-port="0" to-layer="1951" to-port="3"/>
		<edge from-layer="1907" from-port="0" to-layer="1951" to-port="4"/>
		<edge from-layer="1903" from-port="5" to-layer="1952" to-port="0"/>
		<edge from-layer="1951" from-port="5" to-layer="1952" to-port="1"/>
		<edge from-layer="1952" from-port="2" to-layer="1953" to-port="0"/>
		<edge from-layer="1953" from-port="1" to-layer="1954" to-port="0"/>
		<edge from-layer="1441" from-port="0" to-layer="1954" to-port="1"/>
		<edge from-layer="1442" from-port="0" to-layer="1954" to-port="2"/>
		<edge from-layer="1443" from-port="0" to-layer="1954" to-port="3"/>
		<edge from-layer="1444" from-port="0" to-layer="1954" to-port="4"/>
		<edge from-layer="1968" from-port="0" to-layer="1969" to-port="0"/>
		<edge from-layer="1969" from-port="1" to-layer="1970" to-port="0"/>
		<edge from-layer="1967" from-port="0" to-layer="1970" to-port="1"/>
		<edge from-layer="1954" from-port="5" to-layer="1971" to-port="0"/>
		<edge from-layer="1970" from-port="2" to-layer="1971" to-port="1"/>
		<edge from-layer="1972" from-port="0" to-layer="1973" to-port="0"/>
		<edge from-layer="1971" from-port="2" to-layer="1974" to-port="0"/>
		<edge from-layer="1973" from-port="1" to-layer="1974" to-port="1"/>
		<edge from-layer="1974" from-port="2" to-layer="1975" to-port="0"/>
		<edge from-layer="1975" from-port="1" to-layer="1976" to-port="0"/>
		<edge from-layer="1963" from-port="0" to-layer="1976" to-port="1"/>
		<edge from-layer="1964" from-port="0" to-layer="1976" to-port="2"/>
		<edge from-layer="1965" from-port="0" to-layer="1976" to-port="3"/>
		<edge from-layer="1966" from-port="0" to-layer="1976" to-port="4"/>
		<edge from-layer="1978" from-port="0" to-layer="1979" to-port="0"/>
		<edge from-layer="1979" from-port="1" to-layer="1980" to-port="0"/>
		<edge from-layer="1977" from-port="0" to-layer="1980" to-port="1"/>
		<edge from-layer="1980" from-port="2" to-layer="1982" to-port="0"/>
		<edge from-layer="1982" from-port="1" to-layer="1985" to-port="0"/>
		<edge from-layer="1983" from-port="0" to-layer="1985" to-port="1"/>
		<edge from-layer="1984" from-port="0" to-layer="1985" to-port="2"/>
		<edge from-layer="1981" from-port="0" to-layer="1986" to-port="0"/>
		<edge from-layer="1985" from-port="3" to-layer="1986" to-port="1"/>
		<edge from-layer="1980" from-port="2" to-layer="1987" to-port="0"/>
		<edge from-layer="1986" from-port="2" to-layer="1987" to-port="1"/>
		<edge from-layer="1976" from-port="5" to-layer="1988" to-port="0"/>
		<edge from-layer="1987" from-port="2" to-layer="1988" to-port="1"/>
		<edge from-layer="1989" from-port="0" to-layer="1990" to-port="0"/>
		<edge from-layer="1988" from-port="2" to-layer="1991" to-port="0"/>
		<edge from-layer="1990" from-port="1" to-layer="1991" to-port="1"/>
		<edge from-layer="1991" from-port="2" to-layer="1992" to-port="0"/>
		<edge from-layer="1992" from-port="1" to-layer="1993" to-port="0"/>
		<edge from-layer="1959" from-port="0" to-layer="1993" to-port="1"/>
		<edge from-layer="1960" from-port="0" to-layer="1993" to-port="2"/>
		<edge from-layer="1961" from-port="0" to-layer="1993" to-port="3"/>
		<edge from-layer="1962" from-port="0" to-layer="1993" to-port="4"/>
		<edge from-layer="1995" from-port="0" to-layer="1996" to-port="0"/>
		<edge from-layer="1996" from-port="1" to-layer="1997" to-port="0"/>
		<edge from-layer="1994" from-port="0" to-layer="1997" to-port="1"/>
		<edge from-layer="1993" from-port="5" to-layer="1998" to-port="0"/>
		<edge from-layer="1997" from-port="2" to-layer="1998" to-port="1"/>
		<edge from-layer="1999" from-port="0" to-layer="2000" to-port="0"/>
		<edge from-layer="1998" from-port="2" to-layer="2001" to-port="0"/>
		<edge from-layer="2000" from-port="1" to-layer="2001" to-port="1"/>
		<edge from-layer="2001" from-port="2" to-layer="2002" to-port="0"/>
		<edge from-layer="1955" from-port="0" to-layer="2002" to-port="1"/>
		<edge from-layer="1956" from-port="0" to-layer="2002" to-port="2"/>
		<edge from-layer="1957" from-port="0" to-layer="2002" to-port="3"/>
		<edge from-layer="1958" from-port="0" to-layer="2002" to-port="4"/>
		<edge from-layer="1954" from-port="5" to-layer="2003" to-port="0"/>
		<edge from-layer="2002" from-port="5" to-layer="2003" to-port="1"/>
		<edge from-layer="2003" from-port="2" to-layer="2004" to-port="0"/>
		<edge from-layer="2004" from-port="1" to-layer="2005" to-port="0"/>
		<edge from-layer="1437" from-port="0" to-layer="2005" to-port="1"/>
		<edge from-layer="1438" from-port="0" to-layer="2005" to-port="2"/>
		<edge from-layer="1439" from-port="0" to-layer="2005" to-port="3"/>
		<edge from-layer="1440" from-port="0" to-layer="2005" to-port="4"/>
		<edge from-layer="2019" from-port="0" to-layer="2020" to-port="0"/>
		<edge from-layer="2020" from-port="1" to-layer="2021" to-port="0"/>
		<edge from-layer="2018" from-port="0" to-layer="2021" to-port="1"/>
		<edge from-layer="2005" from-port="5" to-layer="2022" to-port="0"/>
		<edge from-layer="2021" from-port="2" to-layer="2022" to-port="1"/>
		<edge from-layer="2023" from-port="0" to-layer="2024" to-port="0"/>
		<edge from-layer="2022" from-port="2" to-layer="2025" to-port="0"/>
		<edge from-layer="2024" from-port="1" to-layer="2025" to-port="1"/>
		<edge from-layer="2025" from-port="2" to-layer="2026" to-port="0"/>
		<edge from-layer="2026" from-port="1" to-layer="2027" to-port="0"/>
		<edge from-layer="2014" from-port="0" to-layer="2027" to-port="1"/>
		<edge from-layer="2015" from-port="0" to-layer="2027" to-port="2"/>
		<edge from-layer="2016" from-port="0" to-layer="2027" to-port="3"/>
		<edge from-layer="2017" from-port="0" to-layer="2027" to-port="4"/>
		<edge from-layer="2029" from-port="0" to-layer="2030" to-port="0"/>
		<edge from-layer="2030" from-port="1" to-layer="2031" to-port="0"/>
		<edge from-layer="2028" from-port="0" to-layer="2031" to-port="1"/>
		<edge from-layer="2031" from-port="2" to-layer="2033" to-port="0"/>
		<edge from-layer="2033" from-port="1" to-layer="2036" to-port="0"/>
		<edge from-layer="2034" from-port="0" to-layer="2036" to-port="1"/>
		<edge from-layer="2035" from-port="0" to-layer="2036" to-port="2"/>
		<edge from-layer="2032" from-port="0" to-layer="2037" to-port="0"/>
		<edge from-layer="2036" from-port="3" to-layer="2037" to-port="1"/>
		<edge from-layer="2031" from-port="2" to-layer="2038" to-port="0"/>
		<edge from-layer="2037" from-port="2" to-layer="2038" to-port="1"/>
		<edge from-layer="2027" from-port="5" to-layer="2039" to-port="0"/>
		<edge from-layer="2038" from-port="2" to-layer="2039" to-port="1"/>
		<edge from-layer="2040" from-port="0" to-layer="2041" to-port="0"/>
		<edge from-layer="2039" from-port="2" to-layer="2042" to-port="0"/>
		<edge from-layer="2041" from-port="1" to-layer="2042" to-port="1"/>
		<edge from-layer="2042" from-port="2" to-layer="2043" to-port="0"/>
		<edge from-layer="2043" from-port="1" to-layer="2044" to-port="0"/>
		<edge from-layer="2010" from-port="0" to-layer="2044" to-port="1"/>
		<edge from-layer="2011" from-port="0" to-layer="2044" to-port="2"/>
		<edge from-layer="2012" from-port="0" to-layer="2044" to-port="3"/>
		<edge from-layer="2013" from-port="0" to-layer="2044" to-port="4"/>
		<edge from-layer="2046" from-port="0" to-layer="2047" to-port="0"/>
		<edge from-layer="2047" from-port="1" to-layer="2048" to-port="0"/>
		<edge from-layer="2045" from-port="0" to-layer="2048" to-port="1"/>
		<edge from-layer="2044" from-port="5" to-layer="2049" to-port="0"/>
		<edge from-layer="2048" from-port="2" to-layer="2049" to-port="1"/>
		<edge from-layer="2050" from-port="0" to-layer="2051" to-port="0"/>
		<edge from-layer="2049" from-port="2" to-layer="2052" to-port="0"/>
		<edge from-layer="2051" from-port="1" to-layer="2052" to-port="1"/>
		<edge from-layer="2052" from-port="2" to-layer="2053" to-port="0"/>
		<edge from-layer="2006" from-port="0" to-layer="2053" to-port="1"/>
		<edge from-layer="2007" from-port="0" to-layer="2053" to-port="2"/>
		<edge from-layer="2008" from-port="0" to-layer="2053" to-port="3"/>
		<edge from-layer="2009" from-port="0" to-layer="2053" to-port="4"/>
		<edge from-layer="2005" from-port="5" to-layer="2054" to-port="0"/>
		<edge from-layer="2053" from-port="5" to-layer="2054" to-port="1"/>
		<edge from-layer="2054" from-port="2" to-layer="2055" to-port="0"/>
		<edge from-layer="2055" from-port="1" to-layer="2056" to-port="0"/>
		<edge from-layer="1433" from-port="0" to-layer="2056" to-port="1"/>
		<edge from-layer="1434" from-port="0" to-layer="2056" to-port="2"/>
		<edge from-layer="1435" from-port="0" to-layer="2056" to-port="3"/>
		<edge from-layer="1436" from-port="0" to-layer="2056" to-port="4"/>
		<edge from-layer="2070" from-port="0" to-layer="2071" to-port="0"/>
		<edge from-layer="2071" from-port="1" to-layer="2072" to-port="0"/>
		<edge from-layer="2069" from-port="0" to-layer="2072" to-port="1"/>
		<edge from-layer="2056" from-port="5" to-layer="2073" to-port="0"/>
		<edge from-layer="2072" from-port="2" to-layer="2073" to-port="1"/>
		<edge from-layer="2074" from-port="0" to-layer="2075" to-port="0"/>
		<edge from-layer="2073" from-port="2" to-layer="2076" to-port="0"/>
		<edge from-layer="2075" from-port="1" to-layer="2076" to-port="1"/>
		<edge from-layer="2076" from-port="2" to-layer="2077" to-port="0"/>
		<edge from-layer="2077" from-port="1" to-layer="2078" to-port="0"/>
		<edge from-layer="2065" from-port="0" to-layer="2078" to-port="1"/>
		<edge from-layer="2066" from-port="0" to-layer="2078" to-port="2"/>
		<edge from-layer="2067" from-port="0" to-layer="2078" to-port="3"/>
		<edge from-layer="2068" from-port="0" to-layer="2078" to-port="4"/>
		<edge from-layer="2080" from-port="0" to-layer="2081" to-port="0"/>
		<edge from-layer="2081" from-port="1" to-layer="2082" to-port="0"/>
		<edge from-layer="2079" from-port="0" to-layer="2082" to-port="1"/>
		<edge from-layer="2082" from-port="2" to-layer="2084" to-port="0"/>
		<edge from-layer="2084" from-port="1" to-layer="2087" to-port="0"/>
		<edge from-layer="2085" from-port="0" to-layer="2087" to-port="1"/>
		<edge from-layer="2086" from-port="0" to-layer="2087" to-port="2"/>
		<edge from-layer="2083" from-port="0" to-layer="2088" to-port="0"/>
		<edge from-layer="2087" from-port="3" to-layer="2088" to-port="1"/>
		<edge from-layer="2082" from-port="2" to-layer="2089" to-port="0"/>
		<edge from-layer="2088" from-port="2" to-layer="2089" to-port="1"/>
		<edge from-layer="2078" from-port="5" to-layer="2090" to-port="0"/>
		<edge from-layer="2089" from-port="2" to-layer="2090" to-port="1"/>
		<edge from-layer="2091" from-port="0" to-layer="2092" to-port="0"/>
		<edge from-layer="2090" from-port="2" to-layer="2093" to-port="0"/>
		<edge from-layer="2092" from-port="1" to-layer="2093" to-port="1"/>
		<edge from-layer="2093" from-port="2" to-layer="2094" to-port="0"/>
		<edge from-layer="2094" from-port="1" to-layer="2095" to-port="0"/>
		<edge from-layer="2061" from-port="0" to-layer="2095" to-port="1"/>
		<edge from-layer="2062" from-port="0" to-layer="2095" to-port="2"/>
		<edge from-layer="2063" from-port="0" to-layer="2095" to-port="3"/>
		<edge from-layer="2064" from-port="0" to-layer="2095" to-port="4"/>
		<edge from-layer="2097" from-port="0" to-layer="2098" to-port="0"/>
		<edge from-layer="2098" from-port="1" to-layer="2099" to-port="0"/>
		<edge from-layer="2096" from-port="0" to-layer="2099" to-port="1"/>
		<edge from-layer="2095" from-port="5" to-layer="2100" to-port="0"/>
		<edge from-layer="2099" from-port="2" to-layer="2100" to-port="1"/>
		<edge from-layer="2101" from-port="0" to-layer="2102" to-port="0"/>
		<edge from-layer="2100" from-port="2" to-layer="2103" to-port="0"/>
		<edge from-layer="2102" from-port="1" to-layer="2103" to-port="1"/>
		<edge from-layer="2103" from-port="2" to-layer="2104" to-port="0"/>
		<edge from-layer="2057" from-port="0" to-layer="2104" to-port="1"/>
		<edge from-layer="2058" from-port="0" to-layer="2104" to-port="2"/>
		<edge from-layer="2059" from-port="0" to-layer="2104" to-port="3"/>
		<edge from-layer="2060" from-port="0" to-layer="2104" to-port="4"/>
		<edge from-layer="2056" from-port="5" to-layer="2105" to-port="0"/>
		<edge from-layer="2104" from-port="5" to-layer="2105" to-port="1"/>
		<edge from-layer="2105" from-port="2" to-layer="2106" to-port="0"/>
		<edge from-layer="2106" from-port="1" to-layer="2107" to-port="0"/>
		<edge from-layer="1429" from-port="0" to-layer="2107" to-port="1"/>
		<edge from-layer="1430" from-port="0" to-layer="2107" to-port="2"/>
		<edge from-layer="1431" from-port="0" to-layer="2107" to-port="3"/>
		<edge from-layer="1432" from-port="0" to-layer="2107" to-port="4"/>
		<edge from-layer="2109" from-port="0" to-layer="2110" to-port="0"/>
		<edge from-layer="2110" from-port="1" to-layer="2111" to-port="0"/>
		<edge from-layer="2108" from-port="0" to-layer="2111" to-port="1"/>
		<edge from-layer="2107" from-port="5" to-layer="2112" to-port="0"/>
		<edge from-layer="2111" from-port="2" to-layer="2112" to-port="1"/>
		<edge from-layer="2113" from-port="0" to-layer="2114" to-port="0"/>
		<edge from-layer="2112" from-port="2" to-layer="2115" to-port="0"/>
		<edge from-layer="2114" from-port="1" to-layer="2115" to-port="1"/>
		<edge from-layer="2115" from-port="2" to-layer="2116" to-port="0"/>
		<edge from-layer="1425" from-port="0" to-layer="2116" to-port="1"/>
		<edge from-layer="1426" from-port="0" to-layer="2116" to-port="2"/>
		<edge from-layer="1427" from-port="0" to-layer="2116" to-port="3"/>
		<edge from-layer="1428" from-port="0" to-layer="2116" to-port="4"/>
		<edge from-layer="2118" from-port="0" to-layer="2119" to-port="0"/>
		<edge from-layer="2119" from-port="1" to-layer="2120" to-port="0"/>
		<edge from-layer="2117" from-port="0" to-layer="2120" to-port="1"/>
		<edge from-layer="2116" from-port="5" to-layer="2121" to-port="0"/>
		<edge from-layer="2120" from-port="2" to-layer="2121" to-port="1"/>
		<edge from-layer="2122" from-port="0" to-layer="2123" to-port="0"/>
		<edge from-layer="2121" from-port="2" to-layer="2124" to-port="0"/>
		<edge from-layer="2123" from-port="1" to-layer="2124" to-port="1"/>
		<edge from-layer="2124" from-port="2" to-layer="2126" to-port="0"/>
		<edge from-layer="2125" from-port="0" to-layer="2126" to-port="1"/>
		<edge from-layer="2126" from-port="2" to-layer="2128" to-port="0"/>
		<edge from-layer="2127" from-port="0" to-layer="2128" to-port="1"/>
		<edge from-layer="2134" from-port="0" to-layer="2135" to-port="0"/>
		<edge from-layer="2135" from-port="1" to-layer="2136" to-port="0"/>
		<edge from-layer="2133" from-port="0" to-layer="2136" to-port="1"/>
		<edge from-layer="2107" from-port="5" to-layer="2137" to-port="0"/>
		<edge from-layer="2136" from-port="2" to-layer="2137" to-port="1"/>
		<edge from-layer="2138" from-port="0" to-layer="2139" to-port="0"/>
		<edge from-layer="2137" from-port="2" to-layer="2140" to-port="0"/>
		<edge from-layer="2139" from-port="1" to-layer="2140" to-port="1"/>
		<edge from-layer="2140" from-port="2" to-layer="2141" to-port="0"/>
		<edge from-layer="2141" from-port="1" to-layer="2142" to-port="0"/>
		<edge from-layer="2129" from-port="0" to-layer="2142" to-port="1"/>
		<edge from-layer="2130" from-port="0" to-layer="2142" to-port="2"/>
		<edge from-layer="2131" from-port="0" to-layer="2142" to-port="3"/>
		<edge from-layer="2132" from-port="0" to-layer="2142" to-port="4"/>
		<edge from-layer="2144" from-port="0" to-layer="2145" to-port="0"/>
		<edge from-layer="2145" from-port="1" to-layer="2146" to-port="0"/>
		<edge from-layer="2143" from-port="0" to-layer="2146" to-port="1"/>
		<edge from-layer="2142" from-port="5" to-layer="2147" to-port="0"/>
		<edge from-layer="2146" from-port="2" to-layer="2147" to-port="1"/>
		<edge from-layer="2148" from-port="0" to-layer="2149" to-port="0"/>
		<edge from-layer="2147" from-port="2" to-layer="2150" to-port="0"/>
		<edge from-layer="2149" from-port="1" to-layer="2150" to-port="1"/>
		<edge from-layer="2150" from-port="2" to-layer="2152" to-port="0"/>
		<edge from-layer="2151" from-port="0" to-layer="2152" to-port="1"/>
		<edge from-layer="2152" from-port="2" to-layer="2154" to-port="0"/>
		<edge from-layer="2153" from-port="0" to-layer="2154" to-port="1"/>
		<edge from-layer="1424" from-port="2" to-layer="2155" to-port="0"/>
		<edge from-layer="2128" from-port="2" to-layer="2155" to-port="1"/>
		<edge from-layer="2154" from-port="2" to-layer="2155" to-port="2"/>
		<edge from-layer="2157" from-port="0" to-layer="2158" to-port="0"/>
		<edge from-layer="2158" from-port="1" to-layer="2159" to-port="0"/>
		<edge from-layer="2156" from-port="0" to-layer="2159" to-port="1"/>
		<edge from-layer="1412" from-port="5" to-layer="2160" to-port="0"/>
		<edge from-layer="2159" from-port="2" to-layer="2160" to-port="1"/>
		<edge from-layer="2161" from-port="0" to-layer="2162" to-port="0"/>
		<edge from-layer="2160" from-port="2" to-layer="2163" to-port="0"/>
		<edge from-layer="2162" from-port="1" to-layer="2163" to-port="1"/>
		<edge from-layer="2163" from-port="2" to-layer="2165" to-port="0"/>
		<edge from-layer="2164" from-port="0" to-layer="2165" to-port="1"/>
		<edge from-layer="2165" from-port="2" to-layer="2167" to-port="0"/>
		<edge from-layer="2166" from-port="0" to-layer="2167" to-port="1"/>
		<edge from-layer="2169" from-port="0" to-layer="2170" to-port="0"/>
		<edge from-layer="2170" from-port="1" to-layer="2171" to-port="0"/>
		<edge from-layer="2168" from-port="0" to-layer="2171" to-port="1"/>
		<edge from-layer="2116" from-port="5" to-layer="2172" to-port="0"/>
		<edge from-layer="2171" from-port="2" to-layer="2172" to-port="1"/>
		<edge from-layer="2173" from-port="0" to-layer="2174" to-port="0"/>
		<edge from-layer="2172" from-port="2" to-layer="2175" to-port="0"/>
		<edge from-layer="2174" from-port="1" to-layer="2175" to-port="1"/>
		<edge from-layer="2175" from-port="2" to-layer="2177" to-port="0"/>
		<edge from-layer="2176" from-port="0" to-layer="2177" to-port="1"/>
		<edge from-layer="2177" from-port="2" to-layer="2179" to-port="0"/>
		<edge from-layer="2178" from-port="0" to-layer="2179" to-port="1"/>
		<edge from-layer="2181" from-port="0" to-layer="2182" to-port="0"/>
		<edge from-layer="2182" from-port="1" to-layer="2183" to-port="0"/>
		<edge from-layer="2180" from-port="0" to-layer="2183" to-port="1"/>
		<edge from-layer="2142" from-port="5" to-layer="2184" to-port="0"/>
		<edge from-layer="2183" from-port="2" to-layer="2184" to-port="1"/>
		<edge from-layer="2185" from-port="0" to-layer="2186" to-port="0"/>
		<edge from-layer="2184" from-port="2" to-layer="2187" to-port="0"/>
		<edge from-layer="2186" from-port="1" to-layer="2187" to-port="1"/>
		<edge from-layer="2187" from-port="2" to-layer="2189" to-port="0"/>
		<edge from-layer="2188" from-port="0" to-layer="2189" to-port="1"/>
		<edge from-layer="2189" from-port="2" to-layer="2191" to-port="0"/>
		<edge from-layer="2190" from-port="0" to-layer="2191" to-port="1"/>
		<edge from-layer="2167" from-port="2" to-layer="2192" to-port="0"/>
		<edge from-layer="2179" from-port="2" to-layer="2192" to-port="1"/>
		<edge from-layer="2191" from-port="2" to-layer="2192" to-port="2"/>
		<edge from-layer="2192" from-port="3" to-layer="2194" to-port="0"/>
		<edge from-layer="2193" from-port="0" to-layer="2194" to-port="1"/>
		<edge from-layer="2194" from-port="2" to-layer="2195" to-port="0"/>
		<edge from-layer="2195" from-port="1" to-layer="2197" to-port="0"/>
		<edge from-layer="2196" from-port="0" to-layer="2197" to-port="1"/>
		<edge from-layer="1411" from-port="2" to-layer="2198" to-port="0"/>
		<edge from-layer="2198" from-port="1" to-layer="2202" to-port="0"/>
		<edge from-layer="2199" from-port="0" to-layer="2202" to-port="1"/>
		<edge from-layer="2200" from-port="0" to-layer="2202" to-port="2"/>
		<edge from-layer="2201" from-port="0" to-layer="2202" to-port="3"/>
		<edge from-layer="35" from-port="2" to-layer="2203" to-port="0"/>
		<edge from-layer="2203" from-port="1" to-layer="2207" to-port="0"/>
		<edge from-layer="2204" from-port="0" to-layer="2207" to-port="1"/>
		<edge from-layer="2205" from-port="0" to-layer="2207" to-port="2"/>
		<edge from-layer="2206" from-port="0" to-layer="2207" to-port="3"/>
		<edge from-layer="2202" from-port="4" to-layer="2208" to-port="0"/>
		<edge from-layer="2207" from-port="4" to-layer="2208" to-port="1"/>
		<edge from-layer="2208" from-port="2" to-layer="2210" to-port="0"/>
		<edge from-layer="2209" from-port="0" to-layer="2210" to-port="1"/>
		<edge from-layer="2115" from-port="2" to-layer="2211" to-port="0"/>
		<edge from-layer="2211" from-port="1" to-layer="2215" to-port="0"/>
		<edge from-layer="2212" from-port="0" to-layer="2215" to-port="1"/>
		<edge from-layer="2213" from-port="0" to-layer="2215" to-port="2"/>
		<edge from-layer="2214" from-port="0" to-layer="2215" to-port="3"/>
		<edge from-layer="2203" from-port="1" to-layer="2219" to-port="0"/>
		<edge from-layer="2216" from-port="0" to-layer="2219" to-port="1"/>
		<edge from-layer="2217" from-port="0" to-layer="2219" to-port="2"/>
		<edge from-layer="2218" from-port="0" to-layer="2219" to-port="3"/>
		<edge from-layer="2215" from-port="4" to-layer="2220" to-port="0"/>
		<edge from-layer="2219" from-port="4" to-layer="2220" to-port="1"/>
		<edge from-layer="2220" from-port="2" to-layer="2222" to-port="0"/>
		<edge from-layer="2221" from-port="0" to-layer="2222" to-port="1"/>
		<edge from-layer="2141" from-port="1" to-layer="2223" to-port="0"/>
		<edge from-layer="2223" from-port="1" to-layer="2227" to-port="0"/>
		<edge from-layer="2224" from-port="0" to-layer="2227" to-port="1"/>
		<edge from-layer="2225" from-port="0" to-layer="2227" to-port="2"/>
		<edge from-layer="2226" from-port="0" to-layer="2227" to-port="3"/>
		<edge from-layer="2203" from-port="1" to-layer="2231" to-port="0"/>
		<edge from-layer="2228" from-port="0" to-layer="2231" to-port="1"/>
		<edge from-layer="2229" from-port="0" to-layer="2231" to-port="2"/>
		<edge from-layer="2230" from-port="0" to-layer="2231" to-port="3"/>
		<edge from-layer="2227" from-port="4" to-layer="2232" to-port="0"/>
		<edge from-layer="2231" from-port="4" to-layer="2232" to-port="1"/>
		<edge from-layer="2232" from-port="2" to-layer="2234" to-port="0"/>
		<edge from-layer="2233" from-port="0" to-layer="2234" to-port="1"/>
		<edge from-layer="2210" from-port="2" to-layer="2235" to-port="0"/>
		<edge from-layer="2222" from-port="2" to-layer="2235" to-port="1"/>
		<edge from-layer="2234" from-port="2" to-layer="2235" to-port="2"/>
		<edge from-layer="2155" from-port="3" to-layer="2236" to-port="0"/>
		<edge from-layer="2197" from-port="2" to-layer="2236" to-port="1"/>
		<edge from-layer="2235" from-port="3" to-layer="2236" to-port="2"/>
		<edge from-layer="2236" from-port="3" to-layer="2237" to-port="0"/>
	</edges>
	<meta_data>
		<MO_version value="custom_HEAD_0e242b324458ed332f0907ac6d88fc24b610d9b9"/>
		<Runtime_version value="2022.3.0-000-0e242b32445-HEAD"/>
		<legacy_path value="True"/>
		<cli_parameters>
			<caffe_parser_path value="DIR"/>
			<data_type value="FP16"/>
			<disable_nhwc_to_nchw value="False"/>
			<disable_omitting_optional value="False"/>
			<disable_resnet_optimization value="False"/>
			<disable_weights_compression value="False"/>
			<enable_concat_optimization value="False"/>
			<enable_flattening_nested_params value="False"/>
			<enable_ssd_gluoncv value="False"/>
			<extensions value="['/opt/home/sys_k8sworker/workspace/DL-Benchmark/try/convert']"/>
			<framework value="caffe"/>
			<input value="data"/>
			<input_model value="DIR/_iter_200000.caffemodel"/>
			<input_model_is_text value="False"/>
			<input_proto value="DIR/deploy.prototxt"/>
			<input_shape value="[1,3,1024,1024]"/>
			<k value="DIR/CustomLayersMapping.xml"/>
			<layout value="data(nchw)"/>
			<legacy_mxnet_model value="False"/>
			<log_level value="ERROR"/>
			<mean_values value="data[104.0,117.0,123.0]"/>
			<model_name value="person-vehicle-bike-detection-crossroad-0078"/>
			<output value="detection_out"/>
			<output_dir value="DIR"/>
			<progress value="False"/>
			<remove_memory value="False"/>
			<remove_output_softmax value="False"/>
			<reverse_input_channels value="False"/>
			<save_params_from_nd value="False"/>
			<scale_values value="()"/>
			<silent value="True"/>
			<source_layout value="()"/>
			<static_shape value="False"/>
			<stream_output value="False"/>
			<target_layout value="()"/>
			<transform value=""/>
			<use_legacy_frontend value="False"/>
			<use_new_frontend value="False"/>
			<unset unset_cli_parameters="batch, counts, disable_fusing, finegrain_fusing, freeze_placeholder_with_value, input_checkpoint, input_meta_graph, input_symbol, mean_file, mean_file_offsets, nd_prefix_name, pretrained_model_name, saved_model_dir, saved_model_tags, scale, tensorboard_logdir, tensorflow_custom_layer_libraries, tensorflow_custom_operations_config_update, tensorflow_object_detection_api_pipeline_config, tensorflow_use_custom_operations_config, transformations_config"/>
		</cli_parameters>
	</meta_data>
	<quantization_parameters>
		<config>{
		'compression': {
			'algorithms': [
				{
					'name': 'DefaultQuantization',
					'params': {
						'num_samples_for_tuning': 2000,
						'preset': 'mixed',
						'stat_subset_size': 300,
						'use_layerwise_tuning': false
					}
				}
			],
			'dump_intermediate_model': true,
			'target_device': 'ANY'
		},
		'engine': {
			'models': [
				{
					'name': 'person-vehicle-bike-detection-crossroad-0078',
					'launchers': [
						{
							'framework': 'openvino',
							'adapter': 'ssd',
							'device': 'cpu'
						}
					],
					'datasets': [
						{
							'name': 'crossroad_dataset_0078',
							'data_source': 'PATH',
							'annotation_conversion': {
								'converter': 'crossroad',
								'annotation_file': 'PATH'
							},
							'annotation': 'PATH',
							'dataset_meta': 'PATH',
							'preprocessing': [
								{
									'type': 'resize',
									'dst_width': 1024,
									'dst_height': 1024,
									'interpolation': 'LINEAR'
								}
							],
							'postprocessing': [
								{
									'type': 'resize_prediction_boxes'
								},
								{
									'type': 'cast_to_int'
								},
								{
									'type': 'filter',
									'apply_to': 'annotation',
									'area_ratio': 0.034722222222222224
								},
								{
									'type': 'filter',
									'apply_to': 'prediction',
									'min_confidence': 0.05,
									'is_empty': true
								}
							],
							'metrics': [
								{
									'type': 'map',
									'presenter': 'print_vector',
									'ignore_difficult': true,
									'include_boundaries': true,
									'allow_multiple_matches_per_ignored': true,
									'use_filtered_tp': false,
									'reference': {
										'mean': 0.6512,
										'non-vehicle': 0.4414,
										'person': 0.7747,
										'vehicle': 0.7494
									}
								}
							],
							'_command_line_mapping': {
								'annotation_file': 'PATH'
							}
						}
					]
				}
			],
			'stat_requests_number': null,
			'eval_requests_number': null,
			'type': 'accuracy_checker'
		}
	}</config>
		<version value="invalid version"/>
		<cli_params value="{'quantize': None, 'preset': None, 'model': None, 'weights': None, 'name': None, 'engine': None, 'ac_config': None, 'max_drop': None, 'evaluate': False, 'output_dir': 'PATH', 'direct_dump': True, 'log_level': 'INFO', 'pbar': False, 'stream_output': False, 'keep_uncompressed_weights': False, 'data_source': None}"/>
	</quantization_parameters>
</net>
