<?xml version="1.0" ?>
<net name="torch-jit-export" version="11">
	<layers>
		<layer id="180" name="image" type="Parameter" version="opset1">
			<data shape="1,3,256,256" element_type="f32"/>
			<rt_info>
				<attribute name="old_api_map_element_type" version="0" value="f16"/>
			</rt_info>
			<output>
				<port id="0" precision="FP32" names="image">
					<dim>1</dim>
					<dim>3</dim>
					<dim>256</dim>
					<dim>256</dim>
					<rt_info>
						<attribute name="layout" version="0" layout="[N,C,H,W]"/>
					</rt_info>
				</port>
			</output>
		</layer>
		<layer id="0" name="2143214716683" type="Const" version="opset1">
			<data offset="0" size="4" shape="" element_type="f32"/>
			<output>
				<port id="0" precision="FP32"/>
			</output>
		</layer>
		<layer id="1" name="2144214817517" type="Const" version="opset1">
			<data offset="4" size="4" shape="" element_type="f32"/>
			<output>
				<port id="0" precision="FP32"/>
			</output>
		</layer>
		<layer id="2" name="2145214917295" type="Const" version="opset1">
			<data offset="0" size="4" shape="" element_type="f32"/>
			<output>
				<port id="0" precision="FP32"/>
			</output>
		</layer>
		<layer id="3" name="2146215016275" type="Const" version="opset1">
			<data offset="4" size="4" shape="" element_type="f32"/>
			<output>
				<port id="0" precision="FP32"/>
			</output>
		</layer>
		<layer id="4" name="2223222716230" type="Const" version="opset1">
			<data offset="8" size="4" shape="" element_type="f32"/>
			<output>
				<port id="0" precision="FP32"/>
			</output>
		</layer>
		<layer id="5" name="2224222816188" type="Const" version="opset1">
			<data offset="12" size="4" shape="" element_type="f32"/>
			<output>
				<port id="0" precision="FP32"/>
			</output>
		</layer>
		<layer id="6" name="2225222917526" type="Const" version="opset1">
			<data offset="8" size="4" shape="" element_type="f32"/>
			<output>
				<port id="0" precision="FP32"/>
			</output>
		</layer>
		<layer id="7" name="2226223017418" type="Const" version="opset1">
			<data offset="12" size="4" shape="" element_type="f32"/>
			<output>
				<port id="0" precision="FP32"/>
			</output>
		</layer>
		<layer id="8" name="2503250716911" type="Const" version="opset1">
			<data offset="16" size="4" shape="" element_type="f32"/>
			<output>
				<port id="0" precision="FP32"/>
			</output>
		</layer>
		<layer id="9" name="2504250817367" type="Const" version="opset1">
			<data offset="20" size="4" shape="" element_type="f32"/>
			<output>
				<port id="0" precision="FP32"/>
			</output>
		</layer>
		<layer id="10" name="2505250917184" type="Const" version="opset1">
			<data offset="16" size="4" shape="" element_type="f32"/>
			<output>
				<port id="0" precision="FP32"/>
			</output>
		</layer>
		<layer id="11" name="2506251016962" type="Const" version="opset1">
			<data offset="20" size="4" shape="" element_type="f32"/>
			<output>
				<port id="0" precision="FP32"/>
			</output>
		</layer>
		<layer id="12" name="1943194717103" type="Const" version="opset1">
			<data offset="0" size="4" shape="" element_type="f32"/>
			<output>
				<port id="0" precision="FP32"/>
			</output>
		</layer>
		<layer id="13" name="1944194817094" type="Const" version="opset1">
			<data offset="24" size="4" shape="" element_type="f32"/>
			<output>
				<port id="0" precision="FP32"/>
			</output>
		</layer>
		<layer id="14" name="1945194917337" type="Const" version="opset1">
			<data offset="0" size="4" shape="" element_type="f32"/>
			<output>
				<port id="0" precision="FP32"/>
			</output>
		</layer>
		<layer id="15" name="1946195017646" type="Const" version="opset1">
			<data offset="24" size="4" shape="" element_type="f32"/>
			<output>
				<port id="0" precision="FP32"/>
			</output>
		</layer>
		<layer id="16" name="2513251717487" type="Const" version="opset1">
			<data offset="28" size="4" shape="" element_type="f32"/>
			<output>
				<port id="0" precision="FP32"/>
			</output>
		</layer>
		<layer id="17" name="2514251816974" type="Const" version="opset1">
			<data offset="32" size="4" shape="" element_type="f32"/>
			<output>
				<port id="0" precision="FP32"/>
			</output>
		</layer>
		<layer id="18" name="2515251916398" type="Const" version="opset1">
			<data offset="28" size="4" shape="" element_type="f32"/>
			<output>
				<port id="0" precision="FP32"/>
			</output>
		</layer>
		<layer id="19" name="2516252016674" type="Const" version="opset1">
			<data offset="32" size="4" shape="" element_type="f32"/>
			<output>
				<port id="0" precision="FP32"/>
			</output>
		</layer>
		<layer id="20" name="2063206716713" type="Const" version="opset1">
			<data offset="36" size="4" shape="" element_type="f32"/>
			<output>
				<port id="0" precision="FP32"/>
			</output>
		</layer>
		<layer id="21" name="2064206816317" type="Const" version="opset1">
			<data offset="40" size="4" shape="" element_type="f32"/>
			<output>
				<port id="0" precision="FP32"/>
			</output>
		</layer>
		<layer id="22" name="2065206917481" type="Const" version="opset1">
			<data offset="36" size="4" shape="" element_type="f32"/>
			<output>
				<port id="0" precision="FP32"/>
			</output>
		</layer>
		<layer id="23" name="2066207017304" type="Const" version="opset1">
			<data offset="40" size="4" shape="" element_type="f32"/>
			<output>
				<port id="0" precision="FP32"/>
			</output>
		</layer>
		<layer id="24" name="2103210716329" type="Const" version="opset1">
			<data offset="0" size="4" shape="" element_type="f32"/>
			<output>
				<port id="0" precision="FP32"/>
			</output>
		</layer>
		<layer id="25" name="2104210816710" type="Const" version="opset1">
			<data offset="44" size="4" shape="" element_type="f32"/>
			<output>
				<port id="0" precision="FP32"/>
			</output>
		</layer>
		<layer id="26" name="2105210916608" type="Const" version="opset1">
			<data offset="0" size="4" shape="" element_type="f32"/>
			<output>
				<port id="0" precision="FP32"/>
			</output>
		</layer>
		<layer id="27" name="2106211016524" type="Const" version="opset1">
			<data offset="44" size="4" shape="" element_type="f32"/>
			<output>
				<port id="0" precision="FP32"/>
			</output>
		</layer>
		<layer id="28" name="1643164716242" type="Const" version="opset1">
			<data offset="48" size="2304" shape="1,576,1,1" element_type="f32"/>
			<output>
				<port id="0" precision="FP32">
					<dim>1</dim>
					<dim>576</dim>
					<dim>1</dim>
					<dim>1</dim>
				</port>
			</output>
		</layer>
		<layer id="29" name="1644164817133" type="Const" version="opset1">
			<data offset="2352" size="2304" shape="1,576,1,1" element_type="f32"/>
			<output>
				<port id="0" precision="FP32">
					<dim>1</dim>
					<dim>576</dim>
					<dim>1</dim>
					<dim>1</dim>
				</port>
			</output>
		</layer>
		<layer id="30" name="1645164917226" type="Const" version="opset1">
			<data offset="48" size="2304" shape="1,576,1,1" element_type="f32"/>
			<output>
				<port id="0" precision="FP32">
					<dim>1</dim>
					<dim>576</dim>
					<dim>1</dim>
					<dim>1</dim>
				</port>
			</output>
		</layer>
		<layer id="31" name="1646165016851" type="Const" version="opset1">
			<data offset="2352" size="2304" shape="1,576,1,1" element_type="f32"/>
			<output>
				<port id="0" precision="FP32">
					<dim>1</dim>
					<dim>576</dim>
					<dim>1</dim>
					<dim>1</dim>
				</port>
			</output>
		</layer>
		<layer id="32" name="2073207716722" type="Const" version="opset1">
			<data offset="4656" size="4" shape="" element_type="f32"/>
			<output>
				<port id="0" precision="FP32"/>
			</output>
		</layer>
		<layer id="33" name="2074207816821" type="Const" version="opset1">
			<data offset="4660" size="4" shape="" element_type="f32"/>
			<output>
				<port id="0" precision="FP32"/>
			</output>
		</layer>
		<layer id="34" name="2075207916419" type="Const" version="opset1">
			<data offset="4656" size="4" shape="" element_type="f32"/>
			<output>
				<port id="0" precision="FP32"/>
			</output>
		</layer>
		<layer id="35" name="2076208016134" type="Const" version="opset1">
			<data offset="4660" size="4" shape="" element_type="f32"/>
			<output>
				<port id="0" precision="FP32"/>
			</output>
		</layer>
		<layer id="36" name="2383238717436" type="Const" version="opset1">
			<data offset="0" size="4" shape="" element_type="f32"/>
			<output>
				<port id="0" precision="FP32"/>
			</output>
		</layer>
		<layer id="37" name="2384238816653" type="Const" version="opset1">
			<data offset="4664" size="4" shape="" element_type="f32"/>
			<output>
				<port id="0" precision="FP32"/>
			</output>
		</layer>
		<layer id="38" name="2385238916686" type="Const" version="opset1">
			<data offset="0" size="4" shape="" element_type="f32"/>
			<output>
				<port id="0" precision="FP32"/>
			</output>
		</layer>
		<layer id="39" name="2386239016953" type="Const" version="opset1">
			<data offset="4664" size="4" shape="" element_type="f32"/>
			<output>
				<port id="0" precision="FP32"/>
			</output>
		</layer>
		<layer id="40" name="1823182716191" type="Const" version="opset1">
			<data offset="4668" size="1536" shape="1,384,1,1" element_type="f32"/>
			<output>
				<port id="0" precision="FP32">
					<dim>1</dim>
					<dim>384</dim>
					<dim>1</dim>
					<dim>1</dim>
				</port>
			</output>
		</layer>
		<layer id="41" name="1824182816896" type="Const" version="opset1">
			<data offset="6204" size="1536" shape="1,384,1,1" element_type="f32"/>
			<output>
				<port id="0" precision="FP32">
					<dim>1</dim>
					<dim>384</dim>
					<dim>1</dim>
					<dim>1</dim>
				</port>
			</output>
		</layer>
		<layer id="42" name="1825182916926" type="Const" version="opset1">
			<data offset="4668" size="1536" shape="1,384,1,1" element_type="f32"/>
			<output>
				<port id="0" precision="FP32">
					<dim>1</dim>
					<dim>384</dim>
					<dim>1</dim>
					<dim>1</dim>
				</port>
			</output>
		</layer>
		<layer id="43" name="1826183016281" type="Const" version="opset1">
			<data offset="6204" size="1536" shape="1,384,1,1" element_type="f32"/>
			<output>
				<port id="0" precision="FP32">
					<dim>1</dim>
					<dim>384</dim>
					<dim>1</dim>
					<dim>1</dim>
				</port>
			</output>
		</layer>
		<layer id="44" name="2203220717082" type="Const" version="opset1">
			<data offset="7740" size="4" shape="" element_type="f32"/>
			<output>
				<port id="0" precision="FP32"/>
			</output>
		</layer>
		<layer id="45" name="2204220816854" type="Const" version="opset1">
			<data offset="7744" size="4" shape="" element_type="f32"/>
			<output>
				<port id="0" precision="FP32"/>
			</output>
		</layer>
		<layer id="46" name="2205220916326" type="Const" version="opset1">
			<data offset="7740" size="4" shape="" element_type="f32"/>
			<output>
				<port id="0" precision="FP32"/>
			</output>
		</layer>
		<layer id="47" name="2206221017409" type="Const" version="opset1">
			<data offset="7744" size="4" shape="" element_type="f32"/>
			<output>
				<port id="0" precision="FP32"/>
			</output>
		</layer>
		<layer id="48" name="2323232716920" type="Const" version="opset1">
			<data offset="7748" size="4" shape="" element_type="f32"/>
			<output>
				<port id="0" precision="FP32"/>
			</output>
		</layer>
		<layer id="49" name="2324232817301" type="Const" version="opset1">
			<data offset="7752" size="4" shape="" element_type="f32"/>
			<output>
				<port id="0" precision="FP32"/>
			</output>
		</layer>
		<layer id="50" name="2325232916512" type="Const" version="opset1">
			<data offset="7748" size="4" shape="" element_type="f32"/>
			<output>
				<port id="0" precision="FP32"/>
			</output>
		</layer>
		<layer id="51" name="2326233016209" type="Const" version="opset1">
			<data offset="7752" size="4" shape="" element_type="f32"/>
			<output>
				<port id="0" precision="FP32"/>
			</output>
		</layer>
		<layer id="52" name="2343234716869" type="Const" version="opset1">
			<data offset="4668" size="1536" shape="1,384,1,1" element_type="f32"/>
			<output>
				<port id="0" precision="FP32">
					<dim>1</dim>
					<dim>384</dim>
					<dim>1</dim>
					<dim>1</dim>
				</port>
			</output>
		</layer>
		<layer id="53" name="2344234816743" type="Const" version="opset1">
			<data offset="7756" size="1536" shape="1,384,1,1" element_type="f32"/>
			<output>
				<port id="0" precision="FP32">
					<dim>1</dim>
					<dim>384</dim>
					<dim>1</dim>
					<dim>1</dim>
				</port>
			</output>
		</layer>
		<layer id="54" name="2345234917163" type="Const" version="opset1">
			<data offset="4668" size="1536" shape="1,384,1,1" element_type="f32"/>
			<output>
				<port id="0" precision="FP32">
					<dim>1</dim>
					<dim>384</dim>
					<dim>1</dim>
					<dim>1</dim>
				</port>
			</output>
		</layer>
		<layer id="55" name="2346235016341" type="Const" version="opset1">
			<data offset="7756" size="1536" shape="1,384,1,1" element_type="f32"/>
			<output>
				<port id="0" precision="FP32">
					<dim>1</dim>
					<dim>384</dim>
					<dim>1</dim>
					<dim>1</dim>
				</port>
			</output>
		</layer>
		<layer id="56" name="2333233717088" type="Const" version="opset1">
			<data offset="9292" size="4" shape="" element_type="f32"/>
			<output>
				<port id="0" precision="FP32"/>
			</output>
		</layer>
		<layer id="57" name="2334233817118" type="Const" version="opset1">
			<data offset="9296" size="4" shape="" element_type="f32"/>
			<output>
				<port id="0" precision="FP32"/>
			</output>
		</layer>
		<layer id="58" name="2335233917388" type="Const" version="opset1">
			<data offset="9292" size="4" shape="" element_type="f32"/>
			<output>
				<port id="0" precision="FP32"/>
			</output>
		</layer>
		<layer id="59" name="2336234016602" type="Const" version="opset1">
			<data offset="9296" size="4" shape="" element_type="f32"/>
			<output>
				<port id="0" precision="FP32"/>
			</output>
		</layer>
		<layer id="60" name="1923192717556" type="Const" version="opset1">
			<data offset="9300" size="4" shape="" element_type="f32"/>
			<output>
				<port id="0" precision="FP32"/>
			</output>
		</layer>
		<layer id="61" name="1924192817256" type="Const" version="opset1">
			<data offset="9304" size="4" shape="" element_type="f32"/>
			<output>
				<port id="0" precision="FP32"/>
			</output>
		</layer>
		<layer id="62" name="1925192916827" type="Const" version="opset1">
			<data offset="9300" size="4" shape="" element_type="f32"/>
			<output>
				<port id="0" precision="FP32"/>
			</output>
		</layer>
		<layer id="63" name="1926193017043" type="Const" version="opset1">
			<data offset="9304" size="4" shape="" element_type="f32"/>
			<output>
				<port id="0" precision="FP32"/>
			</output>
		</layer>
		<layer id="64" name="2643264716695" type="Const" version="opset1">
			<data offset="0" size="4" shape="" element_type="f32"/>
			<output>
				<port id="0" precision="FP32"/>
			</output>
		</layer>
		<layer id="65" name="2644264816251" type="Const" version="opset1">
			<data offset="9308" size="4" shape="" element_type="f32"/>
			<output>
				<port id="0" precision="FP32"/>
			</output>
		</layer>
		<layer id="66" name="2645264916908" type="Const" version="opset1">
			<data offset="0" size="4" shape="" element_type="f32"/>
			<output>
				<port id="0" precision="FP32"/>
			</output>
		</layer>
		<layer id="67" name="2646265016245" type="Const" version="opset1">
			<data offset="9308" size="4" shape="" element_type="f32"/>
			<output>
				<port id="0" precision="FP32"/>
			</output>
		</layer>
		<layer id="68" name="2723272717379" type="Const" version="opset1">
			<data offset="4668" size="1536" shape="1,384,1,1" element_type="f32"/>
			<output>
				<port id="0" precision="FP32">
					<dim>1</dim>
					<dim>384</dim>
					<dim>1</dim>
					<dim>1</dim>
				</port>
			</output>
		</layer>
		<layer id="69" name="2724272816845" type="Const" version="opset1">
			<data offset="9312" size="1536" shape="1,384,1,1" element_type="f32"/>
			<output>
				<port id="0" precision="FP32">
					<dim>1</dim>
					<dim>384</dim>
					<dim>1</dim>
					<dim>1</dim>
				</port>
			</output>
		</layer>
		<layer id="70" name="2725272916161" type="Const" version="opset1">
			<data offset="4668" size="1536" shape="1,384,1,1" element_type="f32"/>
			<output>
				<port id="0" precision="FP32">
					<dim>1</dim>
					<dim>384</dim>
					<dim>1</dim>
					<dim>1</dim>
				</port>
			</output>
		</layer>
		<layer id="71" name="2726273016785" type="Const" version="opset1">
			<data offset="9312" size="1536" shape="1,384,1,1" element_type="f32"/>
			<output>
				<port id="0" precision="FP32">
					<dim>1</dim>
					<dim>384</dim>
					<dim>1</dim>
					<dim>1</dim>
				</port>
			</output>
		</layer>
		<layer id="72" name="1933193716617" type="Const" version="opset1">
			<data offset="10848" size="4" shape="" element_type="f32"/>
			<output>
				<port id="0" precision="FP32"/>
			</output>
		</layer>
		<layer id="73" name="1934193816956" type="Const" version="opset1">
			<data offset="10852" size="4" shape="" element_type="f32"/>
			<output>
				<port id="0" precision="FP32"/>
			</output>
		</layer>
		<layer id="74" name="1935193917127" type="Const" version="opset1">
			<data offset="10848" size="4" shape="" element_type="f32"/>
			<output>
				<port id="0" precision="FP32"/>
			</output>
		</layer>
		<layer id="75" name="1936194016659" type="Const" version="opset1">
			<data offset="10852" size="4" shape="" element_type="f32"/>
			<output>
				<port id="0" precision="FP32"/>
			</output>
		</layer>
		<layer id="76" name="2483248717265" type="Const" version="opset1">
			<data offset="10856" size="4" shape="" element_type="f32"/>
			<output>
				<port id="0" precision="FP32"/>
			</output>
		</layer>
		<layer id="77" name="2484248816377" type="Const" version="opset1">
			<data offset="10860" size="4" shape="" element_type="f32"/>
			<output>
				<port id="0" precision="FP32"/>
			</output>
		</layer>
		<layer id="78" name="2485248917340" type="Const" version="opset1">
			<data offset="10856" size="4" shape="" element_type="f32"/>
			<output>
				<port id="0" precision="FP32"/>
			</output>
		</layer>
		<layer id="79" name="2486249016236" type="Const" version="opset1">
			<data offset="10860" size="4" shape="" element_type="f32"/>
			<output>
				<port id="0" precision="FP32"/>
			</output>
		</layer>
		<layer id="80" name="2963296716746" type="Const" version="opset1">
			<data offset="0" size="4" shape="" element_type="f32"/>
			<output>
				<port id="0" precision="FP32"/>
			</output>
		</layer>
		<layer id="81" name="2964296816671" type="Const" version="opset1">
			<data offset="10864" size="4" shape="" element_type="f32"/>
			<output>
				<port id="0" precision="FP32"/>
			</output>
		</layer>
		<layer id="82" name="2965296917613" type="Const" version="opset1">
			<data offset="0" size="4" shape="" element_type="f32"/>
			<output>
				<port id="0" precision="FP32"/>
			</output>
		</layer>
		<layer id="83" name="2966297017079" type="Const" version="opset1">
			<data offset="10864" size="4" shape="" element_type="f32"/>
			<output>
				<port id="0" precision="FP32"/>
			</output>
		</layer>
		<layer id="84" name="2943294716344" type="Const" version="opset1">
			<data offset="4668" size="1536" shape="1,384,1,1" element_type="f32"/>
			<output>
				<port id="0" precision="FP32">
					<dim>1</dim>
					<dim>384</dim>
					<dim>1</dim>
					<dim>1</dim>
				</port>
			</output>
		</layer>
		<layer id="85" name="2944294816473" type="Const" version="opset1">
			<data offset="10868" size="1536" shape="1,384,1,1" element_type="f32"/>
			<output>
				<port id="0" precision="FP32">
					<dim>1</dim>
					<dim>384</dim>
					<dim>1</dim>
					<dim>1</dim>
				</port>
			</output>
		</layer>
		<layer id="86" name="2945294916248" type="Const" version="opset1">
			<data offset="4668" size="1536" shape="1,384,1,1" element_type="f32"/>
			<output>
				<port id="0" precision="FP32">
					<dim>1</dim>
					<dim>384</dim>
					<dim>1</dim>
					<dim>1</dim>
				</port>
			</output>
		</layer>
		<layer id="87" name="2946295016443" type="Const" version="opset1">
			<data offset="10868" size="1536" shape="1,384,1,1" element_type="f32"/>
			<output>
				<port id="0" precision="FP32">
					<dim>1</dim>
					<dim>384</dim>
					<dim>1</dim>
					<dim>1</dim>
				</port>
			</output>
		</layer>
		<layer id="88" name="2493249716269" type="Const" version="opset1">
			<data offset="12404" size="4" shape="" element_type="f32"/>
			<output>
				<port id="0" precision="FP32"/>
			</output>
		</layer>
		<layer id="89" name="2494249816491" type="Const" version="opset1">
			<data offset="12408" size="4" shape="" element_type="f32"/>
			<output>
				<port id="0" precision="FP32"/>
			</output>
		</layer>
		<layer id="90" name="2495249917445" type="Const" version="opset1">
			<data offset="12404" size="4" shape="" element_type="f32"/>
			<output>
				<port id="0" precision="FP32"/>
			</output>
		</layer>
		<layer id="91" name="2496250016929" type="Const" version="opset1">
			<data offset="12408" size="4" shape="" element_type="f32"/>
			<output>
				<port id="0" precision="FP32"/>
			</output>
		</layer>
		<layer id="92" name="2683268717343" type="Const" version="opset1">
			<data offset="0" size="4" shape="" element_type="f32"/>
			<output>
				<port id="0" precision="FP32"/>
			</output>
		</layer>
		<layer id="93" name="2684268817652" type="Const" version="opset1">
			<data offset="12412" size="4" shape="" element_type="f32"/>
			<output>
				<port id="0" precision="FP32"/>
			</output>
		</layer>
		<layer id="94" name="2685268917202" type="Const" version="opset1">
			<data offset="0" size="4" shape="" element_type="f32"/>
			<output>
				<port id="0" precision="FP32"/>
			</output>
		</layer>
		<layer id="95" name="2686269016389" type="Const" version="opset1">
			<data offset="12412" size="4" shape="" element_type="f32"/>
			<output>
				<port id="0" precision="FP32"/>
			</output>
		</layer>
		<layer id="96" name="1723172716323" type="Const" version="opset1">
			<data offset="12416" size="4" shape="" element_type="f32"/>
			<output>
				<port id="0" precision="FP32"/>
			</output>
		</layer>
		<layer id="97" name="1724172817223" type="Const" version="opset1">
			<data offset="12420" size="4" shape="" element_type="f32"/>
			<output>
				<port id="0" precision="FP32"/>
			</output>
		</layer>
		<layer id="98" name="1725172916902" type="Const" version="opset1">
			<data offset="12416" size="4" shape="" element_type="f32"/>
			<output>
				<port id="0" precision="FP32"/>
			</output>
		</layer>
		<layer id="99" name="1726173017637" type="Const" version="opset1">
			<data offset="12420" size="4" shape="" element_type="f32"/>
			<output>
				<port id="0" precision="FP32"/>
			</output>
		</layer>
		<layer id="100" name="1783178716878" type="Const" version="opset1">
			<data offset="12424" size="4" shape="" element_type="f32"/>
			<output>
				<port id="0" precision="FP32"/>
			</output>
		</layer>
		<layer id="101" name="1784178817628" type="Const" version="opset1">
			<data offset="12428" size="4" shape="" element_type="f32"/>
			<output>
				<port id="0" precision="FP32"/>
			</output>
		</layer>
		<layer id="102" name="1785178916470" type="Const" version="opset1">
			<data offset="12424" size="4" shape="" element_type="f32"/>
			<output>
				<port id="0" precision="FP32"/>
			</output>
		</layer>
		<layer id="103" name="1786179016662" type="Const" version="opset1">
			<data offset="12428" size="4" shape="" element_type="f32"/>
			<output>
				<port id="0" precision="FP32"/>
			</output>
		</layer>
		<layer id="104" name="2163216717160" type="Const" version="opset1">
			<data offset="0" size="4" shape="" element_type="f32"/>
			<output>
				<port id="0" precision="FP32"/>
			</output>
		</layer>
		<layer id="105" name="2164216816647" type="Const" version="opset1">
			<data offset="12432" size="4" shape="" element_type="f32"/>
			<output>
				<port id="0" precision="FP32"/>
			</output>
		</layer>
		<layer id="106" name="2165216917424" type="Const" version="opset1">
			<data offset="0" size="4" shape="" element_type="f32"/>
			<output>
				<port id="0" precision="FP32"/>
			</output>
		</layer>
		<layer id="107" name="2166217016941" type="Const" version="opset1">
			<data offset="12432" size="4" shape="" element_type="f32"/>
			<output>
				<port id="0" precision="FP32"/>
			</output>
		</layer>
		<layer id="108" name="2523252716164" type="Const" version="opset1">
			<data offset="12436" size="768" shape="1,192,1,1" element_type="f32"/>
			<output>
				<port id="0" precision="FP32">
					<dim>1</dim>
					<dim>192</dim>
					<dim>1</dim>
					<dim>1</dim>
				</port>
			</output>
		</layer>
		<layer id="109" name="2524252817577" type="Const" version="opset1">
			<data offset="13204" size="768" shape="1,192,1,1" element_type="f32"/>
			<output>
				<port id="0" precision="FP32">
					<dim>1</dim>
					<dim>192</dim>
					<dim>1</dim>
					<dim>1</dim>
				</port>
			</output>
		</layer>
		<layer id="110" name="2525252916239" type="Const" version="opset1">
			<data offset="12436" size="768" shape="1,192,1,1" element_type="f32"/>
			<output>
				<port id="0" precision="FP32">
					<dim>1</dim>
					<dim>192</dim>
					<dim>1</dim>
					<dim>1</dim>
				</port>
			</output>
		</layer>
		<layer id="111" name="2526253017580" type="Const" version="opset1">
			<data offset="13204" size="768" shape="1,192,1,1" element_type="f32"/>
			<output>
				<port id="0" precision="FP32">
					<dim>1</dim>
					<dim>192</dim>
					<dim>1</dim>
					<dim>1</dim>
				</port>
			</output>
		</layer>
		<layer id="112" name="1793179716731" type="Const" version="opset1">
			<data offset="13972" size="4" shape="" element_type="f32"/>
			<output>
				<port id="0" precision="FP32"/>
			</output>
		</layer>
		<layer id="113" name="1794179817385" type="Const" version="opset1">
			<data offset="13976" size="4" shape="" element_type="f32"/>
			<output>
				<port id="0" precision="FP32"/>
			</output>
		</layer>
		<layer id="114" name="1795179917229" type="Const" version="opset1">
			<data offset="13972" size="4" shape="" element_type="f32"/>
			<output>
				<port id="0" precision="FP32"/>
			</output>
		</layer>
		<layer id="115" name="1796180016296" type="Const" version="opset1">
			<data offset="13976" size="4" shape="" element_type="f32"/>
			<output>
				<port id="0" precision="FP32"/>
			</output>
		</layer>
		<layer id="116" name="2563256717571" type="Const" version="opset1">
			<data offset="13980" size="4" shape="" element_type="f32"/>
			<output>
				<port id="0" precision="FP32"/>
			</output>
		</layer>
		<layer id="117" name="2564256817022" type="Const" version="opset1">
			<data offset="13984" size="4" shape="" element_type="f32"/>
			<output>
				<port id="0" precision="FP32"/>
			</output>
		</layer>
		<layer id="118" name="2565256916212" type="Const" version="opset1">
			<data offset="13980" size="4" shape="" element_type="f32"/>
			<output>
				<port id="0" precision="FP32"/>
			</output>
		</layer>
		<layer id="119" name="2566257016944" type="Const" version="opset1">
			<data offset="13984" size="4" shape="" element_type="f32"/>
			<output>
				<port id="0" precision="FP32"/>
			</output>
		</layer>
		<layer id="120" name="2183218717286" type="Const" version="opset1">
			<data offset="0" size="4" shape="" element_type="f32"/>
			<output>
				<port id="0" precision="FP32"/>
			</output>
		</layer>
		<layer id="121" name="2184218816971" type="Const" version="opset1">
			<data offset="13988" size="4" shape="" element_type="f32"/>
			<output>
				<port id="0" precision="FP32"/>
			</output>
		</layer>
		<layer id="122" name="2185218917460" type="Const" version="opset1">
			<data offset="0" size="4" shape="" element_type="f32"/>
			<output>
				<port id="0" precision="FP32"/>
			</output>
		</layer>
		<layer id="123" name="2186219016569" type="Const" version="opset1">
			<data offset="13988" size="4" shape="" element_type="f32"/>
			<output>
				<port id="0" precision="FP32"/>
			</output>
		</layer>
		<layer id="124" name="1863186716872" type="Const" version="opset1">
			<data offset="12436" size="768" shape="1,192,1,1" element_type="f32"/>
			<output>
				<port id="0" precision="FP32">
					<dim>1</dim>
					<dim>192</dim>
					<dim>1</dim>
					<dim>1</dim>
				</port>
			</output>
		</layer>
		<layer id="125" name="1864186816368" type="Const" version="opset1">
			<data offset="13992" size="768" shape="1,192,1,1" element_type="f32"/>
			<output>
				<port id="0" precision="FP32">
					<dim>1</dim>
					<dim>192</dim>
					<dim>1</dim>
					<dim>1</dim>
				</port>
			</output>
		</layer>
		<layer id="126" name="1865186917421" type="Const" version="opset1">
			<data offset="12436" size="768" shape="1,192,1,1" element_type="f32"/>
			<output>
				<port id="0" precision="FP32">
					<dim>1</dim>
					<dim>192</dim>
					<dim>1</dim>
					<dim>1</dim>
				</port>
			</output>
		</layer>
		<layer id="127" name="1866187016830" type="Const" version="opset1">
			<data offset="13992" size="768" shape="1,192,1,1" element_type="f32"/>
			<output>
				<port id="0" precision="FP32">
					<dim>1</dim>
					<dim>192</dim>
					<dim>1</dim>
					<dim>1</dim>
				</port>
			</output>
		</layer>
		<layer id="128" name="2573257716638" type="Const" version="opset1">
			<data offset="14760" size="4" shape="" element_type="f32"/>
			<output>
				<port id="0" precision="FP32"/>
			</output>
		</layer>
		<layer id="129" name="2574257816857" type="Const" version="opset1">
			<data offset="14764" size="4" shape="" element_type="f32"/>
			<output>
				<port id="0" precision="FP32"/>
			</output>
		</layer>
		<layer id="130" name="2575257917427" type="Const" version="opset1">
			<data offset="14760" size="4" shape="" element_type="f32"/>
			<output>
				<port id="0" precision="FP32"/>
			</output>
		</layer>
		<layer id="131" name="2576258016125" type="Const" version="opset1">
			<data offset="14764" size="4" shape="" element_type="f32"/>
			<output>
				<port id="0" precision="FP32"/>
			</output>
		</layer>
		<layer id="132" name="2623262717478" type="Const" version="opset1">
			<data offset="0" size="4" shape="" element_type="f32"/>
			<output>
				<port id="0" precision="FP32"/>
			</output>
		</layer>
		<layer id="133" name="2624262816641" type="Const" version="opset1">
			<data offset="14768" size="4" shape="" element_type="f32"/>
			<output>
				<port id="0" precision="FP32"/>
			</output>
		</layer>
		<layer id="134" name="2625262916194" type="Const" version="opset1">
			<data offset="0" size="4" shape="" element_type="f32"/>
			<output>
				<port id="0" precision="FP32"/>
			</output>
		</layer>
		<layer id="135" name="2626263016152" type="Const" version="opset1">
			<data offset="14768" size="4" shape="" element_type="f32"/>
			<output>
				<port id="0" precision="FP32"/>
			</output>
		</layer>
		<layer id="136" name="2443244717151" type="Const" version="opset1">
			<data offset="14772" size="576" shape="1,144,1,1" element_type="f32"/>
			<output>
				<port id="0" precision="FP32">
					<dim>1</dim>
					<dim>144</dim>
					<dim>1</dim>
					<dim>1</dim>
				</port>
			</output>
		</layer>
		<layer id="137" name="2444244816704" type="Const" version="opset1">
			<data offset="15348" size="576" shape="1,144,1,1" element_type="f32"/>
			<output>
				<port id="0" precision="FP32">
					<dim>1</dim>
					<dim>144</dim>
					<dim>1</dim>
					<dim>1</dim>
				</port>
			</output>
		</layer>
		<layer id="138" name="2445244917352" type="Const" version="opset1">
			<data offset="14772" size="576" shape="1,144,1,1" element_type="f32"/>
			<output>
				<port id="0" precision="FP32">
					<dim>1</dim>
					<dim>144</dim>
					<dim>1</dim>
					<dim>1</dim>
				</port>
			</output>
		</layer>
		<layer id="139" name="2446245016437" type="Const" version="opset1">
			<data offset="15348" size="576" shape="1,144,1,1" element_type="f32"/>
			<output>
				<port id="0" precision="FP32">
					<dim>1</dim>
					<dim>144</dim>
					<dim>1</dim>
					<dim>1</dim>
				</port>
			</output>
		</layer>
		<layer id="140" name="2863286716197" type="Const" version="opset1">
			<data offset="15924" size="4" shape="" element_type="f32"/>
			<output>
				<port id="0" precision="FP32"/>
			</output>
		</layer>
		<layer id="141" name="2864286816119" type="Const" version="opset1">
			<data offset="15928" size="4" shape="" element_type="f32"/>
			<output>
				<port id="0" precision="FP32"/>
			</output>
		</layer>
		<layer id="142" name="2865286917586" type="Const" version="opset1">
			<data offset="15924" size="4" shape="" element_type="f32"/>
			<output>
				<port id="0" precision="FP32"/>
			</output>
		</layer>
		<layer id="143" name="2866287016311" type="Const" version="opset1">
			<data offset="15928" size="4" shape="" element_type="f32"/>
			<output>
				<port id="0" precision="FP32"/>
			</output>
		</layer>
		<layer id="144" name="1963196716440" type="Const" version="opset1">
			<data offset="15932" size="4" shape="" element_type="f32"/>
			<output>
				<port id="0" precision="FP32"/>
			</output>
		</layer>
		<layer id="145" name="1964196817316" type="Const" version="opset1">
			<data offset="15936" size="4" shape="" element_type="f32"/>
			<output>
				<port id="0" precision="FP32"/>
			</output>
		</layer>
		<layer id="146" name="1965196916776" type="Const" version="opset1">
			<data offset="15932" size="4" shape="" element_type="f32"/>
			<output>
				<port id="0" precision="FP32"/>
			</output>
		</layer>
		<layer id="147" name="1966197017085" type="Const" version="opset1">
			<data offset="15936" size="4" shape="" element_type="f32"/>
			<output>
				<port id="0" precision="FP32"/>
			</output>
		</layer>
		<layer id="148" name="2823282717430" type="Const" version="opset1">
			<data offset="0" size="4" shape="" element_type="f32"/>
			<output>
				<port id="0" precision="FP32"/>
			</output>
		</layer>
		<layer id="149" name="2824282817568" type="Const" version="opset1">
			<data offset="15940" size="4" shape="" element_type="f32"/>
			<output>
				<port id="0" precision="FP32"/>
			</output>
		</layer>
		<layer id="150" name="2825282917217" type="Const" version="opset1">
			<data offset="0" size="4" shape="" element_type="f32"/>
			<output>
				<port id="0" precision="FP32"/>
			</output>
		</layer>
		<layer id="151" name="2826283016206" type="Const" version="opset1">
			<data offset="15940" size="4" shape="" element_type="f32"/>
			<output>
				<port id="0" precision="FP32"/>
			</output>
		</layer>
		<layer id="152" name="2743274717313" type="Const" version="opset1">
			<data offset="14772" size="576" shape="1,144,1,1" element_type="f32"/>
			<output>
				<port id="0" precision="FP32">
					<dim>1</dim>
					<dim>144</dim>
					<dim>1</dim>
					<dim>1</dim>
				</port>
			</output>
		</layer>
		<layer id="153" name="2744274816626" type="Const" version="opset1">
			<data offset="15944" size="576" shape="1,144,1,1" element_type="f32"/>
			<output>
				<port id="0" precision="FP32">
					<dim>1</dim>
					<dim>144</dim>
					<dim>1</dim>
					<dim>1</dim>
				</port>
			</output>
		</layer>
		<layer id="154" name="2745274916848" type="Const" version="opset1">
			<data offset="14772" size="576" shape="1,144,1,1" element_type="f32"/>
			<output>
				<port id="0" precision="FP32">
					<dim>1</dim>
					<dim>144</dim>
					<dim>1</dim>
					<dim>1</dim>
				</port>
			</output>
		</layer>
		<layer id="155" name="2746275017448" type="Const" version="opset1">
			<data offset="15944" size="576" shape="1,144,1,1" element_type="f32"/>
			<output>
				<port id="0" precision="FP32">
					<dim>1</dim>
					<dim>144</dim>
					<dim>1</dim>
					<dim>1</dim>
				</port>
			</output>
		</layer>
		<layer id="156" name="1973197717583" type="Const" version="opset1">
			<data offset="16520" size="4" shape="" element_type="f32"/>
			<output>
				<port id="0" precision="FP32"/>
			</output>
		</layer>
		<layer id="157" name="1974197816416" type="Const" version="opset1">
			<data offset="16524" size="4" shape="" element_type="f32"/>
			<output>
				<port id="0" precision="FP32"/>
			</output>
		</layer>
		<layer id="158" name="1975197916707" type="Const" version="opset1">
			<data offset="16520" size="4" shape="" element_type="f32"/>
			<output>
				<port id="0" precision="FP32"/>
			</output>
		</layer>
		<layer id="159" name="1976198017289" type="Const" version="opset1">
			<data offset="16524" size="4" shape="" element_type="f32"/>
			<output>
				<port id="0" precision="FP32"/>
			</output>
		</layer>
		<layer id="160" name="2423242716557" type="Const" version="opset1">
			<data offset="0" size="4" shape="" element_type="f32"/>
			<output>
				<port id="0" precision="FP32"/>
			</output>
		</layer>
		<layer id="161" name="2424242816518" type="Const" version="opset1">
			<data offset="16528" size="4" shape="" element_type="f32"/>
			<output>
				<port id="0" precision="FP32"/>
			</output>
		</layer>
		<layer id="162" name="2425242916551" type="Const" version="opset1">
			<data offset="0" size="4" shape="" element_type="f32"/>
			<output>
				<port id="0" precision="FP32"/>
			</output>
		</layer>
		<layer id="163" name="2426243016737" type="Const" version="opset1">
			<data offset="16528" size="4" shape="" element_type="f32"/>
			<output>
				<port id="0" precision="FP32"/>
			</output>
		</layer>
		<layer id="164" name="2123212716803" type="Const" version="opset1">
			<data offset="16532" size="384" shape="1,96,1,1" element_type="f32"/>
			<output>
				<port id="0" precision="FP32">
					<dim>1</dim>
					<dim>96</dim>
					<dim>1</dim>
					<dim>1</dim>
				</port>
			</output>
		</layer>
		<layer id="165" name="2124212816386" type="Const" version="opset1">
			<data offset="16916" size="384" shape="1,96,1,1" element_type="f32"/>
			<output>
				<port id="0" precision="FP32">
					<dim>1</dim>
					<dim>96</dim>
					<dim>1</dim>
					<dim>1</dim>
				</port>
			</output>
		</layer>
		<layer id="166" name="2125212917259" type="Const" version="opset1">
			<data offset="16532" size="384" shape="1,96,1,1" element_type="f32"/>
			<output>
				<port id="0" precision="FP32">
					<dim>1</dim>
					<dim>96</dim>
					<dim>1</dim>
					<dim>1</dim>
				</port>
			</output>
		</layer>
		<layer id="167" name="2126213017376" type="Const" version="opset1">
			<data offset="16916" size="384" shape="1,96,1,1" element_type="f32"/>
			<output>
				<port id="0" precision="FP32">
					<dim>1</dim>
					<dim>96</dim>
					<dim>1</dim>
					<dim>1</dim>
				</port>
			</output>
		</layer>
		<layer id="168" name="2083208717277" type="Const" version="opset1">
			<data offset="17300" size="128" shape="1,32,1,1" element_type="f32"/>
			<output>
				<port id="0" precision="FP32">
					<dim>1</dim>
					<dim>32</dim>
					<dim>1</dim>
					<dim>1</dim>
				</port>
			</output>
		</layer>
		<layer id="169" name="2084208817064" type="Const" version="opset1">
			<data offset="17428" size="128" shape="1,32,1,1" element_type="f32"/>
			<output>
				<port id="0" precision="FP32">
					<dim>1</dim>
					<dim>32</dim>
					<dim>1</dim>
					<dim>1</dim>
				</port>
			</output>
		</layer>
		<layer id="170" name="2085208917091" type="Const" version="opset1">
			<data offset="17300" size="128" shape="1,32,1,1" element_type="f32"/>
			<output>
				<port id="0" precision="FP32">
					<dim>1</dim>
					<dim>32</dim>
					<dim>1</dim>
					<dim>1</dim>
				</port>
			</output>
		</layer>
		<layer id="171" name="2086209017235" type="Const" version="opset1">
			<data offset="17428" size="128" shape="1,32,1,1" element_type="f32"/>
			<output>
				<port id="0" precision="FP32">
					<dim>1</dim>
					<dim>32</dim>
					<dim>1</dim>
					<dim>1</dim>
				</port>
			</output>
		</layer>
		<layer id="172" name="1883188717598" type="Const" version="opset1">
			<data offset="0" size="4" shape="" element_type="f32"/>
			<output>
				<port id="0" precision="FP32"/>
			</output>
		</layer>
		<layer id="173" name="1884188817250" type="Const" version="opset1">
			<data offset="17556" size="4" shape="" element_type="f32"/>
			<output>
				<port id="0" precision="FP32"/>
			</output>
		</layer>
		<layer id="174" name="1885188917169" type="Const" version="opset1">
			<data offset="0" size="4" shape="" element_type="f32"/>
			<output>
				<port id="0" precision="FP32"/>
			</output>
		</layer>
		<layer id="175" name="1886189017529" type="Const" version="opset1">
			<data offset="17556" size="4" shape="" element_type="f32"/>
			<output>
				<port id="0" precision="FP32"/>
			</output>
		</layer>
		<layer id="176" name="2003200716278" type="Const" version="opset1">
			<data offset="0" size="4" shape="" element_type="f32"/>
			<output>
				<port id="0" precision="FP32"/>
			</output>
		</layer>
		<layer id="177" name="2004200817271" type="Const" version="opset1">
			<data offset="17560" size="4" shape="" element_type="f32"/>
			<output>
				<port id="0" precision="FP32"/>
			</output>
		</layer>
		<layer id="178" name="2005200916371" type="Const" version="opset1">
			<data offset="0" size="4" shape="" element_type="f32"/>
			<output>
				<port id="0" precision="FP32"/>
			</output>
		</layer>
		<layer id="179" name="2006201017649" type="Const" version="opset1">
			<data offset="17560" size="4" shape="" element_type="f32"/>
			<output>
				<port id="0" precision="FP32"/>
			</output>
		</layer>
		<layer id="181" name="Constant_1546149817484" type="Const" version="opset1">
			<data offset="17564" size="2" shape="1,1,1,1" element_type="f16"/>
			<output>
				<port id="0" precision="FP16">
					<dim>1</dim>
					<dim>1</dim>
					<dim>1</dim>
					<dim>1</dim>
				</port>
			</output>
		</layer>
		<layer id="182" name="Constant_1546149810930/restored_convert" type="Convert" version="opset1">
			<data destination_type="f32"/>
			<rt_info>
				<attribute name="decompression" version="0"/>
			</rt_info>
			<input>
				<port id="0">
					<dim>1</dim>
					<dim>1</dim>
					<dim>1</dim>
					<dim>1</dim>
				</port>
			</input>
			<output>
				<port id="1" precision="FP32">
					<dim>1</dim>
					<dim>1</dim>
					<dim>1</dim>
					<dim>1</dim>
				</port>
			</output>
		</layer>
		<layer id="183" name="Divide_2774" type="Multiply" version="opset1">
			<data auto_broadcast="numpy"/>
			<rt_info>
				<attribute name="preprocessing" version="0"/>
			</rt_info>
			<input>
				<port id="0">
					<dim>1</dim>
					<dim>3</dim>
					<dim>256</dim>
					<dim>256</dim>
				</port>
				<port id="1">
					<dim>1</dim>
					<dim>1</dim>
					<dim>1</dim>
					<dim>1</dim>
				</port>
			</input>
			<output>
				<port id="2" precision="FP32">
					<dim>1</dim>
					<dim>3</dim>
					<dim>256</dim>
					<dim>256</dim>
				</port>
			</output>
		</layer>
		<layer id="184" name="Multiply_14143/fq_input_0" type="FakeQuantize" version="opset1">
			<data levels="256" auto_broadcast="numpy"/>
			<input>
				<port id="0">
					<dim>1</dim>
					<dim>3</dim>
					<dim>256</dim>
					<dim>256</dim>
				</port>
				<port id="1"/>
				<port id="2"/>
				<port id="3"/>
				<port id="4"/>
			</input>
			<output>
				<port id="5" precision="FP32">
					<dim>1</dim>
					<dim>3</dim>
					<dim>256</dim>
					<dim>256</dim>
				</port>
			</output>
		</layer>
		<layer id="185" name="Multiply_14143/fq_weights_1/scale1323317058" type="Const" version="opset1">
			<data offset="17566" size="128" shape="32,1,1,1" element_type="f32"/>
			<output>
				<port id="0" precision="FP32">
					<dim>32</dim>
					<dim>1</dim>
					<dim>1</dim>
					<dim>1</dim>
				</port>
			</output>
		</layer>
		<layer id="186" name="Gather_1546050110931/restored_convert/quantized1322516749" type="Const" version="opset1">
			<data offset="17694" size="864" shape="32,3,3,3" element_type="i8"/>
			<output>
				<port id="0" precision="I8">
					<dim>32</dim>
					<dim>3</dim>
					<dim>3</dim>
					<dim>3</dim>
				</port>
			</output>
		</layer>
		<layer id="187" name="Gather_1546050110931/restored_convert/quantized/to_f32" type="Convert" version="opset1">
			<data destination_type="f32"/>
			<input>
				<port id="0">
					<dim>32</dim>
					<dim>3</dim>
					<dim>3</dim>
					<dim>3</dim>
				</port>
			</input>
			<output>
				<port id="1" precision="FP32">
					<dim>32</dim>
					<dim>3</dim>
					<dim>3</dim>
					<dim>3</dim>
				</port>
			</output>
		</layer>
		<layer id="188" name="Multiply_14143/fq_weights_1/mulpiply_by_scale" type="Multiply" version="opset1">
			<data auto_broadcast="numpy"/>
			<input>
				<port id="0">
					<dim>32</dim>
					<dim>3</dim>
					<dim>3</dim>
					<dim>3</dim>
				</port>
				<port id="1">
					<dim>32</dim>
					<dim>1</dim>
					<dim>1</dim>
					<dim>1</dim>
				</port>
			</input>
			<output>
				<port id="2" precision="FP32">
					<dim>32</dim>
					<dim>3</dim>
					<dim>3</dim>
					<dim>3</dim>
				</port>
			</output>
		</layer>
		<layer id="189" name="Multiply_14143" type="Convolution" version="opset1">
			<data auto_pad="explicit" strides="2,2" dilations="1,1" pads_begin="1,1" pads_end="1,1"/>
			<rt_info>
				<attribute name="preprocessing" version="0"/>
			</rt_info>
			<input>
				<port id="0">
					<dim>1</dim>
					<dim>3</dim>
					<dim>256</dim>
					<dim>256</dim>
				</port>
				<port id="1">
					<dim>32</dim>
					<dim>3</dim>
					<dim>3</dim>
					<dim>3</dim>
				</port>
			</input>
			<output>
				<port id="2" precision="FP32">
					<dim>1</dim>
					<dim>32</dim>
					<dim>128</dim>
					<dim>128</dim>
				</port>
			</output>
		</layer>
		<layer id="190" name="Constant_1414850416380" type="Const" version="opset1">
			<data offset="18558" size="64" shape="1,32,1,1" element_type="f16"/>
			<output>
				<port id="0" precision="FP16">
					<dim>1</dim>
					<dim>32</dim>
					<dim>1</dim>
					<dim>1</dim>
				</port>
			</output>
		</layer>
		<layer id="191" name="Constant_1414850410932/restored_convert" type="Convert" version="opset1">
			<data destination_type="f32"/>
			<rt_info>
				<attribute name="decompression" version="0"/>
			</rt_info>
			<input>
				<port id="0">
					<dim>1</dim>
					<dim>32</dim>
					<dim>1</dim>
					<dim>1</dim>
				</port>
			</input>
			<output>
				<port id="1" precision="FP32">
					<dim>1</dim>
					<dim>32</dim>
					<dim>1</dim>
					<dim>1</dim>
				</port>
			</output>
		</layer>
		<layer id="192" name="BatchNormalization_1" type="Add" version="opset1">
			<data auto_broadcast="numpy"/>
			<input>
				<port id="0">
					<dim>1</dim>
					<dim>32</dim>
					<dim>128</dim>
					<dim>128</dim>
				</port>
				<port id="1">
					<dim>1</dim>
					<dim>32</dim>
					<dim>1</dim>
					<dim>1</dim>
				</port>
			</input>
			<output>
				<port id="2" precision="FP32" names="351">
					<dim>1</dim>
					<dim>32</dim>
					<dim>128</dim>
					<dim>128</dim>
				</port>
			</output>
		</layer>
		<layer id="193" name="Clip_2" type="Clamp" version="opset1">
			<data max="6" min="0"/>
			<input>
				<port id="0">
					<dim>1</dim>
					<dim>32</dim>
					<dim>128</dim>
					<dim>128</dim>
				</port>
			</input>
			<output>
				<port id="1" precision="FP32" names="352">
					<dim>1</dim>
					<dim>32</dim>
					<dim>128</dim>
					<dim>128</dim>
				</port>
			</output>
		</layer>
		<layer id="194" name="Multiply_14150/fq_input_0" type="FakeQuantize" version="opset1">
			<data levels="256" auto_broadcast="numpy"/>
			<input>
				<port id="0">
					<dim>1</dim>
					<dim>32</dim>
					<dim>128</dim>
					<dim>128</dim>
				</port>
				<port id="1"/>
				<port id="2"/>
				<port id="3"/>
				<port id="4"/>
			</input>
			<output>
				<port id="5" precision="FP32">
					<dim>1</dim>
					<dim>32</dim>
					<dim>128</dim>
					<dim>128</dim>
				</port>
			</output>
		</layer>
		<layer id="195" name="Multiply_14150/fq_weights_1/scale1284317070" type="Const" version="opset1">
			<data offset="18622" size="128" shape="32,1,1,1" element_type="f32"/>
			<output>
				<port id="0" precision="FP32">
					<dim>32</dim>
					<dim>1</dim>
					<dim>1</dim>
					<dim>1</dim>
				</port>
			</output>
		</layer>
		<layer id="196" name="Multiply_1456350810933/restored_convert/quantized1283516356" type="Const" version="opset1">
			<data offset="18750" size="1024" shape="32,32,1,1" element_type="i8"/>
			<output>
				<port id="0" precision="I8">
					<dim>32</dim>
					<dim>32</dim>
					<dim>1</dim>
					<dim>1</dim>
				</port>
			</output>
		</layer>
		<layer id="197" name="Multiply_1456350810933/restored_convert/quantized/to_f32" type="Convert" version="opset1">
			<data destination_type="f32"/>
			<input>
				<port id="0">
					<dim>32</dim>
					<dim>32</dim>
					<dim>1</dim>
					<dim>1</dim>
				</port>
			</input>
			<output>
				<port id="1" precision="FP32">
					<dim>32</dim>
					<dim>32</dim>
					<dim>1</dim>
					<dim>1</dim>
				</port>
			</output>
		</layer>
		<layer id="198" name="Multiply_14150/fq_weights_1/mulpiply_by_scale" type="Multiply" version="opset1">
			<data auto_broadcast="numpy"/>
			<input>
				<port id="0">
					<dim>32</dim>
					<dim>32</dim>
					<dim>1</dim>
					<dim>1</dim>
				</port>
				<port id="1">
					<dim>32</dim>
					<dim>1</dim>
					<dim>1</dim>
					<dim>1</dim>
				</port>
			</input>
			<output>
				<port id="2" precision="FP32">
					<dim>32</dim>
					<dim>32</dim>
					<dim>1</dim>
					<dim>1</dim>
				</port>
			</output>
		</layer>
		<layer id="199" name="Multiply_14150" type="Convolution" version="opset1">
			<data auto_pad="explicit" strides="1,1" dilations="1,1" pads_begin="0,0" pads_end="0,0"/>
			<input>
				<port id="0">
					<dim>1</dim>
					<dim>32</dim>
					<dim>128</dim>
					<dim>128</dim>
				</port>
				<port id="1">
					<dim>32</dim>
					<dim>32</dim>
					<dim>1</dim>
					<dim>1</dim>
				</port>
			</input>
			<output>
				<port id="2" precision="FP32">
					<dim>1</dim>
					<dim>32</dim>
					<dim>128</dim>
					<dim>128</dim>
				</port>
			</output>
		</layer>
		<layer id="200" name="Constant_1415551116548" type="Const" version="opset1">
			<data offset="19774" size="64" shape="1,32,1,1" element_type="f16"/>
			<output>
				<port id="0" precision="FP16">
					<dim>1</dim>
					<dim>32</dim>
					<dim>1</dim>
					<dim>1</dim>
				</port>
			</output>
		</layer>
		<layer id="201" name="Constant_1415551110934/restored_convert" type="Convert" version="opset1">
			<data destination_type="f32"/>
			<rt_info>
				<attribute name="decompression" version="0"/>
			</rt_info>
			<input>
				<port id="0">
					<dim>1</dim>
					<dim>32</dim>
					<dim>1</dim>
					<dim>1</dim>
				</port>
			</input>
			<output>
				<port id="1" precision="FP32">
					<dim>1</dim>
					<dim>32</dim>
					<dim>1</dim>
					<dim>1</dim>
				</port>
			</output>
		</layer>
		<layer id="202" name="BatchNormalization_4" type="Add" version="opset1">
			<data auto_broadcast="numpy"/>
			<input>
				<port id="0">
					<dim>1</dim>
					<dim>32</dim>
					<dim>128</dim>
					<dim>128</dim>
				</port>
				<port id="1">
					<dim>1</dim>
					<dim>32</dim>
					<dim>1</dim>
					<dim>1</dim>
				</port>
			</input>
			<output>
				<port id="2" precision="FP32" names="354">
					<dim>1</dim>
					<dim>32</dim>
					<dim>128</dim>
					<dim>128</dim>
				</port>
			</output>
		</layer>
		<layer id="203" name="Clip_5" type="Clamp" version="opset1">
			<data max="6" min="0"/>
			<input>
				<port id="0">
					<dim>1</dim>
					<dim>32</dim>
					<dim>128</dim>
					<dim>128</dim>
				</port>
			</input>
			<output>
				<port id="1" precision="FP32" names="355">
					<dim>1</dim>
					<dim>32</dim>
					<dim>128</dim>
					<dim>128</dim>
				</port>
			</output>
		</layer>
		<layer id="204" name="Multiply_14157/fq_input_0" type="FakeQuantize" version="opset1">
			<data levels="256" auto_broadcast="numpy"/>
			<input>
				<port id="0">
					<dim>1</dim>
					<dim>32</dim>
					<dim>128</dim>
					<dim>128</dim>
				</port>
				<port id="1">
					<dim>1</dim>
					<dim>32</dim>
					<dim>1</dim>
					<dim>1</dim>
				</port>
				<port id="2">
					<dim>1</dim>
					<dim>32</dim>
					<dim>1</dim>
					<dim>1</dim>
				</port>
				<port id="3">
					<dim>1</dim>
					<dim>32</dim>
					<dim>1</dim>
					<dim>1</dim>
				</port>
				<port id="4">
					<dim>1</dim>
					<dim>32</dim>
					<dim>1</dim>
					<dim>1</dim>
				</port>
			</input>
			<output>
				<port id="5" precision="FP32">
					<dim>1</dim>
					<dim>32</dim>
					<dim>128</dim>
					<dim>128</dim>
				</port>
			</output>
		</layer>
		<layer id="205" name="Multiply_14157/fq_weights_1/scale1254316293" type="Const" version="opset1">
			<data offset="19838" size="128" shape="32,1,1,1" element_type="f32"/>
			<output>
				<port id="0" precision="FP32">
					<dim>32</dim>
					<dim>1</dim>
					<dim>1</dim>
					<dim>1</dim>
				</port>
			</output>
		</layer>
		<layer id="206" name="Multiply_1457251510935/restored_convert/quantized1253517253" type="Const" version="opset1">
			<data offset="19966" size="288" shape="32,1,3,3" element_type="i8"/>
			<output>
				<port id="0" precision="I8">
					<dim>32</dim>
					<dim>1</dim>
					<dim>3</dim>
					<dim>3</dim>
				</port>
			</output>
		</layer>
		<layer id="207" name="Multiply_1457251510935/restored_convert/quantized/to_f32" type="Convert" version="opset1">
			<data destination_type="f32"/>
			<input>
				<port id="0">
					<dim>32</dim>
					<dim>1</dim>
					<dim>3</dim>
					<dim>3</dim>
				</port>
			</input>
			<output>
				<port id="1" precision="FP32">
					<dim>32</dim>
					<dim>1</dim>
					<dim>3</dim>
					<dim>3</dim>
				</port>
			</output>
		</layer>
		<layer id="208" name="Multiply_14157/fq_weights_1/mulpiply_by_scale" type="Multiply" version="opset1">
			<data auto_broadcast="numpy"/>
			<input>
				<port id="0">
					<dim>32</dim>
					<dim>1</dim>
					<dim>3</dim>
					<dim>3</dim>
				</port>
				<port id="1">
					<dim>32</dim>
					<dim>1</dim>
					<dim>1</dim>
					<dim>1</dim>
				</port>
			</input>
			<output>
				<port id="2" precision="FP32">
					<dim>32</dim>
					<dim>1</dim>
					<dim>3</dim>
					<dim>3</dim>
				</port>
			</output>
		</layer>
		<layer id="209" name="Multiply_14157/GOI_weights_part1480517331" type="Const" version="opset1">
			<data offset="20254" size="24" shape="3" element_type="i64"/>
			<output>
				<port id="0" precision="I64">
					<dim>3</dim>
				</port>
			</output>
		</layer>
		<layer id="210" name="Multiply_14157/WeightsShape" type="ShapeOf" version="opset3">
			<data output_type="i64"/>
			<input>
				<port id="0">
					<dim>32</dim>
					<dim>1</dim>
					<dim>3</dim>
					<dim>3</dim>
				</port>
			</input>
			<output>
				<port id="1" precision="I64">
					<dim>4</dim>
				</port>
			</output>
		</layer>
		<layer id="211" name="Multiply_14157/XY_weights_part_input_port_1/value1480116521" type="Const" version="opset1">
			<data offset="20278" size="16" shape="2" element_type="i64"/>
			<output>
				<port id="0" precision="I64">
					<dim>2</dim>
				</port>
			</output>
		</layer>
		<layer id="212" name="Multiply_14157/XY_weights_part_input_port_2/value1480316809" type="Const" version="opset1">
			<data offset="20294" size="8" shape="" element_type="i64"/>
			<output>
				<port id="0" precision="I64"/>
			</output>
		</layer>
		<layer id="213" name="Multiply_14157/XY_weights_part" type="Gather" version="opset8">
			<data batch_dims="0"/>
			<input>
				<port id="0">
					<dim>4</dim>
				</port>
				<port id="1">
					<dim>2</dim>
				</port>
				<port id="2"/>
			</input>
			<output>
				<port id="3" precision="I64">
					<dim>2</dim>
				</port>
			</output>
		</layer>
		<layer id="214" name="Multiply_14157/weights_shape" type="Concat" version="opset1">
			<data axis="0"/>
			<input>
				<port id="0">
					<dim>3</dim>
				</port>
				<port id="1">
					<dim>2</dim>
				</port>
			</input>
			<output>
				<port id="2" precision="I64">
					<dim>5</dim>
				</port>
			</output>
		</layer>
		<layer id="215" name="14807" type="Reshape" version="opset1">
			<data special_zero="true"/>
			<input>
				<port id="0">
					<dim>32</dim>
					<dim>1</dim>
					<dim>3</dim>
					<dim>3</dim>
				</port>
				<port id="1">
					<dim>5</dim>
				</port>
			</input>
			<output>
				<port id="2" precision="FP32">
					<dim>32</dim>
					<dim>1</dim>
					<dim>1</dim>
					<dim>3</dim>
					<dim>3</dim>
				</port>
			</output>
		</layer>
		<layer id="216" name="Multiply_14157" type="GroupConvolution" version="opset1">
			<data auto_pad="explicit" strides="1,1" dilations="1,1" pads_begin="1,1" pads_end="1,1"/>
			<input>
				<port id="0">
					<dim>1</dim>
					<dim>32</dim>
					<dim>128</dim>
					<dim>128</dim>
				</port>
				<port id="1">
					<dim>32</dim>
					<dim>1</dim>
					<dim>1</dim>
					<dim>3</dim>
					<dim>3</dim>
				</port>
			</input>
			<output>
				<port id="2" precision="FP32" names="356">
					<dim>1</dim>
					<dim>32</dim>
					<dim>128</dim>
					<dim>128</dim>
				</port>
			</output>
		</layer>
		<layer id="217" name="Constant_1416251816227" type="Const" version="opset1">
			<data offset="20302" size="64" shape="1,32,1,1" element_type="f16"/>
			<output>
				<port id="0" precision="FP16">
					<dim>1</dim>
					<dim>32</dim>
					<dim>1</dim>
					<dim>1</dim>
				</port>
			</output>
		</layer>
		<layer id="218" name="Constant_1416251810936/restored_convert" type="Convert" version="opset1">
			<data destination_type="f32"/>
			<rt_info>
				<attribute name="decompression" version="0"/>
			</rt_info>
			<input>
				<port id="0">
					<dim>1</dim>
					<dim>32</dim>
					<dim>1</dim>
					<dim>1</dim>
				</port>
			</input>
			<output>
				<port id="1" precision="FP32">
					<dim>1</dim>
					<dim>32</dim>
					<dim>1</dim>
					<dim>1</dim>
				</port>
			</output>
		</layer>
		<layer id="219" name="BatchNormalization_7" type="Add" version="opset1">
			<data auto_broadcast="numpy"/>
			<input>
				<port id="0">
					<dim>1</dim>
					<dim>32</dim>
					<dim>128</dim>
					<dim>128</dim>
				</port>
				<port id="1">
					<dim>1</dim>
					<dim>32</dim>
					<dim>1</dim>
					<dim>1</dim>
				</port>
			</input>
			<output>
				<port id="2" precision="FP32" names="357">
					<dim>1</dim>
					<dim>32</dim>
					<dim>128</dim>
					<dim>128</dim>
				</port>
			</output>
		</layer>
		<layer id="220" name="Clip_8" type="Clamp" version="opset1">
			<data max="6" min="0"/>
			<input>
				<port id="0">
					<dim>1</dim>
					<dim>32</dim>
					<dim>128</dim>
					<dim>128</dim>
				</port>
			</input>
			<output>
				<port id="1" precision="FP32" names="358">
					<dim>1</dim>
					<dim>32</dim>
					<dim>128</dim>
					<dim>128</dim>
				</port>
			</output>
		</layer>
		<layer id="221" name="Multiply_14164/fq_weights_12281" type="Const" version="opset1">
			<data offset="20366" size="1024" shape="16,32,1,1" element_type="f16"/>
			<output>
				<port id="0" precision="FP16">
					<dim>16</dim>
					<dim>32</dim>
					<dim>1</dim>
					<dim>1</dim>
				</port>
			</output>
		</layer>
		<layer id="222" name="Multiply_14164/fq_weights_12281/restored_convert" type="Convert" version="opset1">
			<data destination_type="f32"/>
			<rt_info>
				<attribute name="decompression" version="0"/>
			</rt_info>
			<input>
				<port id="0">
					<dim>16</dim>
					<dim>32</dim>
					<dim>1</dim>
					<dim>1</dim>
				</port>
			</input>
			<output>
				<port id="1" precision="FP32">
					<dim>16</dim>
					<dim>32</dim>
					<dim>1</dim>
					<dim>1</dim>
				</port>
			</output>
		</layer>
		<layer id="223" name="Multiply_14164" type="Convolution" version="opset1">
			<data auto_pad="explicit" strides="1,1" dilations="1,1" pads_begin="0,0" pads_end="0,0"/>
			<input>
				<port id="0">
					<dim>1</dim>
					<dim>32</dim>
					<dim>128</dim>
					<dim>128</dim>
				</port>
				<port id="1">
					<dim>16</dim>
					<dim>32</dim>
					<dim>1</dim>
					<dim>1</dim>
				</port>
			</input>
			<output>
				<port id="2" precision="FP32">
					<dim>1</dim>
					<dim>16</dim>
					<dim>128</dim>
					<dim>128</dim>
				</port>
			</output>
		</layer>
		<layer id="224" name="Constant_1416952516140" type="Const" version="opset1">
			<data offset="21390" size="32" shape="1,16,1,1" element_type="f16"/>
			<output>
				<port id="0" precision="FP16">
					<dim>1</dim>
					<dim>16</dim>
					<dim>1</dim>
					<dim>1</dim>
				</port>
			</output>
		</layer>
		<layer id="225" name="Constant_1416952510938/restored_convert" type="Convert" version="opset1">
			<data destination_type="f32"/>
			<rt_info>
				<attribute name="decompression" version="0"/>
			</rt_info>
			<input>
				<port id="0">
					<dim>1</dim>
					<dim>16</dim>
					<dim>1</dim>
					<dim>1</dim>
				</port>
			</input>
			<output>
				<port id="1" precision="FP32">
					<dim>1</dim>
					<dim>16</dim>
					<dim>1</dim>
					<dim>1</dim>
				</port>
			</output>
		</layer>
		<layer id="226" name="BatchNormalization_10" type="Add" version="opset1">
			<data auto_broadcast="numpy"/>
			<input>
				<port id="0">
					<dim>1</dim>
					<dim>16</dim>
					<dim>128</dim>
					<dim>128</dim>
				</port>
				<port id="1">
					<dim>1</dim>
					<dim>16</dim>
					<dim>1</dim>
					<dim>1</dim>
				</port>
			</input>
			<output>
				<port id="2" precision="FP32" names="360">
					<dim>1</dim>
					<dim>16</dim>
					<dim>128</dim>
					<dim>128</dim>
				</port>
			</output>
		</layer>
		<layer id="227" name="Multiply_14171/fq_weights_12721" type="Const" version="opset1">
			<data offset="21422" size="3072" shape="96,16,1,1" element_type="f16"/>
			<output>
				<port id="0" precision="FP16">
					<dim>96</dim>
					<dim>16</dim>
					<dim>1</dim>
					<dim>1</dim>
				</port>
			</output>
		</layer>
		<layer id="228" name="Multiply_14171/fq_weights_12721/restored_convert" type="Convert" version="opset1">
			<data destination_type="f32"/>
			<rt_info>
				<attribute name="decompression" version="0"/>
			</rt_info>
			<input>
				<port id="0">
					<dim>96</dim>
					<dim>16</dim>
					<dim>1</dim>
					<dim>1</dim>
				</port>
			</input>
			<output>
				<port id="1" precision="FP32">
					<dim>96</dim>
					<dim>16</dim>
					<dim>1</dim>
					<dim>1</dim>
				</port>
			</output>
		</layer>
		<layer id="229" name="Multiply_14171" type="Convolution" version="opset1">
			<data auto_pad="explicit" strides="1,1" dilations="1,1" pads_begin="0,0" pads_end="0,0"/>
			<input>
				<port id="0">
					<dim>1</dim>
					<dim>16</dim>
					<dim>128</dim>
					<dim>128</dim>
				</port>
				<port id="1">
					<dim>96</dim>
					<dim>16</dim>
					<dim>1</dim>
					<dim>1</dim>
				</port>
			</input>
			<output>
				<port id="2" precision="FP32">
					<dim>1</dim>
					<dim>96</dim>
					<dim>128</dim>
					<dim>128</dim>
				</port>
			</output>
		</layer>
		<layer id="230" name="Constant_1417653117121" type="Const" version="opset1">
			<data offset="24494" size="192" shape="1,96,1,1" element_type="f16"/>
			<output>
				<port id="0" precision="FP16">
					<dim>1</dim>
					<dim>96</dim>
					<dim>1</dim>
					<dim>1</dim>
				</port>
			</output>
		</layer>
		<layer id="231" name="Constant_1417653110940/restored_convert" type="Convert" version="opset1">
			<data destination_type="f32"/>
			<rt_info>
				<attribute name="decompression" version="0"/>
			</rt_info>
			<input>
				<port id="0">
					<dim>1</dim>
					<dim>96</dim>
					<dim>1</dim>
					<dim>1</dim>
				</port>
			</input>
			<output>
				<port id="1" precision="FP32">
					<dim>1</dim>
					<dim>96</dim>
					<dim>1</dim>
					<dim>1</dim>
				</port>
			</output>
		</layer>
		<layer id="232" name="BatchNormalization_12" type="Add" version="opset1">
			<data auto_broadcast="numpy"/>
			<input>
				<port id="0">
					<dim>1</dim>
					<dim>96</dim>
					<dim>128</dim>
					<dim>128</dim>
				</port>
				<port id="1">
					<dim>1</dim>
					<dim>96</dim>
					<dim>1</dim>
					<dim>1</dim>
				</port>
			</input>
			<output>
				<port id="2" precision="FP32" names="362">
					<dim>1</dim>
					<dim>96</dim>
					<dim>128</dim>
					<dim>128</dim>
				</port>
			</output>
		</layer>
		<layer id="233" name="Clip_13" type="Clamp" version="opset1">
			<data max="6" min="0"/>
			<input>
				<port id="0">
					<dim>1</dim>
					<dim>96</dim>
					<dim>128</dim>
					<dim>128</dim>
				</port>
			</input>
			<output>
				<port id="1" precision="FP32" names="363">
					<dim>1</dim>
					<dim>96</dim>
					<dim>128</dim>
					<dim>128</dim>
				</port>
			</output>
		</layer>
		<layer id="234" name="Multiply_14178/fq_input_0" type="FakeQuantize" version="opset1">
			<data levels="256" auto_broadcast="numpy"/>
			<input>
				<port id="0">
					<dim>1</dim>
					<dim>96</dim>
					<dim>128</dim>
					<dim>128</dim>
				</port>
				<port id="1">
					<dim>1</dim>
					<dim>96</dim>
					<dim>1</dim>
					<dim>1</dim>
				</port>
				<port id="2">
					<dim>1</dim>
					<dim>96</dim>
					<dim>1</dim>
					<dim>1</dim>
				</port>
				<port id="3">
					<dim>1</dim>
					<dim>96</dim>
					<dim>1</dim>
					<dim>1</dim>
				</port>
				<port id="4">
					<dim>1</dim>
					<dim>96</dim>
					<dim>1</dim>
					<dim>1</dim>
				</port>
			</input>
			<output>
				<port id="5" precision="FP32">
					<dim>1</dim>
					<dim>96</dim>
					<dim>128</dim>
					<dim>128</dim>
				</port>
			</output>
		</layer>
		<layer id="235" name="Multiply_14178/fq_weights_1/scale1278316764" type="Const" version="opset1">
			<data offset="24686" size="384" shape="96,1,1,1" element_type="f32"/>
			<output>
				<port id="0" precision="FP32">
					<dim>96</dim>
					<dim>1</dim>
					<dim>1</dim>
					<dim>1</dim>
				</port>
			</output>
		</layer>
		<layer id="236" name="Multiply_1459853510941/restored_convert/quantized1277517148" type="Const" version="opset1">
			<data offset="25070" size="864" shape="96,1,3,3" element_type="i8"/>
			<output>
				<port id="0" precision="I8">
					<dim>96</dim>
					<dim>1</dim>
					<dim>3</dim>
					<dim>3</dim>
				</port>
			</output>
		</layer>
		<layer id="237" name="Multiply_1459853510941/restored_convert/quantized/to_f32" type="Convert" version="opset1">
			<data destination_type="f32"/>
			<input>
				<port id="0">
					<dim>96</dim>
					<dim>1</dim>
					<dim>3</dim>
					<dim>3</dim>
				</port>
			</input>
			<output>
				<port id="1" precision="FP32">
					<dim>96</dim>
					<dim>1</dim>
					<dim>3</dim>
					<dim>3</dim>
				</port>
			</output>
		</layer>
		<layer id="238" name="Multiply_14178/fq_weights_1/mulpiply_by_scale" type="Multiply" version="opset1">
			<data auto_broadcast="numpy"/>
			<input>
				<port id="0">
					<dim>96</dim>
					<dim>1</dim>
					<dim>3</dim>
					<dim>3</dim>
				</port>
				<port id="1">
					<dim>96</dim>
					<dim>1</dim>
					<dim>1</dim>
					<dim>1</dim>
				</port>
			</input>
			<output>
				<port id="2" precision="FP32">
					<dim>96</dim>
					<dim>1</dim>
					<dim>3</dim>
					<dim>3</dim>
				</port>
			</output>
		</layer>
		<layer id="239" name="Multiply_14178/GOI_weights_part1481917319" type="Const" version="opset1">
			<data offset="25934" size="24" shape="3" element_type="i64"/>
			<output>
				<port id="0" precision="I64">
					<dim>3</dim>
				</port>
			</output>
		</layer>
		<layer id="240" name="Multiply_14178/WeightsShape" type="ShapeOf" version="opset3">
			<data output_type="i64"/>
			<input>
				<port id="0">
					<dim>96</dim>
					<dim>1</dim>
					<dim>3</dim>
					<dim>3</dim>
				</port>
			</input>
			<output>
				<port id="1" precision="I64">
					<dim>4</dim>
				</port>
			</output>
		</layer>
		<layer id="241" name="Multiply_14178/XY_weights_part_input_port_1/value1481516635" type="Const" version="opset1">
			<data offset="20278" size="16" shape="2" element_type="i64"/>
			<output>
				<port id="0" precision="I64">
					<dim>2</dim>
				</port>
			</output>
		</layer>
		<layer id="242" name="Multiply_14178/XY_weights_part_input_port_2/value1481717559" type="Const" version="opset1">
			<data offset="20294" size="8" shape="" element_type="i64"/>
			<output>
				<port id="0" precision="I64"/>
			</output>
		</layer>
		<layer id="243" name="Multiply_14178/XY_weights_part" type="Gather" version="opset8">
			<data batch_dims="0"/>
			<input>
				<port id="0">
					<dim>4</dim>
				</port>
				<port id="1">
					<dim>2</dim>
				</port>
				<port id="2"/>
			</input>
			<output>
				<port id="3" precision="I64">
					<dim>2</dim>
				</port>
			</output>
		</layer>
		<layer id="244" name="Multiply_14178/weights_shape" type="Concat" version="opset1">
			<data axis="0"/>
			<input>
				<port id="0">
					<dim>3</dim>
				</port>
				<port id="1">
					<dim>2</dim>
				</port>
			</input>
			<output>
				<port id="2" precision="I64">
					<dim>5</dim>
				</port>
			</output>
		</layer>
		<layer id="245" name="14821" type="Reshape" version="opset1">
			<data special_zero="true"/>
			<input>
				<port id="0">
					<dim>96</dim>
					<dim>1</dim>
					<dim>3</dim>
					<dim>3</dim>
				</port>
				<port id="1">
					<dim>5</dim>
				</port>
			</input>
			<output>
				<port id="2" precision="FP32">
					<dim>96</dim>
					<dim>1</dim>
					<dim>1</dim>
					<dim>3</dim>
					<dim>3</dim>
				</port>
			</output>
		</layer>
		<layer id="246" name="Multiply_14178" type="GroupConvolution" version="opset1">
			<data auto_pad="explicit" strides="2,2" dilations="1,1" pads_begin="1,1" pads_end="1,1"/>
			<input>
				<port id="0">
					<dim>1</dim>
					<dim>96</dim>
					<dim>128</dim>
					<dim>128</dim>
				</port>
				<port id="1">
					<dim>96</dim>
					<dim>1</dim>
					<dim>1</dim>
					<dim>3</dim>
					<dim>3</dim>
				</port>
			</input>
			<output>
				<port id="2" precision="FP32" names="364">
					<dim>1</dim>
					<dim>96</dim>
					<dim>64</dim>
					<dim>64</dim>
				</port>
			</output>
		</layer>
		<layer id="247" name="Constant_1418353816200" type="Const" version="opset1">
			<data offset="25958" size="192" shape="1,96,1,1" element_type="f16"/>
			<output>
				<port id="0" precision="FP16">
					<dim>1</dim>
					<dim>96</dim>
					<dim>1</dim>
					<dim>1</dim>
				</port>
			</output>
		</layer>
		<layer id="248" name="Constant_1418353810942/restored_convert" type="Convert" version="opset1">
			<data destination_type="f32"/>
			<rt_info>
				<attribute name="decompression" version="0"/>
			</rt_info>
			<input>
				<port id="0">
					<dim>1</dim>
					<dim>96</dim>
					<dim>1</dim>
					<dim>1</dim>
				</port>
			</input>
			<output>
				<port id="1" precision="FP32">
					<dim>1</dim>
					<dim>96</dim>
					<dim>1</dim>
					<dim>1</dim>
				</port>
			</output>
		</layer>
		<layer id="249" name="BatchNormalization_15" type="Add" version="opset1">
			<data auto_broadcast="numpy"/>
			<input>
				<port id="0">
					<dim>1</dim>
					<dim>96</dim>
					<dim>64</dim>
					<dim>64</dim>
				</port>
				<port id="1">
					<dim>1</dim>
					<dim>96</dim>
					<dim>1</dim>
					<dim>1</dim>
				</port>
			</input>
			<output>
				<port id="2" precision="FP32" names="365">
					<dim>1</dim>
					<dim>96</dim>
					<dim>64</dim>
					<dim>64</dim>
				</port>
			</output>
		</layer>
		<layer id="250" name="Clip_16" type="Clamp" version="opset1">
			<data max="6" min="0"/>
			<input>
				<port id="0">
					<dim>1</dim>
					<dim>96</dim>
					<dim>64</dim>
					<dim>64</dim>
				</port>
			</input>
			<output>
				<port id="1" precision="FP32" names="366">
					<dim>1</dim>
					<dim>96</dim>
					<dim>64</dim>
					<dim>64</dim>
				</port>
			</output>
		</layer>
		<layer id="251" name="Multiply_14185/fq_input_0" type="FakeQuantize" version="opset1">
			<data levels="256" auto_broadcast="numpy"/>
			<input>
				<port id="0">
					<dim>1</dim>
					<dim>96</dim>
					<dim>64</dim>
					<dim>64</dim>
				</port>
				<port id="1"/>
				<port id="2"/>
				<port id="3"/>
				<port id="4"/>
			</input>
			<output>
				<port id="5" precision="FP32">
					<dim>1</dim>
					<dim>96</dim>
					<dim>64</dim>
					<dim>64</dim>
				</port>
			</output>
		</layer>
		<layer id="252" name="Multiply_14185/fq_weights_1/scale1206316497" type="Const" version="opset1">
			<data offset="26150" size="96" shape="24,1,1,1" element_type="f32"/>
			<output>
				<port id="0" precision="FP32">
					<dim>24</dim>
					<dim>1</dim>
					<dim>1</dim>
					<dim>1</dim>
				</port>
			</output>
		</layer>
		<layer id="253" name="Multiply_1460654210943/restored_convert/quantized1205516158" type="Const" version="opset1">
			<data offset="26246" size="2304" shape="24,96,1,1" element_type="i8"/>
			<output>
				<port id="0" precision="I8">
					<dim>24</dim>
					<dim>96</dim>
					<dim>1</dim>
					<dim>1</dim>
				</port>
			</output>
		</layer>
		<layer id="254" name="Multiply_1460654210943/restored_convert/quantized/to_f32" type="Convert" version="opset1">
			<data destination_type="f32"/>
			<input>
				<port id="0">
					<dim>24</dim>
					<dim>96</dim>
					<dim>1</dim>
					<dim>1</dim>
				</port>
			</input>
			<output>
				<port id="1" precision="FP32">
					<dim>24</dim>
					<dim>96</dim>
					<dim>1</dim>
					<dim>1</dim>
				</port>
			</output>
		</layer>
		<layer id="255" name="Multiply_14185/fq_weights_1/mulpiply_by_scale" type="Multiply" version="opset1">
			<data auto_broadcast="numpy"/>
			<input>
				<port id="0">
					<dim>24</dim>
					<dim>96</dim>
					<dim>1</dim>
					<dim>1</dim>
				</port>
				<port id="1">
					<dim>24</dim>
					<dim>1</dim>
					<dim>1</dim>
					<dim>1</dim>
				</port>
			</input>
			<output>
				<port id="2" precision="FP32">
					<dim>24</dim>
					<dim>96</dim>
					<dim>1</dim>
					<dim>1</dim>
				</port>
			</output>
		</layer>
		<layer id="256" name="Multiply_14185" type="Convolution" version="opset1">
			<data auto_pad="explicit" strides="1,1" dilations="1,1" pads_begin="0,0" pads_end="0,0"/>
			<input>
				<port id="0">
					<dim>1</dim>
					<dim>96</dim>
					<dim>64</dim>
					<dim>64</dim>
				</port>
				<port id="1">
					<dim>24</dim>
					<dim>96</dim>
					<dim>1</dim>
					<dim>1</dim>
				</port>
			</input>
			<output>
				<port id="2" precision="FP32">
					<dim>1</dim>
					<dim>24</dim>
					<dim>64</dim>
					<dim>64</dim>
				</port>
			</output>
		</layer>
		<layer id="257" name="Constant_1419054516824" type="Const" version="opset1">
			<data offset="28550" size="48" shape="1,24,1,1" element_type="f16"/>
			<output>
				<port id="0" precision="FP16">
					<dim>1</dim>
					<dim>24</dim>
					<dim>1</dim>
					<dim>1</dim>
				</port>
			</output>
		</layer>
		<layer id="258" name="Constant_1419054510944/restored_convert" type="Convert" version="opset1">
			<data destination_type="f32"/>
			<rt_info>
				<attribute name="decompression" version="0"/>
			</rt_info>
			<input>
				<port id="0">
					<dim>1</dim>
					<dim>24</dim>
					<dim>1</dim>
					<dim>1</dim>
				</port>
			</input>
			<output>
				<port id="1" precision="FP32">
					<dim>1</dim>
					<dim>24</dim>
					<dim>1</dim>
					<dim>1</dim>
				</port>
			</output>
		</layer>
		<layer id="259" name="BatchNormalization_18" type="Add" version="opset1">
			<data auto_broadcast="numpy"/>
			<input>
				<port id="0">
					<dim>1</dim>
					<dim>24</dim>
					<dim>64</dim>
					<dim>64</dim>
				</port>
				<port id="1">
					<dim>1</dim>
					<dim>24</dim>
					<dim>1</dim>
					<dim>1</dim>
				</port>
			</input>
			<output>
				<port id="2" precision="FP32" names="368">
					<dim>1</dim>
					<dim>24</dim>
					<dim>64</dim>
					<dim>64</dim>
				</port>
			</output>
		</layer>
		<layer id="260" name="Add_27/fq_input_1" type="FakeQuantize" version="opset1">
			<data levels="256" auto_broadcast="numpy"/>
			<input>
				<port id="0">
					<dim>1</dim>
					<dim>24</dim>
					<dim>64</dim>
					<dim>64</dim>
				</port>
				<port id="1"/>
				<port id="2"/>
				<port id="3"/>
				<port id="4"/>
			</input>
			<output>
				<port id="5" precision="FP32">
					<dim>1</dim>
					<dim>24</dim>
					<dim>64</dim>
					<dim>64</dim>
				</port>
			</output>
		</layer>
		<layer id="261" name="Multiply_14192/fq_weights_1/scale1224316752" type="Const" version="opset1">
			<data offset="28598" size="576" shape="144,1,1,1" element_type="f32"/>
			<output>
				<port id="0" precision="FP32">
					<dim>144</dim>
					<dim>1</dim>
					<dim>1</dim>
					<dim>1</dim>
				</port>
			</output>
		</layer>
		<layer id="262" name="Multiply_1461554810945/restored_convert/quantized1223517115" type="Const" version="opset1">
			<data offset="29174" size="3456" shape="144,24,1,1" element_type="i8"/>
			<output>
				<port id="0" precision="I8">
					<dim>144</dim>
					<dim>24</dim>
					<dim>1</dim>
					<dim>1</dim>
				</port>
			</output>
		</layer>
		<layer id="263" name="Multiply_1461554810945/restored_convert/quantized/to_f32" type="Convert" version="opset1">
			<data destination_type="f32"/>
			<input>
				<port id="0">
					<dim>144</dim>
					<dim>24</dim>
					<dim>1</dim>
					<dim>1</dim>
				</port>
			</input>
			<output>
				<port id="1" precision="FP32">
					<dim>144</dim>
					<dim>24</dim>
					<dim>1</dim>
					<dim>1</dim>
				</port>
			</output>
		</layer>
		<layer id="264" name="Multiply_14192/fq_weights_1/mulpiply_by_scale" type="Multiply" version="opset1">
			<data auto_broadcast="numpy"/>
			<input>
				<port id="0">
					<dim>144</dim>
					<dim>24</dim>
					<dim>1</dim>
					<dim>1</dim>
				</port>
				<port id="1">
					<dim>144</dim>
					<dim>1</dim>
					<dim>1</dim>
					<dim>1</dim>
				</port>
			</input>
			<output>
				<port id="2" precision="FP32">
					<dim>144</dim>
					<dim>24</dim>
					<dim>1</dim>
					<dim>1</dim>
				</port>
			</output>
		</layer>
		<layer id="265" name="Multiply_14192" type="Convolution" version="opset1">
			<data auto_pad="explicit" strides="1,1" dilations="1,1" pads_begin="0,0" pads_end="0,0"/>
			<input>
				<port id="0">
					<dim>1</dim>
					<dim>24</dim>
					<dim>64</dim>
					<dim>64</dim>
				</port>
				<port id="1">
					<dim>144</dim>
					<dim>24</dim>
					<dim>1</dim>
					<dim>1</dim>
				</port>
			</input>
			<output>
				<port id="2" precision="FP32">
					<dim>1</dim>
					<dim>144</dim>
					<dim>64</dim>
					<dim>64</dim>
				</port>
			</output>
		</layer>
		<layer id="266" name="Constant_1419755117034" type="Const" version="opset1">
			<data offset="32630" size="288" shape="1,144,1,1" element_type="f16"/>
			<output>
				<port id="0" precision="FP16">
					<dim>1</dim>
					<dim>144</dim>
					<dim>1</dim>
					<dim>1</dim>
				</port>
			</output>
		</layer>
		<layer id="267" name="Constant_1419755110946/restored_convert" type="Convert" version="opset1">
			<data destination_type="f32"/>
			<rt_info>
				<attribute name="decompression" version="0"/>
			</rt_info>
			<input>
				<port id="0">
					<dim>1</dim>
					<dim>144</dim>
					<dim>1</dim>
					<dim>1</dim>
				</port>
			</input>
			<output>
				<port id="1" precision="FP32">
					<dim>1</dim>
					<dim>144</dim>
					<dim>1</dim>
					<dim>1</dim>
				</port>
			</output>
		</layer>
		<layer id="268" name="BatchNormalization_20" type="Add" version="opset1">
			<data auto_broadcast="numpy"/>
			<input>
				<port id="0">
					<dim>1</dim>
					<dim>144</dim>
					<dim>64</dim>
					<dim>64</dim>
				</port>
				<port id="1">
					<dim>1</dim>
					<dim>144</dim>
					<dim>1</dim>
					<dim>1</dim>
				</port>
			</input>
			<output>
				<port id="2" precision="FP32" names="370">
					<dim>1</dim>
					<dim>144</dim>
					<dim>64</dim>
					<dim>64</dim>
				</port>
			</output>
		</layer>
		<layer id="269" name="Clip_21" type="Clamp" version="opset1">
			<data max="6" min="0"/>
			<input>
				<port id="0">
					<dim>1</dim>
					<dim>144</dim>
					<dim>64</dim>
					<dim>64</dim>
				</port>
			</input>
			<output>
				<port id="1" precision="FP32" names="371">
					<dim>1</dim>
					<dim>144</dim>
					<dim>64</dim>
					<dim>64</dim>
				</port>
			</output>
		</layer>
		<layer id="270" name="Multiply_14199/fq_input_0" type="FakeQuantize" version="opset1">
			<data levels="256" auto_broadcast="numpy"/>
			<input>
				<port id="0">
					<dim>1</dim>
					<dim>144</dim>
					<dim>64</dim>
					<dim>64</dim>
				</port>
				<port id="1">
					<dim>1</dim>
					<dim>144</dim>
					<dim>1</dim>
					<dim>1</dim>
				</port>
				<port id="2">
					<dim>1</dim>
					<dim>144</dim>
					<dim>1</dim>
					<dim>1</dim>
				</port>
				<port id="3">
					<dim>1</dim>
					<dim>144</dim>
					<dim>1</dim>
					<dim>1</dim>
				</port>
				<port id="4">
					<dim>1</dim>
					<dim>144</dim>
					<dim>1</dim>
					<dim>1</dim>
				</port>
			</input>
			<output>
				<port id="5" precision="FP32">
					<dim>1</dim>
					<dim>144</dim>
					<dim>64</dim>
					<dim>64</dim>
				</port>
			</output>
		</layer>
		<layer id="271" name="Multiply_14199/fq_weights_1/scale1326317499" type="Const" version="opset1">
			<data offset="32918" size="576" shape="144,1,1,1" element_type="f32"/>
			<output>
				<port id="0" precision="FP32">
					<dim>144</dim>
					<dim>1</dim>
					<dim>1</dim>
					<dim>1</dim>
				</port>
			</output>
		</layer>
		<layer id="272" name="Multiply_1462455510947/restored_convert/quantized1325516668" type="Const" version="opset1">
			<data offset="33494" size="1296" shape="144,1,3,3" element_type="i8"/>
			<output>
				<port id="0" precision="I8">
					<dim>144</dim>
					<dim>1</dim>
					<dim>3</dim>
					<dim>3</dim>
				</port>
			</output>
		</layer>
		<layer id="273" name="Multiply_1462455510947/restored_convert/quantized/to_f32" type="Convert" version="opset1">
			<data destination_type="f32"/>
			<input>
				<port id="0">
					<dim>144</dim>
					<dim>1</dim>
					<dim>3</dim>
					<dim>3</dim>
				</port>
			</input>
			<output>
				<port id="1" precision="FP32">
					<dim>144</dim>
					<dim>1</dim>
					<dim>3</dim>
					<dim>3</dim>
				</port>
			</output>
		</layer>
		<layer id="274" name="Multiply_14199/fq_weights_1/mulpiply_by_scale" type="Multiply" version="opset1">
			<data auto_broadcast="numpy"/>
			<input>
				<port id="0">
					<dim>144</dim>
					<dim>1</dim>
					<dim>3</dim>
					<dim>3</dim>
				</port>
				<port id="1">
					<dim>144</dim>
					<dim>1</dim>
					<dim>1</dim>
					<dim>1</dim>
				</port>
			</input>
			<output>
				<port id="2" precision="FP32">
					<dim>144</dim>
					<dim>1</dim>
					<dim>3</dim>
					<dim>3</dim>
				</port>
			</output>
		</layer>
		<layer id="275" name="Multiply_14199/GOI_weights_part1483316263" type="Const" version="opset1">
			<data offset="34790" size="24" shape="3" element_type="i64"/>
			<output>
				<port id="0" precision="I64">
					<dim>3</dim>
				</port>
			</output>
		</layer>
		<layer id="276" name="Multiply_14199/WeightsShape" type="ShapeOf" version="opset3">
			<data output_type="i64"/>
			<input>
				<port id="0">
					<dim>144</dim>
					<dim>1</dim>
					<dim>3</dim>
					<dim>3</dim>
				</port>
			</input>
			<output>
				<port id="1" precision="I64">
					<dim>4</dim>
				</port>
			</output>
		</layer>
		<layer id="277" name="Multiply_14199/XY_weights_part_input_port_1/value1482916773" type="Const" version="opset1">
			<data offset="20278" size="16" shape="2" element_type="i64"/>
			<output>
				<port id="0" precision="I64">
					<dim>2</dim>
				</port>
			</output>
		</layer>
		<layer id="278" name="Multiply_14199/XY_weights_part_input_port_2/value1483116740" type="Const" version="opset1">
			<data offset="20294" size="8" shape="" element_type="i64"/>
			<output>
				<port id="0" precision="I64"/>
			</output>
		</layer>
		<layer id="279" name="Multiply_14199/XY_weights_part" type="Gather" version="opset8">
			<data batch_dims="0"/>
			<input>
				<port id="0">
					<dim>4</dim>
				</port>
				<port id="1">
					<dim>2</dim>
				</port>
				<port id="2"/>
			</input>
			<output>
				<port id="3" precision="I64">
					<dim>2</dim>
				</port>
			</output>
		</layer>
		<layer id="280" name="Multiply_14199/weights_shape" type="Concat" version="opset1">
			<data axis="0"/>
			<input>
				<port id="0">
					<dim>3</dim>
				</port>
				<port id="1">
					<dim>2</dim>
				</port>
			</input>
			<output>
				<port id="2" precision="I64">
					<dim>5</dim>
				</port>
			</output>
		</layer>
		<layer id="281" name="14835" type="Reshape" version="opset1">
			<data special_zero="true"/>
			<input>
				<port id="0">
					<dim>144</dim>
					<dim>1</dim>
					<dim>3</dim>
					<dim>3</dim>
				</port>
				<port id="1">
					<dim>5</dim>
				</port>
			</input>
			<output>
				<port id="2" precision="FP32">
					<dim>144</dim>
					<dim>1</dim>
					<dim>1</dim>
					<dim>3</dim>
					<dim>3</dim>
				</port>
			</output>
		</layer>
		<layer id="282" name="Multiply_14199" type="GroupConvolution" version="opset1">
			<data auto_pad="explicit" strides="1,1" dilations="1,1" pads_begin="1,1" pads_end="1,1"/>
			<input>
				<port id="0">
					<dim>1</dim>
					<dim>144</dim>
					<dim>64</dim>
					<dim>64</dim>
				</port>
				<port id="1">
					<dim>144</dim>
					<dim>1</dim>
					<dim>1</dim>
					<dim>3</dim>
					<dim>3</dim>
				</port>
			</input>
			<output>
				<port id="2" precision="FP32" names="372">
					<dim>1</dim>
					<dim>144</dim>
					<dim>64</dim>
					<dim>64</dim>
				</port>
			</output>
		</layer>
		<layer id="283" name="Constant_1420455817157" type="Const" version="opset1">
			<data offset="34814" size="288" shape="1,144,1,1" element_type="f16"/>
			<output>
				<port id="0" precision="FP16">
					<dim>1</dim>
					<dim>144</dim>
					<dim>1</dim>
					<dim>1</dim>
				</port>
			</output>
		</layer>
		<layer id="284" name="Constant_1420455810948/restored_convert" type="Convert" version="opset1">
			<data destination_type="f32"/>
			<rt_info>
				<attribute name="decompression" version="0"/>
			</rt_info>
			<input>
				<port id="0">
					<dim>1</dim>
					<dim>144</dim>
					<dim>1</dim>
					<dim>1</dim>
				</port>
			</input>
			<output>
				<port id="1" precision="FP32">
					<dim>1</dim>
					<dim>144</dim>
					<dim>1</dim>
					<dim>1</dim>
				</port>
			</output>
		</layer>
		<layer id="285" name="BatchNormalization_23" type="Add" version="opset1">
			<data auto_broadcast="numpy"/>
			<input>
				<port id="0">
					<dim>1</dim>
					<dim>144</dim>
					<dim>64</dim>
					<dim>64</dim>
				</port>
				<port id="1">
					<dim>1</dim>
					<dim>144</dim>
					<dim>1</dim>
					<dim>1</dim>
				</port>
			</input>
			<output>
				<port id="2" precision="FP32" names="373">
					<dim>1</dim>
					<dim>144</dim>
					<dim>64</dim>
					<dim>64</dim>
				</port>
			</output>
		</layer>
		<layer id="286" name="Clip_24" type="Clamp" version="opset1">
			<data max="6" min="0"/>
			<input>
				<port id="0">
					<dim>1</dim>
					<dim>144</dim>
					<dim>64</dim>
					<dim>64</dim>
				</port>
			</input>
			<output>
				<port id="1" precision="FP32" names="374">
					<dim>1</dim>
					<dim>144</dim>
					<dim>64</dim>
					<dim>64</dim>
				</port>
			</output>
		</layer>
		<layer id="287" name="Multiply_14206/fq_input_0" type="FakeQuantize" version="opset1">
			<data levels="256" auto_broadcast="numpy"/>
			<input>
				<port id="0">
					<dim>1</dim>
					<dim>144</dim>
					<dim>64</dim>
					<dim>64</dim>
				</port>
				<port id="1"/>
				<port id="2"/>
				<port id="3"/>
				<port id="4"/>
			</input>
			<output>
				<port id="5" precision="FP32">
					<dim>1</dim>
					<dim>144</dim>
					<dim>64</dim>
					<dim>64</dim>
				</port>
			</output>
		</layer>
		<layer id="288" name="Multiply_14206/fq_weights_1/scale1293316404" type="Const" version="opset1">
			<data offset="35102" size="96" shape="24,1,1,1" element_type="f32"/>
			<output>
				<port id="0" precision="FP32">
					<dim>24</dim>
					<dim>1</dim>
					<dim>1</dim>
					<dim>1</dim>
				</port>
			</output>
		</layer>
		<layer id="289" name="Multiply_1463256210949/restored_convert/quantized1292516965" type="Const" version="opset1">
			<data offset="35198" size="3456" shape="24,144,1,1" element_type="i8"/>
			<output>
				<port id="0" precision="I8">
					<dim>24</dim>
					<dim>144</dim>
					<dim>1</dim>
					<dim>1</dim>
				</port>
			</output>
		</layer>
		<layer id="290" name="Multiply_1463256210949/restored_convert/quantized/to_f32" type="Convert" version="opset1">
			<data destination_type="f32"/>
			<input>
				<port id="0">
					<dim>24</dim>
					<dim>144</dim>
					<dim>1</dim>
					<dim>1</dim>
				</port>
			</input>
			<output>
				<port id="1" precision="FP32">
					<dim>24</dim>
					<dim>144</dim>
					<dim>1</dim>
					<dim>1</dim>
				</port>
			</output>
		</layer>
		<layer id="291" name="Multiply_14206/fq_weights_1/mulpiply_by_scale" type="Multiply" version="opset1">
			<data auto_broadcast="numpy"/>
			<input>
				<port id="0">
					<dim>24</dim>
					<dim>144</dim>
					<dim>1</dim>
					<dim>1</dim>
				</port>
				<port id="1">
					<dim>24</dim>
					<dim>1</dim>
					<dim>1</dim>
					<dim>1</dim>
				</port>
			</input>
			<output>
				<port id="2" precision="FP32">
					<dim>24</dim>
					<dim>144</dim>
					<dim>1</dim>
					<dim>1</dim>
				</port>
			</output>
		</layer>
		<layer id="292" name="Multiply_14206" type="Convolution" version="opset1">
			<data auto_pad="explicit" strides="1,1" dilations="1,1" pads_begin="0,0" pads_end="0,0"/>
			<input>
				<port id="0">
					<dim>1</dim>
					<dim>144</dim>
					<dim>64</dim>
					<dim>64</dim>
				</port>
				<port id="1">
					<dim>24</dim>
					<dim>144</dim>
					<dim>1</dim>
					<dim>1</dim>
				</port>
			</input>
			<output>
				<port id="2" precision="FP32">
					<dim>1</dim>
					<dim>24</dim>
					<dim>64</dim>
					<dim>64</dim>
				</port>
			</output>
		</layer>
		<layer id="293" name="Constant_1421156516542" type="Const" version="opset1">
			<data offset="38654" size="48" shape="1,24,1,1" element_type="f16"/>
			<output>
				<port id="0" precision="FP16">
					<dim>1</dim>
					<dim>24</dim>
					<dim>1</dim>
					<dim>1</dim>
				</port>
			</output>
		</layer>
		<layer id="294" name="Constant_1421156510950/restored_convert" type="Convert" version="opset1">
			<data destination_type="f32"/>
			<rt_info>
				<attribute name="decompression" version="0"/>
			</rt_info>
			<input>
				<port id="0">
					<dim>1</dim>
					<dim>24</dim>
					<dim>1</dim>
					<dim>1</dim>
				</port>
			</input>
			<output>
				<port id="1" precision="FP32">
					<dim>1</dim>
					<dim>24</dim>
					<dim>1</dim>
					<dim>1</dim>
				</port>
			</output>
		</layer>
		<layer id="295" name="BatchNormalization_26" type="Add" version="opset1">
			<data auto_broadcast="numpy"/>
			<input>
				<port id="0">
					<dim>1</dim>
					<dim>24</dim>
					<dim>64</dim>
					<dim>64</dim>
				</port>
				<port id="1">
					<dim>1</dim>
					<dim>24</dim>
					<dim>1</dim>
					<dim>1</dim>
				</port>
			</input>
			<output>
				<port id="2" precision="FP32" names="376">
					<dim>1</dim>
					<dim>24</dim>
					<dim>64</dim>
					<dim>64</dim>
				</port>
			</output>
		</layer>
		<layer id="296" name="Add_27/fq_input_0" type="FakeQuantize" version="opset1">
			<data levels="256" auto_broadcast="numpy"/>
			<input>
				<port id="0">
					<dim>1</dim>
					<dim>24</dim>
					<dim>64</dim>
					<dim>64</dim>
				</port>
				<port id="1"/>
				<port id="2"/>
				<port id="3"/>
				<port id="4"/>
			</input>
			<output>
				<port id="5" precision="FP32">
					<dim>1</dim>
					<dim>24</dim>
					<dim>64</dim>
					<dim>64</dim>
				</port>
			</output>
		</layer>
		<layer id="297" name="Add_27" type="Add" version="opset1">
			<data auto_broadcast="numpy"/>
			<input>
				<port id="0">
					<dim>1</dim>
					<dim>24</dim>
					<dim>64</dim>
					<dim>64</dim>
				</port>
				<port id="1">
					<dim>1</dim>
					<dim>24</dim>
					<dim>64</dim>
					<dim>64</dim>
				</port>
			</input>
			<output>
				<port id="2" precision="FP32" names="377">
					<dim>1</dim>
					<dim>24</dim>
					<dim>64</dim>
					<dim>64</dim>
				</port>
			</output>
		</layer>
		<layer id="298" name="Multiply_14213/fq_input_0" type="FakeQuantize" version="opset1">
			<data levels="256" auto_broadcast="numpy"/>
			<input>
				<port id="0">
					<dim>1</dim>
					<dim>24</dim>
					<dim>64</dim>
					<dim>64</dim>
				</port>
				<port id="1"/>
				<port id="2"/>
				<port id="3"/>
				<port id="4"/>
			</input>
			<output>
				<port id="5" precision="FP32">
					<dim>1</dim>
					<dim>24</dim>
					<dim>64</dim>
					<dim>64</dim>
				</port>
			</output>
		</layer>
		<layer id="299" name="Multiply_14213/fq_weights_1/scale1305317268" type="Const" version="opset1">
			<data offset="38702" size="576" shape="144,1,1,1" element_type="f32"/>
			<output>
				<port id="0" precision="FP32">
					<dim>144</dim>
					<dim>1</dim>
					<dim>1</dim>
					<dim>1</dim>
				</port>
			</output>
		</layer>
		<layer id="300" name="Multiply_1464156910951/restored_convert/quantized1304516530" type="Const" version="opset1">
			<data offset="39278" size="3456" shape="144,24,1,1" element_type="i8"/>
			<output>
				<port id="0" precision="I8">
					<dim>144</dim>
					<dim>24</dim>
					<dim>1</dim>
					<dim>1</dim>
				</port>
			</output>
		</layer>
		<layer id="301" name="Multiply_1464156910951/restored_convert/quantized/to_f32" type="Convert" version="opset1">
			<data destination_type="f32"/>
			<input>
				<port id="0">
					<dim>144</dim>
					<dim>24</dim>
					<dim>1</dim>
					<dim>1</dim>
				</port>
			</input>
			<output>
				<port id="1" precision="FP32">
					<dim>144</dim>
					<dim>24</dim>
					<dim>1</dim>
					<dim>1</dim>
				</port>
			</output>
		</layer>
		<layer id="302" name="Multiply_14213/fq_weights_1/mulpiply_by_scale" type="Multiply" version="opset1">
			<data auto_broadcast="numpy"/>
			<input>
				<port id="0">
					<dim>144</dim>
					<dim>24</dim>
					<dim>1</dim>
					<dim>1</dim>
				</port>
				<port id="1">
					<dim>144</dim>
					<dim>1</dim>
					<dim>1</dim>
					<dim>1</dim>
				</port>
			</input>
			<output>
				<port id="2" precision="FP32">
					<dim>144</dim>
					<dim>24</dim>
					<dim>1</dim>
					<dim>1</dim>
				</port>
			</output>
		</layer>
		<layer id="303" name="Multiply_14213" type="Convolution" version="opset1">
			<data auto_pad="explicit" strides="1,1" dilations="1,1" pads_begin="0,0" pads_end="0,0"/>
			<input>
				<port id="0">
					<dim>1</dim>
					<dim>24</dim>
					<dim>64</dim>
					<dim>64</dim>
				</port>
				<port id="1">
					<dim>144</dim>
					<dim>24</dim>
					<dim>1</dim>
					<dim>1</dim>
				</port>
			</input>
			<output>
				<port id="2" precision="FP32">
					<dim>1</dim>
					<dim>144</dim>
					<dim>64</dim>
					<dim>64</dim>
				</port>
			</output>
		</layer>
		<layer id="304" name="Constant_1421857216218" type="Const" version="opset1">
			<data offset="42734" size="288" shape="1,144,1,1" element_type="f16"/>
			<output>
				<port id="0" precision="FP16">
					<dim>1</dim>
					<dim>144</dim>
					<dim>1</dim>
					<dim>1</dim>
				</port>
			</output>
		</layer>
		<layer id="305" name="Constant_1421857210952/restored_convert" type="Convert" version="opset1">
			<data destination_type="f32"/>
			<rt_info>
				<attribute name="decompression" version="0"/>
			</rt_info>
			<input>
				<port id="0">
					<dim>1</dim>
					<dim>144</dim>
					<dim>1</dim>
					<dim>1</dim>
				</port>
			</input>
			<output>
				<port id="1" precision="FP32">
					<dim>1</dim>
					<dim>144</dim>
					<dim>1</dim>
					<dim>1</dim>
				</port>
			</output>
		</layer>
		<layer id="306" name="BatchNormalization_29" type="Add" version="opset1">
			<data auto_broadcast="numpy"/>
			<input>
				<port id="0">
					<dim>1</dim>
					<dim>144</dim>
					<dim>64</dim>
					<dim>64</dim>
				</port>
				<port id="1">
					<dim>1</dim>
					<dim>144</dim>
					<dim>1</dim>
					<dim>1</dim>
				</port>
			</input>
			<output>
				<port id="2" precision="FP32" names="379">
					<dim>1</dim>
					<dim>144</dim>
					<dim>64</dim>
					<dim>64</dim>
				</port>
			</output>
		</layer>
		<layer id="307" name="Clip_30" type="Clamp" version="opset1">
			<data max="6" min="0"/>
			<input>
				<port id="0">
					<dim>1</dim>
					<dim>144</dim>
					<dim>64</dim>
					<dim>64</dim>
				</port>
			</input>
			<output>
				<port id="1" precision="FP32" names="380">
					<dim>1</dim>
					<dim>144</dim>
					<dim>64</dim>
					<dim>64</dim>
				</port>
			</output>
		</layer>
		<layer id="308" name="Multiply_14220/fq_input_0" type="FakeQuantize" version="opset1">
			<data levels="256" auto_broadcast="numpy"/>
			<input>
				<port id="0">
					<dim>1</dim>
					<dim>144</dim>
					<dim>64</dim>
					<dim>64</dim>
				</port>
				<port id="1">
					<dim>1</dim>
					<dim>144</dim>
					<dim>1</dim>
					<dim>1</dim>
				</port>
				<port id="2">
					<dim>1</dim>
					<dim>144</dim>
					<dim>1</dim>
					<dim>1</dim>
				</port>
				<port id="3">
					<dim>1</dim>
					<dim>144</dim>
					<dim>1</dim>
					<dim>1</dim>
				</port>
				<port id="4">
					<dim>1</dim>
					<dim>144</dim>
					<dim>1</dim>
					<dim>1</dim>
				</port>
			</input>
			<output>
				<port id="5" precision="FP32">
					<dim>1</dim>
					<dim>144</dim>
					<dim>64</dim>
					<dim>64</dim>
				</port>
			</output>
		</layer>
		<layer id="309" name="Multiply_14220/fq_weights_1/scale1212317643" type="Const" version="opset1">
			<data offset="43022" size="576" shape="144,1,1,1" element_type="f32"/>
			<output>
				<port id="0" precision="FP32">
					<dim>144</dim>
					<dim>1</dim>
					<dim>1</dim>
					<dim>1</dim>
				</port>
			</output>
		</layer>
		<layer id="310" name="Multiply_1465057610953/restored_convert/quantized1211517607" type="Const" version="opset1">
			<data offset="43598" size="1296" shape="144,1,3,3" element_type="i8"/>
			<output>
				<port id="0" precision="I8">
					<dim>144</dim>
					<dim>1</dim>
					<dim>3</dim>
					<dim>3</dim>
				</port>
			</output>
		</layer>
		<layer id="311" name="Multiply_1465057610953/restored_convert/quantized/to_f32" type="Convert" version="opset1">
			<data destination_type="f32"/>
			<input>
				<port id="0">
					<dim>144</dim>
					<dim>1</dim>
					<dim>3</dim>
					<dim>3</dim>
				</port>
			</input>
			<output>
				<port id="1" precision="FP32">
					<dim>144</dim>
					<dim>1</dim>
					<dim>3</dim>
					<dim>3</dim>
				</port>
			</output>
		</layer>
		<layer id="312" name="Multiply_14220/fq_weights_1/mulpiply_by_scale" type="Multiply" version="opset1">
			<data auto_broadcast="numpy"/>
			<input>
				<port id="0">
					<dim>144</dim>
					<dim>1</dim>
					<dim>3</dim>
					<dim>3</dim>
				</port>
				<port id="1">
					<dim>144</dim>
					<dim>1</dim>
					<dim>1</dim>
					<dim>1</dim>
				</port>
			</input>
			<output>
				<port id="2" precision="FP32">
					<dim>144</dim>
					<dim>1</dim>
					<dim>3</dim>
					<dim>3</dim>
				</port>
			</output>
		</layer>
		<layer id="313" name="Multiply_14220/GOI_weights_part1484717232" type="Const" version="opset1">
			<data offset="34790" size="24" shape="3" element_type="i64"/>
			<output>
				<port id="0" precision="I64">
					<dim>3</dim>
				</port>
			</output>
		</layer>
		<layer id="314" name="Multiply_14220/WeightsShape" type="ShapeOf" version="opset3">
			<data output_type="i64"/>
			<input>
				<port id="0">
					<dim>144</dim>
					<dim>1</dim>
					<dim>3</dim>
					<dim>3</dim>
				</port>
			</input>
			<output>
				<port id="1" precision="I64">
					<dim>4</dim>
				</port>
			</output>
		</layer>
		<layer id="315" name="Multiply_14220/XY_weights_part_input_port_1/value1484317508" type="Const" version="opset1">
			<data offset="20278" size="16" shape="2" element_type="i64"/>
			<output>
				<port id="0" precision="I64">
					<dim>2</dim>
				</port>
			</output>
		</layer>
		<layer id="316" name="Multiply_14220/XY_weights_part_input_port_2/value1484517604" type="Const" version="opset1">
			<data offset="20294" size="8" shape="" element_type="i64"/>
			<output>
				<port id="0" precision="I64"/>
			</output>
		</layer>
		<layer id="317" name="Multiply_14220/XY_weights_part" type="Gather" version="opset8">
			<data batch_dims="0"/>
			<input>
				<port id="0">
					<dim>4</dim>
				</port>
				<port id="1">
					<dim>2</dim>
				</port>
				<port id="2"/>
			</input>
			<output>
				<port id="3" precision="I64">
					<dim>2</dim>
				</port>
			</output>
		</layer>
		<layer id="318" name="Multiply_14220/weights_shape" type="Concat" version="opset1">
			<data axis="0"/>
			<input>
				<port id="0">
					<dim>3</dim>
				</port>
				<port id="1">
					<dim>2</dim>
				</port>
			</input>
			<output>
				<port id="2" precision="I64">
					<dim>5</dim>
				</port>
			</output>
		</layer>
		<layer id="319" name="14849" type="Reshape" version="opset1">
			<data special_zero="true"/>
			<input>
				<port id="0">
					<dim>144</dim>
					<dim>1</dim>
					<dim>3</dim>
					<dim>3</dim>
				</port>
				<port id="1">
					<dim>5</dim>
				</port>
			</input>
			<output>
				<port id="2" precision="FP32">
					<dim>144</dim>
					<dim>1</dim>
					<dim>1</dim>
					<dim>3</dim>
					<dim>3</dim>
				</port>
			</output>
		</layer>
		<layer id="320" name="Multiply_14220" type="GroupConvolution" version="opset1">
			<data auto_pad="explicit" strides="2,2" dilations="1,1" pads_begin="1,1" pads_end="1,1"/>
			<input>
				<port id="0">
					<dim>1</dim>
					<dim>144</dim>
					<dim>64</dim>
					<dim>64</dim>
				</port>
				<port id="1">
					<dim>144</dim>
					<dim>1</dim>
					<dim>1</dim>
					<dim>3</dim>
					<dim>3</dim>
				</port>
			</input>
			<output>
				<port id="2" precision="FP32" names="381">
					<dim>1</dim>
					<dim>144</dim>
					<dim>32</dim>
					<dim>32</dim>
				</port>
			</output>
		</layer>
		<layer id="321" name="Constant_1422557916422" type="Const" version="opset1">
			<data offset="44894" size="288" shape="1,144,1,1" element_type="f16"/>
			<output>
				<port id="0" precision="FP16">
					<dim>1</dim>
					<dim>144</dim>
					<dim>1</dim>
					<dim>1</dim>
				</port>
			</output>
		</layer>
		<layer id="322" name="Constant_1422557910954/restored_convert" type="Convert" version="opset1">
			<data destination_type="f32"/>
			<rt_info>
				<attribute name="decompression" version="0"/>
			</rt_info>
			<input>
				<port id="0">
					<dim>1</dim>
					<dim>144</dim>
					<dim>1</dim>
					<dim>1</dim>
				</port>
			</input>
			<output>
				<port id="1" precision="FP32">
					<dim>1</dim>
					<dim>144</dim>
					<dim>1</dim>
					<dim>1</dim>
				</port>
			</output>
		</layer>
		<layer id="323" name="BatchNormalization_32" type="Add" version="opset1">
			<data auto_broadcast="numpy"/>
			<input>
				<port id="0">
					<dim>1</dim>
					<dim>144</dim>
					<dim>32</dim>
					<dim>32</dim>
				</port>
				<port id="1">
					<dim>1</dim>
					<dim>144</dim>
					<dim>1</dim>
					<dim>1</dim>
				</port>
			</input>
			<output>
				<port id="2" precision="FP32" names="382">
					<dim>1</dim>
					<dim>144</dim>
					<dim>32</dim>
					<dim>32</dim>
				</port>
			</output>
		</layer>
		<layer id="324" name="Clip_33" type="Clamp" version="opset1">
			<data max="6" min="0"/>
			<input>
				<port id="0">
					<dim>1</dim>
					<dim>144</dim>
					<dim>32</dim>
					<dim>32</dim>
				</port>
			</input>
			<output>
				<port id="1" precision="FP32" names="383">
					<dim>1</dim>
					<dim>144</dim>
					<dim>32</dim>
					<dim>32</dim>
				</port>
			</output>
		</layer>
		<layer id="325" name="Multiply_14227/fq_input_0" type="FakeQuantize" version="opset1">
			<data levels="256" auto_broadcast="numpy"/>
			<input>
				<port id="0">
					<dim>1</dim>
					<dim>144</dim>
					<dim>32</dim>
					<dim>32</dim>
				</port>
				<port id="1"/>
				<port id="2"/>
				<port id="3"/>
				<port id="4"/>
			</input>
			<output>
				<port id="5" precision="FP32">
					<dim>1</dim>
					<dim>144</dim>
					<dim>32</dim>
					<dim>32</dim>
				</port>
			</output>
		</layer>
		<layer id="326" name="Multiply_14227/fq_weights_1/scale1272316620" type="Const" version="opset1">
			<data offset="45182" size="128" shape="32,1,1,1" element_type="f32"/>
			<output>
				<port id="0" precision="FP32">
					<dim>32</dim>
					<dim>1</dim>
					<dim>1</dim>
					<dim>1</dim>
				</port>
			</output>
		</layer>
		<layer id="327" name="Multiply_1465858310955/restored_convert/quantized1271517220" type="Const" version="opset1">
			<data offset="45310" size="4608" shape="32,144,1,1" element_type="i8"/>
			<output>
				<port id="0" precision="I8">
					<dim>32</dim>
					<dim>144</dim>
					<dim>1</dim>
					<dim>1</dim>
				</port>
			</output>
		</layer>
		<layer id="328" name="Multiply_1465858310955/restored_convert/quantized/to_f32" type="Convert" version="opset1">
			<data destination_type="f32"/>
			<input>
				<port id="0">
					<dim>32</dim>
					<dim>144</dim>
					<dim>1</dim>
					<dim>1</dim>
				</port>
			</input>
			<output>
				<port id="1" precision="FP32">
					<dim>32</dim>
					<dim>144</dim>
					<dim>1</dim>
					<dim>1</dim>
				</port>
			</output>
		</layer>
		<layer id="329" name="Multiply_14227/fq_weights_1/mulpiply_by_scale" type="Multiply" version="opset1">
			<data auto_broadcast="numpy"/>
			<input>
				<port id="0">
					<dim>32</dim>
					<dim>144</dim>
					<dim>1</dim>
					<dim>1</dim>
				</port>
				<port id="1">
					<dim>32</dim>
					<dim>1</dim>
					<dim>1</dim>
					<dim>1</dim>
				</port>
			</input>
			<output>
				<port id="2" precision="FP32">
					<dim>32</dim>
					<dim>144</dim>
					<dim>1</dim>
					<dim>1</dim>
				</port>
			</output>
		</layer>
		<layer id="330" name="Multiply_14227" type="Convolution" version="opset1">
			<data auto_pad="explicit" strides="1,1" dilations="1,1" pads_begin="0,0" pads_end="0,0"/>
			<input>
				<port id="0">
					<dim>1</dim>
					<dim>144</dim>
					<dim>32</dim>
					<dim>32</dim>
				</port>
				<port id="1">
					<dim>32</dim>
					<dim>144</dim>
					<dim>1</dim>
					<dim>1</dim>
				</port>
			</input>
			<output>
				<port id="2" precision="FP32">
					<dim>1</dim>
					<dim>32</dim>
					<dim>32</dim>
					<dim>32</dim>
				</port>
			</output>
		</layer>
		<layer id="331" name="Constant_1423258616353" type="Const" version="opset1">
			<data offset="49918" size="64" shape="1,32,1,1" element_type="f16"/>
			<output>
				<port id="0" precision="FP16">
					<dim>1</dim>
					<dim>32</dim>
					<dim>1</dim>
					<dim>1</dim>
				</port>
			</output>
		</layer>
		<layer id="332" name="Constant_1423258610956/restored_convert" type="Convert" version="opset1">
			<data destination_type="f32"/>
			<rt_info>
				<attribute name="decompression" version="0"/>
			</rt_info>
			<input>
				<port id="0">
					<dim>1</dim>
					<dim>32</dim>
					<dim>1</dim>
					<dim>1</dim>
				</port>
			</input>
			<output>
				<port id="1" precision="FP32">
					<dim>1</dim>
					<dim>32</dim>
					<dim>1</dim>
					<dim>1</dim>
				</port>
			</output>
		</layer>
		<layer id="333" name="BatchNormalization_35" type="Add" version="opset1">
			<data auto_broadcast="numpy"/>
			<input>
				<port id="0">
					<dim>1</dim>
					<dim>32</dim>
					<dim>32</dim>
					<dim>32</dim>
				</port>
				<port id="1">
					<dim>1</dim>
					<dim>32</dim>
					<dim>1</dim>
					<dim>1</dim>
				</port>
			</input>
			<output>
				<port id="2" precision="FP32" names="385">
					<dim>1</dim>
					<dim>32</dim>
					<dim>32</dim>
					<dim>32</dim>
				</port>
			</output>
		</layer>
		<layer id="334" name="Add_44/fq_input_1" type="FakeQuantize" version="opset1">
			<data levels="256" auto_broadcast="numpy"/>
			<input>
				<port id="0">
					<dim>1</dim>
					<dim>32</dim>
					<dim>32</dim>
					<dim>32</dim>
				</port>
				<port id="1"/>
				<port id="2"/>
				<port id="3"/>
				<port id="4"/>
			</input>
			<output>
				<port id="5" precision="FP32">
					<dim>1</dim>
					<dim>32</dim>
					<dim>32</dim>
					<dim>32</dim>
				</port>
			</output>
		</layer>
		<layer id="335" name="Multiply_14234/fq_weights_1/scale1233316455" type="Const" version="opset1">
			<data offset="49982" size="768" shape="192,1,1,1" element_type="f32"/>
			<output>
				<port id="0" precision="FP32">
					<dim>192</dim>
					<dim>1</dim>
					<dim>1</dim>
					<dim>1</dim>
				</port>
			</output>
		</layer>
		<layer id="336" name="Multiply_1466758910957/restored_convert/quantized1232516794" type="Const" version="opset1">
			<data offset="50750" size="6144" shape="192,32,1,1" element_type="i8"/>
			<output>
				<port id="0" precision="I8">
					<dim>192</dim>
					<dim>32</dim>
					<dim>1</dim>
					<dim>1</dim>
				</port>
			</output>
		</layer>
		<layer id="337" name="Multiply_1466758910957/restored_convert/quantized/to_f32" type="Convert" version="opset1">
			<data destination_type="f32"/>
			<input>
				<port id="0">
					<dim>192</dim>
					<dim>32</dim>
					<dim>1</dim>
					<dim>1</dim>
				</port>
			</input>
			<output>
				<port id="1" precision="FP32">
					<dim>192</dim>
					<dim>32</dim>
					<dim>1</dim>
					<dim>1</dim>
				</port>
			</output>
		</layer>
		<layer id="338" name="Multiply_14234/fq_weights_1/mulpiply_by_scale" type="Multiply" version="opset1">
			<data auto_broadcast="numpy"/>
			<input>
				<port id="0">
					<dim>192</dim>
					<dim>32</dim>
					<dim>1</dim>
					<dim>1</dim>
				</port>
				<port id="1">
					<dim>192</dim>
					<dim>1</dim>
					<dim>1</dim>
					<dim>1</dim>
				</port>
			</input>
			<output>
				<port id="2" precision="FP32">
					<dim>192</dim>
					<dim>32</dim>
					<dim>1</dim>
					<dim>1</dim>
				</port>
			</output>
		</layer>
		<layer id="339" name="Multiply_14234" type="Convolution" version="opset1">
			<data auto_pad="explicit" strides="1,1" dilations="1,1" pads_begin="0,0" pads_end="0,0"/>
			<input>
				<port id="0">
					<dim>1</dim>
					<dim>32</dim>
					<dim>32</dim>
					<dim>32</dim>
				</port>
				<port id="1">
					<dim>192</dim>
					<dim>32</dim>
					<dim>1</dim>
					<dim>1</dim>
				</port>
			</input>
			<output>
				<port id="2" precision="FP32">
					<dim>1</dim>
					<dim>192</dim>
					<dim>32</dim>
					<dim>32</dim>
				</port>
			</output>
		</layer>
		<layer id="340" name="Constant_1423959217355" type="Const" version="opset1">
			<data offset="56894" size="384" shape="1,192,1,1" element_type="f16"/>
			<output>
				<port id="0" precision="FP16">
					<dim>1</dim>
					<dim>192</dim>
					<dim>1</dim>
					<dim>1</dim>
				</port>
			</output>
		</layer>
		<layer id="341" name="Constant_1423959210958/restored_convert" type="Convert" version="opset1">
			<data destination_type="f32"/>
			<rt_info>
				<attribute name="decompression" version="0"/>
			</rt_info>
			<input>
				<port id="0">
					<dim>1</dim>
					<dim>192</dim>
					<dim>1</dim>
					<dim>1</dim>
				</port>
			</input>
			<output>
				<port id="1" precision="FP32">
					<dim>1</dim>
					<dim>192</dim>
					<dim>1</dim>
					<dim>1</dim>
				</port>
			</output>
		</layer>
		<layer id="342" name="BatchNormalization_37" type="Add" version="opset1">
			<data auto_broadcast="numpy"/>
			<input>
				<port id="0">
					<dim>1</dim>
					<dim>192</dim>
					<dim>32</dim>
					<dim>32</dim>
				</port>
				<port id="1">
					<dim>1</dim>
					<dim>192</dim>
					<dim>1</dim>
					<dim>1</dim>
				</port>
			</input>
			<output>
				<port id="2" precision="FP32" names="387">
					<dim>1</dim>
					<dim>192</dim>
					<dim>32</dim>
					<dim>32</dim>
				</port>
			</output>
		</layer>
		<layer id="343" name="Clip_38" type="Clamp" version="opset1">
			<data max="6" min="0"/>
			<input>
				<port id="0">
					<dim>1</dim>
					<dim>192</dim>
					<dim>32</dim>
					<dim>32</dim>
				</port>
			</input>
			<output>
				<port id="1" precision="FP32" names="388">
					<dim>1</dim>
					<dim>192</dim>
					<dim>32</dim>
					<dim>32</dim>
				</port>
			</output>
		</layer>
		<layer id="344" name="Multiply_14241/fq_input_0" type="FakeQuantize" version="opset1">
			<data levels="256" auto_broadcast="numpy"/>
			<input>
				<port id="0">
					<dim>1</dim>
					<dim>192</dim>
					<dim>32</dim>
					<dim>32</dim>
				</port>
				<port id="1">
					<dim>1</dim>
					<dim>192</dim>
					<dim>1</dim>
					<dim>1</dim>
				</port>
				<port id="2">
					<dim>1</dim>
					<dim>192</dim>
					<dim>1</dim>
					<dim>1</dim>
				</port>
				<port id="3">
					<dim>1</dim>
					<dim>192</dim>
					<dim>1</dim>
					<dim>1</dim>
				</port>
				<port id="4">
					<dim>1</dim>
					<dim>192</dim>
					<dim>1</dim>
					<dim>1</dim>
				</port>
			</input>
			<output>
				<port id="5" precision="FP32">
					<dim>1</dim>
					<dim>192</dim>
					<dim>32</dim>
					<dim>32</dim>
				</port>
			</output>
		</layer>
		<layer id="345" name="Multiply_14241/fq_weights_1/scale1320316917" type="Const" version="opset1">
			<data offset="57278" size="768" shape="192,1,1,1" element_type="f32"/>
			<output>
				<port id="0" precision="FP32">
					<dim>192</dim>
					<dim>1</dim>
					<dim>1</dim>
					<dim>1</dim>
				</port>
			</output>
		</layer>
		<layer id="346" name="Multiply_1467659610959/restored_convert/quantized1319517457" type="Const" version="opset1">
			<data offset="58046" size="1728" shape="192,1,3,3" element_type="i8"/>
			<output>
				<port id="0" precision="I8">
					<dim>192</dim>
					<dim>1</dim>
					<dim>3</dim>
					<dim>3</dim>
				</port>
			</output>
		</layer>
		<layer id="347" name="Multiply_1467659610959/restored_convert/quantized/to_f32" type="Convert" version="opset1">
			<data destination_type="f32"/>
			<input>
				<port id="0">
					<dim>192</dim>
					<dim>1</dim>
					<dim>3</dim>
					<dim>3</dim>
				</port>
			</input>
			<output>
				<port id="1" precision="FP32">
					<dim>192</dim>
					<dim>1</dim>
					<dim>3</dim>
					<dim>3</dim>
				</port>
			</output>
		</layer>
		<layer id="348" name="Multiply_14241/fq_weights_1/mulpiply_by_scale" type="Multiply" version="opset1">
			<data auto_broadcast="numpy"/>
			<input>
				<port id="0">
					<dim>192</dim>
					<dim>1</dim>
					<dim>3</dim>
					<dim>3</dim>
				</port>
				<port id="1">
					<dim>192</dim>
					<dim>1</dim>
					<dim>1</dim>
					<dim>1</dim>
				</port>
			</input>
			<output>
				<port id="2" precision="FP32">
					<dim>192</dim>
					<dim>1</dim>
					<dim>3</dim>
					<dim>3</dim>
				</port>
			</output>
		</layer>
		<layer id="349" name="Multiply_14241/GOI_weights_part1486116545" type="Const" version="opset1">
			<data offset="59774" size="24" shape="3" element_type="i64"/>
			<output>
				<port id="0" precision="I64">
					<dim>3</dim>
				</port>
			</output>
		</layer>
		<layer id="350" name="Multiply_14241/WeightsShape" type="ShapeOf" version="opset3">
			<data output_type="i64"/>
			<input>
				<port id="0">
					<dim>192</dim>
					<dim>1</dim>
					<dim>3</dim>
					<dim>3</dim>
				</port>
			</input>
			<output>
				<port id="1" precision="I64">
					<dim>4</dim>
				</port>
			</output>
		</layer>
		<layer id="351" name="Multiply_14241/XY_weights_part_input_port_1/value1485716350" type="Const" version="opset1">
			<data offset="20278" size="16" shape="2" element_type="i64"/>
			<output>
				<port id="0" precision="I64">
					<dim>2</dim>
				</port>
			</output>
		</layer>
		<layer id="352" name="Multiply_14241/XY_weights_part_input_port_2/value1485917349" type="Const" version="opset1">
			<data offset="20294" size="8" shape="" element_type="i64"/>
			<output>
				<port id="0" precision="I64"/>
			</output>
		</layer>
		<layer id="353" name="Multiply_14241/XY_weights_part" type="Gather" version="opset8">
			<data batch_dims="0"/>
			<input>
				<port id="0">
					<dim>4</dim>
				</port>
				<port id="1">
					<dim>2</dim>
				</port>
				<port id="2"/>
			</input>
			<output>
				<port id="3" precision="I64">
					<dim>2</dim>
				</port>
			</output>
		</layer>
		<layer id="354" name="Multiply_14241/weights_shape" type="Concat" version="opset1">
			<data axis="0"/>
			<input>
				<port id="0">
					<dim>3</dim>
				</port>
				<port id="1">
					<dim>2</dim>
				</port>
			</input>
			<output>
				<port id="2" precision="I64">
					<dim>5</dim>
				</port>
			</output>
		</layer>
		<layer id="355" name="14863" type="Reshape" version="opset1">
			<data special_zero="true"/>
			<input>
				<port id="0">
					<dim>192</dim>
					<dim>1</dim>
					<dim>3</dim>
					<dim>3</dim>
				</port>
				<port id="1">
					<dim>5</dim>
				</port>
			</input>
			<output>
				<port id="2" precision="FP32">
					<dim>192</dim>
					<dim>1</dim>
					<dim>1</dim>
					<dim>3</dim>
					<dim>3</dim>
				</port>
			</output>
		</layer>
		<layer id="356" name="Multiply_14241" type="GroupConvolution" version="opset1">
			<data auto_pad="explicit" strides="1,1" dilations="1,1" pads_begin="1,1" pads_end="1,1"/>
			<input>
				<port id="0">
					<dim>1</dim>
					<dim>192</dim>
					<dim>32</dim>
					<dim>32</dim>
				</port>
				<port id="1">
					<dim>192</dim>
					<dim>1</dim>
					<dim>1</dim>
					<dim>3</dim>
					<dim>3</dim>
				</port>
			</input>
			<output>
				<port id="2" precision="FP32" names="389">
					<dim>1</dim>
					<dim>192</dim>
					<dim>32</dim>
					<dim>32</dim>
				</port>
			</output>
		</layer>
		<layer id="357" name="Constant_1424659916392" type="Const" version="opset1">
			<data offset="59798" size="384" shape="1,192,1,1" element_type="f16"/>
			<output>
				<port id="0" precision="FP16">
					<dim>1</dim>
					<dim>192</dim>
					<dim>1</dim>
					<dim>1</dim>
				</port>
			</output>
		</layer>
		<layer id="358" name="Constant_1424659910960/restored_convert" type="Convert" version="opset1">
			<data destination_type="f32"/>
			<rt_info>
				<attribute name="decompression" version="0"/>
			</rt_info>
			<input>
				<port id="0">
					<dim>1</dim>
					<dim>192</dim>
					<dim>1</dim>
					<dim>1</dim>
				</port>
			</input>
			<output>
				<port id="1" precision="FP32">
					<dim>1</dim>
					<dim>192</dim>
					<dim>1</dim>
					<dim>1</dim>
				</port>
			</output>
		</layer>
		<layer id="359" name="BatchNormalization_40" type="Add" version="opset1">
			<data auto_broadcast="numpy"/>
			<input>
				<port id="0">
					<dim>1</dim>
					<dim>192</dim>
					<dim>32</dim>
					<dim>32</dim>
				</port>
				<port id="1">
					<dim>1</dim>
					<dim>192</dim>
					<dim>1</dim>
					<dim>1</dim>
				</port>
			</input>
			<output>
				<port id="2" precision="FP32" names="390">
					<dim>1</dim>
					<dim>192</dim>
					<dim>32</dim>
					<dim>32</dim>
				</port>
			</output>
		</layer>
		<layer id="360" name="Clip_41" type="Clamp" version="opset1">
			<data max="6" min="0"/>
			<input>
				<port id="0">
					<dim>1</dim>
					<dim>192</dim>
					<dim>32</dim>
					<dim>32</dim>
				</port>
			</input>
			<output>
				<port id="1" precision="FP32" names="391">
					<dim>1</dim>
					<dim>192</dim>
					<dim>32</dim>
					<dim>32</dim>
				</port>
			</output>
		</layer>
		<layer id="361" name="Multiply_14248/fq_input_0" type="FakeQuantize" version="opset1">
			<data levels="256" auto_broadcast="numpy"/>
			<input>
				<port id="0">
					<dim>1</dim>
					<dim>192</dim>
					<dim>32</dim>
					<dim>32</dim>
				</port>
				<port id="1"/>
				<port id="2"/>
				<port id="3"/>
				<port id="4"/>
			</input>
			<output>
				<port id="5" precision="FP32">
					<dim>1</dim>
					<dim>192</dim>
					<dim>32</dim>
					<dim>32</dim>
				</port>
			</output>
		</layer>
		<layer id="362" name="Multiply_14248/fq_weights_1/scale1269317523" type="Const" version="opset1">
			<data offset="60182" size="128" shape="32,1,1,1" element_type="f32"/>
			<output>
				<port id="0" precision="FP32">
					<dim>32</dim>
					<dim>1</dim>
					<dim>1</dim>
					<dim>1</dim>
				</port>
			</output>
		</layer>
		<layer id="363" name="Multiply_1468460310961/restored_convert/quantized1268516347" type="Const" version="opset1">
			<data offset="60310" size="6144" shape="32,192,1,1" element_type="i8"/>
			<output>
				<port id="0" precision="I8">
					<dim>32</dim>
					<dim>192</dim>
					<dim>1</dim>
					<dim>1</dim>
				</port>
			</output>
		</layer>
		<layer id="364" name="Multiply_1468460310961/restored_convert/quantized/to_f32" type="Convert" version="opset1">
			<data destination_type="f32"/>
			<input>
				<port id="0">
					<dim>32</dim>
					<dim>192</dim>
					<dim>1</dim>
					<dim>1</dim>
				</port>
			</input>
			<output>
				<port id="1" precision="FP32">
					<dim>32</dim>
					<dim>192</dim>
					<dim>1</dim>
					<dim>1</dim>
				</port>
			</output>
		</layer>
		<layer id="365" name="Multiply_14248/fq_weights_1/mulpiply_by_scale" type="Multiply" version="opset1">
			<data auto_broadcast="numpy"/>
			<input>
				<port id="0">
					<dim>32</dim>
					<dim>192</dim>
					<dim>1</dim>
					<dim>1</dim>
				</port>
				<port id="1">
					<dim>32</dim>
					<dim>1</dim>
					<dim>1</dim>
					<dim>1</dim>
				</port>
			</input>
			<output>
				<port id="2" precision="FP32">
					<dim>32</dim>
					<dim>192</dim>
					<dim>1</dim>
					<dim>1</dim>
				</port>
			</output>
		</layer>
		<layer id="366" name="Multiply_14248" type="Convolution" version="opset1">
			<data auto_pad="explicit" strides="1,1" dilations="1,1" pads_begin="0,0" pads_end="0,0"/>
			<input>
				<port id="0">
					<dim>1</dim>
					<dim>192</dim>
					<dim>32</dim>
					<dim>32</dim>
				</port>
				<port id="1">
					<dim>32</dim>
					<dim>192</dim>
					<dim>1</dim>
					<dim>1</dim>
				</port>
			</input>
			<output>
				<port id="2" precision="FP32">
					<dim>1</dim>
					<dim>32</dim>
					<dim>32</dim>
					<dim>32</dim>
				</port>
			</output>
		</layer>
		<layer id="367" name="Constant_1425360617535" type="Const" version="opset1">
			<data offset="66454" size="64" shape="1,32,1,1" element_type="f16"/>
			<output>
				<port id="0" precision="FP16">
					<dim>1</dim>
					<dim>32</dim>
					<dim>1</dim>
					<dim>1</dim>
				</port>
			</output>
		</layer>
		<layer id="368" name="Constant_1425360610962/restored_convert" type="Convert" version="opset1">
			<data destination_type="f32"/>
			<rt_info>
				<attribute name="decompression" version="0"/>
			</rt_info>
			<input>
				<port id="0">
					<dim>1</dim>
					<dim>32</dim>
					<dim>1</dim>
					<dim>1</dim>
				</port>
			</input>
			<output>
				<port id="1" precision="FP32">
					<dim>1</dim>
					<dim>32</dim>
					<dim>1</dim>
					<dim>1</dim>
				</port>
			</output>
		</layer>
		<layer id="369" name="BatchNormalization_43" type="Add" version="opset1">
			<data auto_broadcast="numpy"/>
			<input>
				<port id="0">
					<dim>1</dim>
					<dim>32</dim>
					<dim>32</dim>
					<dim>32</dim>
				</port>
				<port id="1">
					<dim>1</dim>
					<dim>32</dim>
					<dim>1</dim>
					<dim>1</dim>
				</port>
			</input>
			<output>
				<port id="2" precision="FP32" names="393">
					<dim>1</dim>
					<dim>32</dim>
					<dim>32</dim>
					<dim>32</dim>
				</port>
			</output>
		</layer>
		<layer id="370" name="Add_44/fq_input_0" type="FakeQuantize" version="opset1">
			<data levels="256" auto_broadcast="numpy"/>
			<input>
				<port id="0">
					<dim>1</dim>
					<dim>32</dim>
					<dim>32</dim>
					<dim>32</dim>
				</port>
				<port id="1"/>
				<port id="2"/>
				<port id="3"/>
				<port id="4"/>
			</input>
			<output>
				<port id="5" precision="FP32">
					<dim>1</dim>
					<dim>32</dim>
					<dim>32</dim>
					<dim>32</dim>
				</port>
			</output>
		</layer>
		<layer id="371" name="Add_44" type="Add" version="opset1">
			<data auto_broadcast="numpy"/>
			<input>
				<port id="0">
					<dim>1</dim>
					<dim>32</dim>
					<dim>32</dim>
					<dim>32</dim>
				</port>
				<port id="1">
					<dim>1</dim>
					<dim>32</dim>
					<dim>32</dim>
					<dim>32</dim>
				</port>
			</input>
			<output>
				<port id="2" precision="FP32" names="394">
					<dim>1</dim>
					<dim>32</dim>
					<dim>32</dim>
					<dim>32</dim>
				</port>
			</output>
		</layer>
		<layer id="372" name="Add_53/fq_input_1" type="FakeQuantize" version="opset1">
			<data levels="256" auto_broadcast="numpy"/>
			<input>
				<port id="0">
					<dim>1</dim>
					<dim>32</dim>
					<dim>32</dim>
					<dim>32</dim>
				</port>
				<port id="1"/>
				<port id="2"/>
				<port id="3"/>
				<port id="4"/>
			</input>
			<output>
				<port id="5" precision="FP32">
					<dim>1</dim>
					<dim>32</dim>
					<dim>32</dim>
					<dim>32</dim>
				</port>
			</output>
		</layer>
		<layer id="373" name="Multiply_14255/fq_weights_1/scale1263317199" type="Const" version="opset1">
			<data offset="66518" size="768" shape="192,1,1,1" element_type="f32"/>
			<output>
				<port id="0" precision="FP32">
					<dim>192</dim>
					<dim>1</dim>
					<dim>1</dim>
					<dim>1</dim>
				</port>
			</output>
		</layer>
		<layer id="374" name="Multiply_1469361010963/restored_convert/quantized1262517100" type="Const" version="opset1">
			<data offset="67286" size="6144" shape="192,32,1,1" element_type="i8"/>
			<output>
				<port id="0" precision="I8">
					<dim>192</dim>
					<dim>32</dim>
					<dim>1</dim>
					<dim>1</dim>
				</port>
			</output>
		</layer>
		<layer id="375" name="Multiply_1469361010963/restored_convert/quantized/to_f32" type="Convert" version="opset1">
			<data destination_type="f32"/>
			<input>
				<port id="0">
					<dim>192</dim>
					<dim>32</dim>
					<dim>1</dim>
					<dim>1</dim>
				</port>
			</input>
			<output>
				<port id="1" precision="FP32">
					<dim>192</dim>
					<dim>32</dim>
					<dim>1</dim>
					<dim>1</dim>
				</port>
			</output>
		</layer>
		<layer id="376" name="Multiply_14255/fq_weights_1/mulpiply_by_scale" type="Multiply" version="opset1">
			<data auto_broadcast="numpy"/>
			<input>
				<port id="0">
					<dim>192</dim>
					<dim>32</dim>
					<dim>1</dim>
					<dim>1</dim>
				</port>
				<port id="1">
					<dim>192</dim>
					<dim>1</dim>
					<dim>1</dim>
					<dim>1</dim>
				</port>
			</input>
			<output>
				<port id="2" precision="FP32">
					<dim>192</dim>
					<dim>32</dim>
					<dim>1</dim>
					<dim>1</dim>
				</port>
			</output>
		</layer>
		<layer id="377" name="Multiply_14255" type="Convolution" version="opset1">
			<data auto_pad="explicit" strides="1,1" dilations="1,1" pads_begin="0,0" pads_end="0,0"/>
			<input>
				<port id="0">
					<dim>1</dim>
					<dim>32</dim>
					<dim>32</dim>
					<dim>32</dim>
				</port>
				<port id="1">
					<dim>192</dim>
					<dim>32</dim>
					<dim>1</dim>
					<dim>1</dim>
				</port>
			</input>
			<output>
				<port id="2" precision="FP32">
					<dim>1</dim>
					<dim>192</dim>
					<dim>32</dim>
					<dim>32</dim>
				</port>
			</output>
		</layer>
		<layer id="378" name="Constant_1426061316905" type="Const" version="opset1">
			<data offset="73430" size="384" shape="1,192,1,1" element_type="f16"/>
			<output>
				<port id="0" precision="FP16">
					<dim>1</dim>
					<dim>192</dim>
					<dim>1</dim>
					<dim>1</dim>
				</port>
			</output>
		</layer>
		<layer id="379" name="Constant_1426061310964/restored_convert" type="Convert" version="opset1">
			<data destination_type="f32"/>
			<rt_info>
				<attribute name="decompression" version="0"/>
			</rt_info>
			<input>
				<port id="0">
					<dim>1</dim>
					<dim>192</dim>
					<dim>1</dim>
					<dim>1</dim>
				</port>
			</input>
			<output>
				<port id="1" precision="FP32">
					<dim>1</dim>
					<dim>192</dim>
					<dim>1</dim>
					<dim>1</dim>
				</port>
			</output>
		</layer>
		<layer id="380" name="BatchNormalization_46" type="Add" version="opset1">
			<data auto_broadcast="numpy"/>
			<input>
				<port id="0">
					<dim>1</dim>
					<dim>192</dim>
					<dim>32</dim>
					<dim>32</dim>
				</port>
				<port id="1">
					<dim>1</dim>
					<dim>192</dim>
					<dim>1</dim>
					<dim>1</dim>
				</port>
			</input>
			<output>
				<port id="2" precision="FP32" names="396">
					<dim>1</dim>
					<dim>192</dim>
					<dim>32</dim>
					<dim>32</dim>
				</port>
			</output>
		</layer>
		<layer id="381" name="Clip_47" type="Clamp" version="opset1">
			<data max="6" min="0"/>
			<input>
				<port id="0">
					<dim>1</dim>
					<dim>192</dim>
					<dim>32</dim>
					<dim>32</dim>
				</port>
			</input>
			<output>
				<port id="1" precision="FP32" names="397">
					<dim>1</dim>
					<dim>192</dim>
					<dim>32</dim>
					<dim>32</dim>
				</port>
			</output>
		</layer>
		<layer id="382" name="Multiply_14262/fq_input_0" type="FakeQuantize" version="opset1">
			<data levels="256" auto_broadcast="numpy"/>
			<input>
				<port id="0">
					<dim>1</dim>
					<dim>192</dim>
					<dim>32</dim>
					<dim>32</dim>
				</port>
				<port id="1">
					<dim>1</dim>
					<dim>192</dim>
					<dim>1</dim>
					<dim>1</dim>
				</port>
				<port id="2">
					<dim>1</dim>
					<dim>192</dim>
					<dim>1</dim>
					<dim>1</dim>
				</port>
				<port id="3">
					<dim>1</dim>
					<dim>192</dim>
					<dim>1</dim>
					<dim>1</dim>
				</port>
				<port id="4">
					<dim>1</dim>
					<dim>192</dim>
					<dim>1</dim>
					<dim>1</dim>
				</port>
			</input>
			<output>
				<port id="5" precision="FP32">
					<dim>1</dim>
					<dim>192</dim>
					<dim>32</dim>
					<dim>32</dim>
				</port>
			</output>
		</layer>
		<layer id="383" name="Multiply_14262/fq_weights_1/scale1191317181" type="Const" version="opset1">
			<data offset="73814" size="768" shape="192,1,1,1" element_type="f32"/>
			<output>
				<port id="0" precision="FP32">
					<dim>192</dim>
					<dim>1</dim>
					<dim>1</dim>
					<dim>1</dim>
				</port>
			</output>
		</layer>
		<layer id="384" name="Multiply_1470261710965/restored_convert/quantized1190517205" type="Const" version="opset1">
			<data offset="74582" size="1728" shape="192,1,3,3" element_type="i8"/>
			<output>
				<port id="0" precision="I8">
					<dim>192</dim>
					<dim>1</dim>
					<dim>3</dim>
					<dim>3</dim>
				</port>
			</output>
		</layer>
		<layer id="385" name="Multiply_1470261710965/restored_convert/quantized/to_f32" type="Convert" version="opset1">
			<data destination_type="f32"/>
			<input>
				<port id="0">
					<dim>192</dim>
					<dim>1</dim>
					<dim>3</dim>
					<dim>3</dim>
				</port>
			</input>
			<output>
				<port id="1" precision="FP32">
					<dim>192</dim>
					<dim>1</dim>
					<dim>3</dim>
					<dim>3</dim>
				</port>
			</output>
		</layer>
		<layer id="386" name="Multiply_14262/fq_weights_1/mulpiply_by_scale" type="Multiply" version="opset1">
			<data auto_broadcast="numpy"/>
			<input>
				<port id="0">
					<dim>192</dim>
					<dim>1</dim>
					<dim>3</dim>
					<dim>3</dim>
				</port>
				<port id="1">
					<dim>192</dim>
					<dim>1</dim>
					<dim>1</dim>
					<dim>1</dim>
				</port>
			</input>
			<output>
				<port id="2" precision="FP32">
					<dim>192</dim>
					<dim>1</dim>
					<dim>3</dim>
					<dim>3</dim>
				</port>
			</output>
		</layer>
		<layer id="387" name="Multiply_14262/GOI_weights_part1487517208" type="Const" version="opset1">
			<data offset="59774" size="24" shape="3" element_type="i64"/>
			<output>
				<port id="0" precision="I64">
					<dim>3</dim>
				</port>
			</output>
		</layer>
		<layer id="388" name="Multiply_14262/WeightsShape" type="ShapeOf" version="opset3">
			<data output_type="i64"/>
			<input>
				<port id="0">
					<dim>192</dim>
					<dim>1</dim>
					<dim>3</dim>
					<dim>3</dim>
				</port>
			</input>
			<output>
				<port id="1" precision="I64">
					<dim>4</dim>
				</port>
			</output>
		</layer>
		<layer id="389" name="Multiply_14262/XY_weights_part_input_port_1/value1487116995" type="Const" version="opset1">
			<data offset="20278" size="16" shape="2" element_type="i64"/>
			<output>
				<port id="0" precision="I64">
					<dim>2</dim>
				</port>
			</output>
		</layer>
		<layer id="390" name="Multiply_14262/XY_weights_part_input_port_2/value1487317346" type="Const" version="opset1">
			<data offset="20294" size="8" shape="" element_type="i64"/>
			<output>
				<port id="0" precision="I64"/>
			</output>
		</layer>
		<layer id="391" name="Multiply_14262/XY_weights_part" type="Gather" version="opset8">
			<data batch_dims="0"/>
			<input>
				<port id="0">
					<dim>4</dim>
				</port>
				<port id="1">
					<dim>2</dim>
				</port>
				<port id="2"/>
			</input>
			<output>
				<port id="3" precision="I64">
					<dim>2</dim>
				</port>
			</output>
		</layer>
		<layer id="392" name="Multiply_14262/weights_shape" type="Concat" version="opset1">
			<data axis="0"/>
			<input>
				<port id="0">
					<dim>3</dim>
				</port>
				<port id="1">
					<dim>2</dim>
				</port>
			</input>
			<output>
				<port id="2" precision="I64">
					<dim>5</dim>
				</port>
			</output>
		</layer>
		<layer id="393" name="14877" type="Reshape" version="opset1">
			<data special_zero="true"/>
			<input>
				<port id="0">
					<dim>192</dim>
					<dim>1</dim>
					<dim>3</dim>
					<dim>3</dim>
				</port>
				<port id="1">
					<dim>5</dim>
				</port>
			</input>
			<output>
				<port id="2" precision="FP32">
					<dim>192</dim>
					<dim>1</dim>
					<dim>1</dim>
					<dim>3</dim>
					<dim>3</dim>
				</port>
			</output>
		</layer>
		<layer id="394" name="Multiply_14262" type="GroupConvolution" version="opset1">
			<data auto_pad="explicit" strides="1,1" dilations="1,1" pads_begin="1,1" pads_end="1,1"/>
			<input>
				<port id="0">
					<dim>1</dim>
					<dim>192</dim>
					<dim>32</dim>
					<dim>32</dim>
				</port>
				<port id="1">
					<dim>192</dim>
					<dim>1</dim>
					<dim>1</dim>
					<dim>3</dim>
					<dim>3</dim>
				</port>
			</input>
			<output>
				<port id="2" precision="FP32" names="398">
					<dim>1</dim>
					<dim>192</dim>
					<dim>32</dim>
					<dim>32</dim>
				</port>
			</output>
		</layer>
		<layer id="395" name="Constant_1426762016146" type="Const" version="opset1">
			<data offset="76310" size="384" shape="1,192,1,1" element_type="f16"/>
			<output>
				<port id="0" precision="FP16">
					<dim>1</dim>
					<dim>192</dim>
					<dim>1</dim>
					<dim>1</dim>
				</port>
			</output>
		</layer>
		<layer id="396" name="Constant_1426762010966/restored_convert" type="Convert" version="opset1">
			<data destination_type="f32"/>
			<rt_info>
				<attribute name="decompression" version="0"/>
			</rt_info>
			<input>
				<port id="0">
					<dim>1</dim>
					<dim>192</dim>
					<dim>1</dim>
					<dim>1</dim>
				</port>
			</input>
			<output>
				<port id="1" precision="FP32">
					<dim>1</dim>
					<dim>192</dim>
					<dim>1</dim>
					<dim>1</dim>
				</port>
			</output>
		</layer>
		<layer id="397" name="BatchNormalization_49" type="Add" version="opset1">
			<data auto_broadcast="numpy"/>
			<input>
				<port id="0">
					<dim>1</dim>
					<dim>192</dim>
					<dim>32</dim>
					<dim>32</dim>
				</port>
				<port id="1">
					<dim>1</dim>
					<dim>192</dim>
					<dim>1</dim>
					<dim>1</dim>
				</port>
			</input>
			<output>
				<port id="2" precision="FP32" names="399">
					<dim>1</dim>
					<dim>192</dim>
					<dim>32</dim>
					<dim>32</dim>
				</port>
			</output>
		</layer>
		<layer id="398" name="Clip_50" type="Clamp" version="opset1">
			<data max="6" min="0"/>
			<input>
				<port id="0">
					<dim>1</dim>
					<dim>192</dim>
					<dim>32</dim>
					<dim>32</dim>
				</port>
			</input>
			<output>
				<port id="1" precision="FP32" names="400">
					<dim>1</dim>
					<dim>192</dim>
					<dim>32</dim>
					<dim>32</dim>
				</port>
			</output>
		</layer>
		<layer id="399" name="Multiply_14269/fq_input_0" type="FakeQuantize" version="opset1">
			<data levels="256" auto_broadcast="numpy"/>
			<input>
				<port id="0">
					<dim>1</dim>
					<dim>192</dim>
					<dim>32</dim>
					<dim>32</dim>
				</port>
				<port id="1"/>
				<port id="2"/>
				<port id="3"/>
				<port id="4"/>
			</input>
			<output>
				<port id="5" precision="FP32">
					<dim>1</dim>
					<dim>192</dim>
					<dim>32</dim>
					<dim>32</dim>
				</port>
			</output>
		</layer>
		<layer id="400" name="Multiply_14269/fq_weights_1/scale1302317502" type="Const" version="opset1">
			<data offset="76694" size="128" shape="32,1,1,1" element_type="f32"/>
			<output>
				<port id="0" precision="FP32">
					<dim>32</dim>
					<dim>1</dim>
					<dim>1</dim>
					<dim>1</dim>
				</port>
			</output>
		</layer>
		<layer id="401" name="Multiply_1471062410967/restored_convert/quantized1301517076" type="Const" version="opset1">
			<data offset="76822" size="6144" shape="32,192,1,1" element_type="i8"/>
			<output>
				<port id="0" precision="I8">
					<dim>32</dim>
					<dim>192</dim>
					<dim>1</dim>
					<dim>1</dim>
				</port>
			</output>
		</layer>
		<layer id="402" name="Multiply_1471062410967/restored_convert/quantized/to_f32" type="Convert" version="opset1">
			<data destination_type="f32"/>
			<input>
				<port id="0">
					<dim>32</dim>
					<dim>192</dim>
					<dim>1</dim>
					<dim>1</dim>
				</port>
			</input>
			<output>
				<port id="1" precision="FP32">
					<dim>32</dim>
					<dim>192</dim>
					<dim>1</dim>
					<dim>1</dim>
				</port>
			</output>
		</layer>
		<layer id="403" name="Multiply_14269/fq_weights_1/mulpiply_by_scale" type="Multiply" version="opset1">
			<data auto_broadcast="numpy"/>
			<input>
				<port id="0">
					<dim>32</dim>
					<dim>192</dim>
					<dim>1</dim>
					<dim>1</dim>
				</port>
				<port id="1">
					<dim>32</dim>
					<dim>1</dim>
					<dim>1</dim>
					<dim>1</dim>
				</port>
			</input>
			<output>
				<port id="2" precision="FP32">
					<dim>32</dim>
					<dim>192</dim>
					<dim>1</dim>
					<dim>1</dim>
				</port>
			</output>
		</layer>
		<layer id="404" name="Multiply_14269" type="Convolution" version="opset1">
			<data auto_pad="explicit" strides="1,1" dilations="1,1" pads_begin="0,0" pads_end="0,0"/>
			<input>
				<port id="0">
					<dim>1</dim>
					<dim>192</dim>
					<dim>32</dim>
					<dim>32</dim>
				</port>
				<port id="1">
					<dim>32</dim>
					<dim>192</dim>
					<dim>1</dim>
					<dim>1</dim>
				</port>
			</input>
			<output>
				<port id="2" precision="FP32">
					<dim>1</dim>
					<dim>32</dim>
					<dim>32</dim>
					<dim>32</dim>
				</port>
			</output>
		</layer>
		<layer id="405" name="Constant_1427462716986" type="Const" version="opset1">
			<data offset="82966" size="64" shape="1,32,1,1" element_type="f16"/>
			<output>
				<port id="0" precision="FP16">
					<dim>1</dim>
					<dim>32</dim>
					<dim>1</dim>
					<dim>1</dim>
				</port>
			</output>
		</layer>
		<layer id="406" name="Constant_1427462710968/restored_convert" type="Convert" version="opset1">
			<data destination_type="f32"/>
			<rt_info>
				<attribute name="decompression" version="0"/>
			</rt_info>
			<input>
				<port id="0">
					<dim>1</dim>
					<dim>32</dim>
					<dim>1</dim>
					<dim>1</dim>
				</port>
			</input>
			<output>
				<port id="1" precision="FP32">
					<dim>1</dim>
					<dim>32</dim>
					<dim>1</dim>
					<dim>1</dim>
				</port>
			</output>
		</layer>
		<layer id="407" name="BatchNormalization_52" type="Add" version="opset1">
			<data auto_broadcast="numpy"/>
			<input>
				<port id="0">
					<dim>1</dim>
					<dim>32</dim>
					<dim>32</dim>
					<dim>32</dim>
				</port>
				<port id="1">
					<dim>1</dim>
					<dim>32</dim>
					<dim>1</dim>
					<dim>1</dim>
				</port>
			</input>
			<output>
				<port id="2" precision="FP32" names="402">
					<dim>1</dim>
					<dim>32</dim>
					<dim>32</dim>
					<dim>32</dim>
				</port>
			</output>
		</layer>
		<layer id="408" name="Add_53/fq_input_0" type="FakeQuantize" version="opset1">
			<data levels="256" auto_broadcast="numpy"/>
			<input>
				<port id="0">
					<dim>1</dim>
					<dim>32</dim>
					<dim>32</dim>
					<dim>32</dim>
				</port>
				<port id="1"/>
				<port id="2"/>
				<port id="3"/>
				<port id="4"/>
			</input>
			<output>
				<port id="5" precision="FP32">
					<dim>1</dim>
					<dim>32</dim>
					<dim>32</dim>
					<dim>32</dim>
				</port>
			</output>
		</layer>
		<layer id="409" name="Add_53" type="Add" version="opset1">
			<data auto_broadcast="numpy"/>
			<input>
				<port id="0">
					<dim>1</dim>
					<dim>32</dim>
					<dim>32</dim>
					<dim>32</dim>
				</port>
				<port id="1">
					<dim>1</dim>
					<dim>32</dim>
					<dim>32</dim>
					<dim>32</dim>
				</port>
			</input>
			<output>
				<port id="2" precision="FP32" names="403">
					<dim>1</dim>
					<dim>32</dim>
					<dim>32</dim>
					<dim>32</dim>
				</port>
			</output>
		</layer>
		<layer id="410" name="Multiply_14276/fq_input_0" type="FakeQuantize" version="opset1">
			<data levels="256" auto_broadcast="numpy"/>
			<input>
				<port id="0">
					<dim>1</dim>
					<dim>32</dim>
					<dim>32</dim>
					<dim>32</dim>
				</port>
				<port id="1"/>
				<port id="2"/>
				<port id="3"/>
				<port id="4"/>
			</input>
			<output>
				<port id="5" precision="FP32">
					<dim>1</dim>
					<dim>32</dim>
					<dim>32</dim>
					<dim>32</dim>
				</port>
			</output>
		</layer>
		<layer id="411" name="Multiply_14276/fq_weights_1/scale1242316767" type="Const" version="opset1">
			<data offset="83030" size="768" shape="192,1,1,1" element_type="f32"/>
			<output>
				<port id="0" precision="FP32">
					<dim>192</dim>
					<dim>1</dim>
					<dim>1</dim>
					<dim>1</dim>
				</port>
			</output>
		</layer>
		<layer id="412" name="Multiply_1471963110969/restored_convert/quantized1241517298" type="Const" version="opset1">
			<data offset="83798" size="6144" shape="192,32,1,1" element_type="i8"/>
			<output>
				<port id="0" precision="I8">
					<dim>192</dim>
					<dim>32</dim>
					<dim>1</dim>
					<dim>1</dim>
				</port>
			</output>
		</layer>
		<layer id="413" name="Multiply_1471963110969/restored_convert/quantized/to_f32" type="Convert" version="opset1">
			<data destination_type="f32"/>
			<input>
				<port id="0">
					<dim>192</dim>
					<dim>32</dim>
					<dim>1</dim>
					<dim>1</dim>
				</port>
			</input>
			<output>
				<port id="1" precision="FP32">
					<dim>192</dim>
					<dim>32</dim>
					<dim>1</dim>
					<dim>1</dim>
				</port>
			</output>
		</layer>
		<layer id="414" name="Multiply_14276/fq_weights_1/mulpiply_by_scale" type="Multiply" version="opset1">
			<data auto_broadcast="numpy"/>
			<input>
				<port id="0">
					<dim>192</dim>
					<dim>32</dim>
					<dim>1</dim>
					<dim>1</dim>
				</port>
				<port id="1">
					<dim>192</dim>
					<dim>1</dim>
					<dim>1</dim>
					<dim>1</dim>
				</port>
			</input>
			<output>
				<port id="2" precision="FP32">
					<dim>192</dim>
					<dim>32</dim>
					<dim>1</dim>
					<dim>1</dim>
				</port>
			</output>
		</layer>
		<layer id="415" name="Multiply_14276" type="Convolution" version="opset1">
			<data auto_pad="explicit" strides="1,1" dilations="1,1" pads_begin="0,0" pads_end="0,0"/>
			<input>
				<port id="0">
					<dim>1</dim>
					<dim>32</dim>
					<dim>32</dim>
					<dim>32</dim>
				</port>
				<port id="1">
					<dim>192</dim>
					<dim>32</dim>
					<dim>1</dim>
					<dim>1</dim>
				</port>
			</input>
			<output>
				<port id="2" precision="FP32">
					<dim>1</dim>
					<dim>192</dim>
					<dim>32</dim>
					<dim>32</dim>
				</port>
			</output>
		</layer>
		<layer id="416" name="Constant_1428163417439" type="Const" version="opset1">
			<data offset="89942" size="384" shape="1,192,1,1" element_type="f16"/>
			<output>
				<port id="0" precision="FP16">
					<dim>1</dim>
					<dim>192</dim>
					<dim>1</dim>
					<dim>1</dim>
				</port>
			</output>
		</layer>
		<layer id="417" name="Constant_1428163410970/restored_convert" type="Convert" version="opset1">
			<data destination_type="f32"/>
			<rt_info>
				<attribute name="decompression" version="0"/>
			</rt_info>
			<input>
				<port id="0">
					<dim>1</dim>
					<dim>192</dim>
					<dim>1</dim>
					<dim>1</dim>
				</port>
			</input>
			<output>
				<port id="1" precision="FP32">
					<dim>1</dim>
					<dim>192</dim>
					<dim>1</dim>
					<dim>1</dim>
				</port>
			</output>
		</layer>
		<layer id="418" name="BatchNormalization_55" type="Add" version="opset1">
			<data auto_broadcast="numpy"/>
			<input>
				<port id="0">
					<dim>1</dim>
					<dim>192</dim>
					<dim>32</dim>
					<dim>32</dim>
				</port>
				<port id="1">
					<dim>1</dim>
					<dim>192</dim>
					<dim>1</dim>
					<dim>1</dim>
				</port>
			</input>
			<output>
				<port id="2" precision="FP32" names="405">
					<dim>1</dim>
					<dim>192</dim>
					<dim>32</dim>
					<dim>32</dim>
				</port>
			</output>
		</layer>
		<layer id="419" name="Clip_56" type="Clamp" version="opset1">
			<data max="6" min="0"/>
			<input>
				<port id="0">
					<dim>1</dim>
					<dim>192</dim>
					<dim>32</dim>
					<dim>32</dim>
				</port>
			</input>
			<output>
				<port id="1" precision="FP32" names="406">
					<dim>1</dim>
					<dim>192</dim>
					<dim>32</dim>
					<dim>32</dim>
				</port>
			</output>
		</layer>
		<layer id="420" name="Multiply_14283/fq_weights_12681" type="Const" version="opset1">
			<data offset="90326" size="3456" shape="192,1,3,3" element_type="f16"/>
			<output>
				<port id="0" precision="FP16">
					<dim>192</dim>
					<dim>1</dim>
					<dim>3</dim>
					<dim>3</dim>
				</port>
			</output>
		</layer>
		<layer id="421" name="Multiply_14283/fq_weights_12681/restored_convert" type="Convert" version="opset1">
			<data destination_type="f32"/>
			<rt_info>
				<attribute name="decompression" version="0"/>
			</rt_info>
			<input>
				<port id="0">
					<dim>192</dim>
					<dim>1</dim>
					<dim>3</dim>
					<dim>3</dim>
				</port>
			</input>
			<output>
				<port id="1" precision="FP32">
					<dim>192</dim>
					<dim>1</dim>
					<dim>3</dim>
					<dim>3</dim>
				</port>
			</output>
		</layer>
		<layer id="422" name="Multiply_14283/GOI_weights_part1488917469" type="Const" version="opset1">
			<data offset="59774" size="24" shape="3" element_type="i64"/>
			<output>
				<port id="0" precision="I64">
					<dim>3</dim>
				</port>
			</output>
		</layer>
		<layer id="423" name="Multiply_14283/WeightsShape" type="ShapeOf" version="opset3">
			<data output_type="i64"/>
			<input>
				<port id="0">
					<dim>192</dim>
					<dim>1</dim>
					<dim>3</dim>
					<dim>3</dim>
				</port>
			</input>
			<output>
				<port id="1" precision="I64">
					<dim>4</dim>
				</port>
			</output>
		</layer>
		<layer id="424" name="Multiply_14283/XY_weights_part_input_port_1/value1488517394" type="Const" version="opset1">
			<data offset="20278" size="16" shape="2" element_type="i64"/>
			<output>
				<port id="0" precision="I64">
					<dim>2</dim>
				</port>
			</output>
		</layer>
		<layer id="425" name="Multiply_14283/XY_weights_part_input_port_2/value1488717067" type="Const" version="opset1">
			<data offset="20294" size="8" shape="" element_type="i64"/>
			<output>
				<port id="0" precision="I64"/>
			</output>
		</layer>
		<layer id="426" name="Multiply_14283/XY_weights_part" type="Gather" version="opset8">
			<data batch_dims="0"/>
			<input>
				<port id="0">
					<dim>4</dim>
				</port>
				<port id="1">
					<dim>2</dim>
				</port>
				<port id="2"/>
			</input>
			<output>
				<port id="3" precision="I64">
					<dim>2</dim>
				</port>
			</output>
		</layer>
		<layer id="427" name="Multiply_14283/weights_shape" type="Concat" version="opset1">
			<data axis="0"/>
			<input>
				<port id="0">
					<dim>3</dim>
				</port>
				<port id="1">
					<dim>2</dim>
				</port>
			</input>
			<output>
				<port id="2" precision="I64">
					<dim>5</dim>
				</port>
			</output>
		</layer>
		<layer id="428" name="14891" type="Reshape" version="opset1">
			<data special_zero="true"/>
			<input>
				<port id="0">
					<dim>192</dim>
					<dim>1</dim>
					<dim>3</dim>
					<dim>3</dim>
				</port>
				<port id="1">
					<dim>5</dim>
				</port>
			</input>
			<output>
				<port id="2" precision="FP32">
					<dim>192</dim>
					<dim>1</dim>
					<dim>1</dim>
					<dim>3</dim>
					<dim>3</dim>
				</port>
			</output>
		</layer>
		<layer id="429" name="Multiply_14283" type="GroupConvolution" version="opset1">
			<data auto_pad="explicit" strides="2,2" dilations="1,1" pads_begin="1,1" pads_end="1,1"/>
			<input>
				<port id="0">
					<dim>1</dim>
					<dim>192</dim>
					<dim>32</dim>
					<dim>32</dim>
				</port>
				<port id="1">
					<dim>192</dim>
					<dim>1</dim>
					<dim>1</dim>
					<dim>3</dim>
					<dim>3</dim>
				</port>
			</input>
			<output>
				<port id="2" precision="FP32" names="407">
					<dim>1</dim>
					<dim>192</dim>
					<dim>16</dim>
					<dim>16</dim>
				</port>
			</output>
		</layer>
		<layer id="430" name="Constant_1428864117514" type="Const" version="opset1">
			<data offset="93782" size="384" shape="1,192,1,1" element_type="f16"/>
			<output>
				<port id="0" precision="FP16">
					<dim>1</dim>
					<dim>192</dim>
					<dim>1</dim>
					<dim>1</dim>
				</port>
			</output>
		</layer>
		<layer id="431" name="Constant_1428864110972/restored_convert" type="Convert" version="opset1">
			<data destination_type="f32"/>
			<rt_info>
				<attribute name="decompression" version="0"/>
			</rt_info>
			<input>
				<port id="0">
					<dim>1</dim>
					<dim>192</dim>
					<dim>1</dim>
					<dim>1</dim>
				</port>
			</input>
			<output>
				<port id="1" precision="FP32">
					<dim>1</dim>
					<dim>192</dim>
					<dim>1</dim>
					<dim>1</dim>
				</port>
			</output>
		</layer>
		<layer id="432" name="BatchNormalization_58" type="Add" version="opset1">
			<data auto_broadcast="numpy"/>
			<input>
				<port id="0">
					<dim>1</dim>
					<dim>192</dim>
					<dim>16</dim>
					<dim>16</dim>
				</port>
				<port id="1">
					<dim>1</dim>
					<dim>192</dim>
					<dim>1</dim>
					<dim>1</dim>
				</port>
			</input>
			<output>
				<port id="2" precision="FP32" names="408">
					<dim>1</dim>
					<dim>192</dim>
					<dim>16</dim>
					<dim>16</dim>
				</port>
			</output>
		</layer>
		<layer id="433" name="Clip_59" type="Clamp" version="opset1">
			<data max="6" min="0"/>
			<input>
				<port id="0">
					<dim>1</dim>
					<dim>192</dim>
					<dim>16</dim>
					<dim>16</dim>
				</port>
			</input>
			<output>
				<port id="1" precision="FP32" names="409">
					<dim>1</dim>
					<dim>192</dim>
					<dim>16</dim>
					<dim>16</dim>
				</port>
			</output>
		</layer>
…
		<edge from-layer="72" from-port="0" to-layer="481" to-port="1"/>
		<edge from-layer="73" from-port="0" to-layer="481" to-port="2"/>
		<edge from-layer="74" from-port="0" to-layer="481" to-port="3"/>
		<edge from-layer="75" from-port="0" to-layer="481" to-port="4"/>
		<edge from-layer="483" from-port="0" to-layer="484" to-port="0"/>
		<edge from-layer="484" from-port="1" to-layer="485" to-port="0"/>
		<edge from-layer="482" from-port="0" to-layer="485" to-port="1"/>
		<edge from-layer="481" from-port="5" to-layer="486" to-port="0"/>
		<edge from-layer="485" from-port="2" to-layer="486" to-port="1"/>
		<edge from-layer="487" from-port="0" to-layer="488" to-port="0"/>
		<edge from-layer="486" from-port="2" to-layer="489" to-port="0"/>
		<edge from-layer="488" from-port="1" to-layer="489" to-port="1"/>
		<edge from-layer="489" from-port="2" to-layer="490" to-port="0"/>
		<edge from-layer="490" from-port="1" to-layer="491" to-port="0"/>
		<edge from-layer="68" from-port="0" to-layer="491" to-port="1"/>
		<edge from-layer="69" from-port="0" to-layer="491" to-port="2"/>
		<edge from-layer="70" from-port="0" to-layer="491" to-port="3"/>
		<edge from-layer="71" from-port="0" to-layer="491" to-port="4"/>
		<edge from-layer="493" from-port="0" to-layer="494" to-port="0"/>
		<edge from-layer="494" from-port="1" to-layer="495" to-port="0"/>
		<edge from-layer="492" from-port="0" to-layer="495" to-port="1"/>
		<edge from-layer="495" from-port="2" to-layer="497" to-port="0"/>
		<edge from-layer="497" from-port="1" to-layer="500" to-port="0"/>
		<edge from-layer="498" from-port="0" to-layer="500" to-port="1"/>
		<edge from-layer="499" from-port="0" to-layer="500" to-port="2"/>
		<edge from-layer="496" from-port="0" to-layer="501" to-port="0"/>
		<edge from-layer="500" from-port="3" to-layer="501" to-port="1"/>
		<edge from-layer="495" from-port="2" to-layer="502" to-port="0"/>
		<edge from-layer="501" from-port="2" to-layer="502" to-port="1"/>
		<edge from-layer="491" from-port="5" to-layer="503" to-port="0"/>
		<edge from-layer="502" from-port="2" to-layer="503" to-port="1"/>
		<edge from-layer="504" from-port="0" to-layer="505" to-port="0"/>
		<edge from-layer="503" from-port="2" to-layer="506" to-port="0"/>
		<edge from-layer="505" from-port="1" to-layer="506" to-port="1"/>
		<edge from-layer="506" from-port="2" to-layer="507" to-port="0"/>
		<edge from-layer="507" from-port="1" to-layer="508" to-port="0"/>
		<edge from-layer="64" from-port="0" to-layer="508" to-port="1"/>
		<edge from-layer="65" from-port="0" to-layer="508" to-port="2"/>
		<edge from-layer="66" from-port="0" to-layer="508" to-port="3"/>
		<edge from-layer="67" from-port="0" to-layer="508" to-port="4"/>
		<edge from-layer="510" from-port="0" to-layer="511" to-port="0"/>
		<edge from-layer="511" from-port="1" to-layer="512" to-port="0"/>
		<edge from-layer="509" from-port="0" to-layer="512" to-port="1"/>
		<edge from-layer="508" from-port="5" to-layer="513" to-port="0"/>
		<edge from-layer="512" from-port="2" to-layer="513" to-port="1"/>
		<edge from-layer="514" from-port="0" to-layer="515" to-port="0"/>
		<edge from-layer="513" from-port="2" to-layer="516" to-port="0"/>
		<edge from-layer="515" from-port="1" to-layer="516" to-port="1"/>
		<edge from-layer="516" from-port="2" to-layer="517" to-port="0"/>
		<edge from-layer="60" from-port="0" to-layer="517" to-port="1"/>
		<edge from-layer="61" from-port="0" to-layer="517" to-port="2"/>
		<edge from-layer="62" from-port="0" to-layer="517" to-port="3"/>
		<edge from-layer="63" from-port="0" to-layer="517" to-port="4"/>
		<edge from-layer="517" from-port="5" to-layer="518" to-port="0"/>
		<edge from-layer="481" from-port="5" to-layer="518" to-port="1"/>
		<edge from-layer="518" from-port="2" to-layer="519" to-port="0"/>
		<edge from-layer="56" from-port="0" to-layer="519" to-port="1"/>
		<edge from-layer="57" from-port="0" to-layer="519" to-port="2"/>
		<edge from-layer="58" from-port="0" to-layer="519" to-port="3"/>
		<edge from-layer="59" from-port="0" to-layer="519" to-port="4"/>
		<edge from-layer="521" from-port="0" to-layer="522" to-port="0"/>
		<edge from-layer="522" from-port="1" to-layer="523" to-port="0"/>
		<edge from-layer="520" from-port="0" to-layer="523" to-port="1"/>
		<edge from-layer="519" from-port="5" to-layer="524" to-port="0"/>
		<edge from-layer="523" from-port="2" to-layer="524" to-port="1"/>
		<edge from-layer="525" from-port="0" to-layer="526" to-port="0"/>
		<edge from-layer="524" from-port="2" to-layer="527" to-port="0"/>
		<edge from-layer="526" from-port="1" to-layer="527" to-port="1"/>
		<edge from-layer="527" from-port="2" to-layer="528" to-port="0"/>
		<edge from-layer="528" from-port="1" to-layer="529" to-port="0"/>
		<edge from-layer="52" from-port="0" to-layer="529" to-port="1"/>
		<edge from-layer="53" from-port="0" to-layer="529" to-port="2"/>
		<edge from-layer="54" from-port="0" to-layer="529" to-port="3"/>
		<edge from-layer="55" from-port="0" to-layer="529" to-port="4"/>
		<edge from-layer="531" from-port="0" to-layer="532" to-port="0"/>
		<edge from-layer="532" from-port="1" to-layer="533" to-port="0"/>
		<edge from-layer="530" from-port="0" to-layer="533" to-port="1"/>
		<edge from-layer="533" from-port="2" to-layer="535" to-port="0"/>
		<edge from-layer="535" from-port="1" to-layer="538" to-port="0"/>
		<edge from-layer="536" from-port="0" to-layer="538" to-port="1"/>
		<edge from-layer="537" from-port="0" to-layer="538" to-port="2"/>
		<edge from-layer="534" from-port="0" to-layer="539" to-port="0"/>
		<edge from-layer="538" from-port="3" to-layer="539" to-port="1"/>
		<edge from-layer="533" from-port="2" to-layer="540" to-port="0"/>
		<edge from-layer="539" from-port="2" to-layer="540" to-port="1"/>
		<edge from-layer="529" from-port="5" to-layer="541" to-port="0"/>
		<edge from-layer="540" from-port="2" to-layer="541" to-port="1"/>
		<edge from-layer="542" from-port="0" to-layer="543" to-port="0"/>
		<edge from-layer="541" from-port="2" to-layer="544" to-port="0"/>
		<edge from-layer="543" from-port="1" to-layer="544" to-port="1"/>
		<edge from-layer="544" from-port="2" to-layer="545" to-port="0"/>
		<edge from-layer="546" from-port="0" to-layer="547" to-port="0"/>
		<edge from-layer="545" from-port="1" to-layer="548" to-port="0"/>
		<edge from-layer="547" from-port="1" to-layer="548" to-port="1"/>
		<edge from-layer="549" from-port="0" to-layer="550" to-port="0"/>
		<edge from-layer="548" from-port="2" to-layer="551" to-port="0"/>
		<edge from-layer="550" from-port="1" to-layer="551" to-port="1"/>
		<edge from-layer="551" from-port="2" to-layer="552" to-port="0"/>
		<edge from-layer="48" from-port="0" to-layer="552" to-port="1"/>
		<edge from-layer="49" from-port="0" to-layer="552" to-port="2"/>
		<edge from-layer="50" from-port="0" to-layer="552" to-port="3"/>
		<edge from-layer="51" from-port="0" to-layer="552" to-port="4"/>
		<edge from-layer="552" from-port="5" to-layer="553" to-port="0"/>
		<edge from-layer="519" from-port="5" to-layer="553" to-port="1"/>
		<edge from-layer="553" from-port="2" to-layer="554" to-port="0"/>
		<edge from-layer="44" from-port="0" to-layer="554" to-port="1"/>
		<edge from-layer="45" from-port="0" to-layer="554" to-port="2"/>
		<edge from-layer="46" from-port="0" to-layer="554" to-port="3"/>
		<edge from-layer="47" from-port="0" to-layer="554" to-port="4"/>
		<edge from-layer="556" from-port="0" to-layer="557" to-port="0"/>
		<edge from-layer="557" from-port="1" to-layer="558" to-port="0"/>
		<edge from-layer="555" from-port="0" to-layer="558" to-port="1"/>
		<edge from-layer="554" from-port="5" to-layer="559" to-port="0"/>
		<edge from-layer="558" from-port="2" to-layer="559" to-port="1"/>
		<edge from-layer="560" from-port="0" to-layer="561" to-port="0"/>
		<edge from-layer="559" from-port="2" to-layer="562" to-port="0"/>
		<edge from-layer="561" from-port="1" to-layer="562" to-port="1"/>
		<edge from-layer="562" from-port="2" to-layer="563" to-port="0"/>
		<edge from-layer="563" from-port="1" to-layer="564" to-port="0"/>
		<edge from-layer="40" from-port="0" to-layer="564" to-port="1"/>
		<edge from-layer="41" from-port="0" to-layer="564" to-port="2"/>
		<edge from-layer="42" from-port="0" to-layer="564" to-port="3"/>
		<edge from-layer="43" from-port="0" to-layer="564" to-port="4"/>
		<edge from-layer="566" from-port="0" to-layer="567" to-port="0"/>
		<edge from-layer="567" from-port="1" to-layer="568" to-port="0"/>
		<edge from-layer="565" from-port="0" to-layer="568" to-port="1"/>
		<edge from-layer="568" from-port="2" to-layer="570" to-port="0"/>
		<edge from-layer="570" from-port="1" to-layer="573" to-port="0"/>
		<edge from-layer="571" from-port="0" to-layer="573" to-port="1"/>
		<edge from-layer="572" from-port="0" to-layer="573" to-port="2"/>
		<edge from-layer="569" from-port="0" to-layer="574" to-port="0"/>
		<edge from-layer="573" from-port="3" to-layer="574" to-port="1"/>
		<edge from-layer="568" from-port="2" to-layer="575" to-port="0"/>
		<edge from-layer="574" from-port="2" to-layer="575" to-port="1"/>
		<edge from-layer="564" from-port="5" to-layer="576" to-port="0"/>
		<edge from-layer="575" from-port="2" to-layer="576" to-port="1"/>
		<edge from-layer="577" from-port="0" to-layer="578" to-port="0"/>
		<edge from-layer="576" from-port="2" to-layer="579" to-port="0"/>
		<edge from-layer="578" from-port="1" to-layer="579" to-port="1"/>
		<edge from-layer="579" from-port="2" to-layer="580" to-port="0"/>
		<edge from-layer="580" from-port="1" to-layer="581" to-port="0"/>
		<edge from-layer="36" from-port="0" to-layer="581" to-port="1"/>
		<edge from-layer="37" from-port="0" to-layer="581" to-port="2"/>
		<edge from-layer="38" from-port="0" to-layer="581" to-port="3"/>
		<edge from-layer="39" from-port="0" to-layer="581" to-port="4"/>
		<edge from-layer="583" from-port="0" to-layer="584" to-port="0"/>
		<edge from-layer="584" from-port="1" to-layer="585" to-port="0"/>
		<edge from-layer="582" from-port="0" to-layer="585" to-port="1"/>
		<edge from-layer="581" from-port="5" to-layer="586" to-port="0"/>
		<edge from-layer="585" from-port="2" to-layer="586" to-port="1"/>
		<edge from-layer="587" from-port="0" to-layer="588" to-port="0"/>
		<edge from-layer="586" from-port="2" to-layer="589" to-port="0"/>
		<edge from-layer="588" from-port="1" to-layer="589" to-port="1"/>
		<edge from-layer="589" from-port="2" to-layer="590" to-port="0"/>
		<edge from-layer="32" from-port="0" to-layer="590" to-port="1"/>
		<edge from-layer="33" from-port="0" to-layer="590" to-port="2"/>
		<edge from-layer="34" from-port="0" to-layer="590" to-port="3"/>
		<edge from-layer="35" from-port="0" to-layer="590" to-port="4"/>
		<edge from-layer="592" from-port="0" to-layer="593" to-port="0"/>
		<edge from-layer="593" from-port="1" to-layer="594" to-port="0"/>
		<edge from-layer="591" from-port="0" to-layer="594" to-port="1"/>
		<edge from-layer="590" from-port="5" to-layer="595" to-port="0"/>
		<edge from-layer="594" from-port="2" to-layer="595" to-port="1"/>
		<edge from-layer="596" from-port="0" to-layer="597" to-port="0"/>
		<edge from-layer="595" from-port="2" to-layer="598" to-port="0"/>
		<edge from-layer="597" from-port="1" to-layer="598" to-port="1"/>
		<edge from-layer="598" from-port="2" to-layer="599" to-port="0"/>
		<edge from-layer="599" from-port="1" to-layer="600" to-port="0"/>
		<edge from-layer="28" from-port="0" to-layer="600" to-port="1"/>
		<edge from-layer="29" from-port="0" to-layer="600" to-port="2"/>
		<edge from-layer="30" from-port="0" to-layer="600" to-port="3"/>
		<edge from-layer="31" from-port="0" to-layer="600" to-port="4"/>
		<edge from-layer="602" from-port="0" to-layer="603" to-port="0"/>
		<edge from-layer="603" from-port="1" to-layer="604" to-port="0"/>
		<edge from-layer="601" from-port="0" to-layer="604" to-port="1"/>
		<edge from-layer="604" from-port="2" to-layer="606" to-port="0"/>
		<edge from-layer="606" from-port="1" to-layer="609" to-port="0"/>
		<edge from-layer="607" from-port="0" to-layer="609" to-port="1"/>
		<edge from-layer="608" from-port="0" to-layer="609" to-port="2"/>
		<edge from-layer="605" from-port="0" to-layer="610" to-port="0"/>
		<edge from-layer="609" from-port="3" to-layer="610" to-port="1"/>
		<edge from-layer="604" from-port="2" to-layer="611" to-port="0"/>
		<edge from-layer="610" from-port="2" to-layer="611" to-port="1"/>
		<edge from-layer="600" from-port="5" to-layer="612" to-port="0"/>
		<edge from-layer="611" from-port="2" to-layer="612" to-port="1"/>
		<edge from-layer="613" from-port="0" to-layer="614" to-port="0"/>
		<edge from-layer="612" from-port="2" to-layer="615" to-port="0"/>
		<edge from-layer="614" from-port="1" to-layer="615" to-port="1"/>
		<edge from-layer="615" from-port="2" to-layer="616" to-port="0"/>
		<edge from-layer="616" from-port="1" to-layer="617" to-port="0"/>
		<edge from-layer="24" from-port="0" to-layer="617" to-port="1"/>
		<edge from-layer="25" from-port="0" to-layer="617" to-port="2"/>
		<edge from-layer="26" from-port="0" to-layer="617" to-port="3"/>
		<edge from-layer="27" from-port="0" to-layer="617" to-port="4"/>
		<edge from-layer="619" from-port="0" to-layer="620" to-port="0"/>
		<edge from-layer="620" from-port="1" to-layer="621" to-port="0"/>
		<edge from-layer="618" from-port="0" to-layer="621" to-port="1"/>
		<edge from-layer="617" from-port="5" to-layer="622" to-port="0"/>
		<edge from-layer="621" from-port="2" to-layer="622" to-port="1"/>
		<edge from-layer="623" from-port="0" to-layer="624" to-port="0"/>
		<edge from-layer="622" from-port="2" to-layer="625" to-port="0"/>
		<edge from-layer="624" from-port="1" to-layer="625" to-port="1"/>
		<edge from-layer="625" from-port="2" to-layer="626" to-port="0"/>
		<edge from-layer="20" from-port="0" to-layer="626" to-port="1"/>
		<edge from-layer="21" from-port="0" to-layer="626" to-port="2"/>
		<edge from-layer="22" from-port="0" to-layer="626" to-port="3"/>
		<edge from-layer="23" from-port="0" to-layer="626" to-port="4"/>
		<edge from-layer="626" from-port="5" to-layer="627" to-port="0"/>
		<edge from-layer="590" from-port="5" to-layer="627" to-port="1"/>
		<edge from-layer="627" from-port="2" to-layer="628" to-port="0"/>
		<edge from-layer="16" from-port="0" to-layer="628" to-port="1"/>
		<edge from-layer="17" from-port="0" to-layer="628" to-port="2"/>
		<edge from-layer="18" from-port="0" to-layer="628" to-port="3"/>
		<edge from-layer="19" from-port="0" to-layer="628" to-port="4"/>
		<edge from-layer="630" from-port="0" to-layer="631" to-port="0"/>
		<edge from-layer="631" from-port="1" to-layer="632" to-port="0"/>
		<edge from-layer="629" from-port="0" to-layer="632" to-port="1"/>
		<edge from-layer="628" from-port="5" to-layer="633" to-port="0"/>
		<edge from-layer="632" from-port="2" to-layer="633" to-port="1"/>
		<edge from-layer="634" from-port="0" to-layer="635" to-port="0"/>
		<edge from-layer="633" from-port="2" to-layer="636" to-port="0"/>
		<edge from-layer="635" from-port="1" to-layer="636" to-port="1"/>
		<edge from-layer="636" from-port="2" to-layer="637" to-port="0"/>
		<edge from-layer="638" from-port="0" to-layer="639" to-port="0"/>
		<edge from-layer="639" from-port="1" to-layer="641" to-port="0"/>
		<edge from-layer="641" from-port="1" to-layer="644" to-port="0"/>
		<edge from-layer="642" from-port="0" to-layer="644" to-port="1"/>
		<edge from-layer="643" from-port="0" to-layer="644" to-port="2"/>
		<edge from-layer="640" from-port="0" to-layer="645" to-port="0"/>
		<edge from-layer="644" from-port="3" to-layer="645" to-port="1"/>
		<edge from-layer="639" from-port="1" to-layer="646" to-port="0"/>
		<edge from-layer="645" from-port="2" to-layer="646" to-port="1"/>
		<edge from-layer="637" from-port="1" to-layer="647" to-port="0"/>
		<edge from-layer="646" from-port="2" to-layer="647" to-port="1"/>
		<edge from-layer="648" from-port="0" to-layer="649" to-port="0"/>
		<edge from-layer="647" from-port="2" to-layer="650" to-port="0"/>
		<edge from-layer="649" from-port="1" to-layer="650" to-port="1"/>
		<edge from-layer="650" from-port="2" to-layer="651" to-port="0"/>
		<edge from-layer="651" from-port="1" to-layer="652" to-port="0"/>
		<edge from-layer="12" from-port="0" to-layer="652" to-port="1"/>
		<edge from-layer="13" from-port="0" to-layer="652" to-port="2"/>
		<edge from-layer="14" from-port="0" to-layer="652" to-port="3"/>
		<edge from-layer="15" from-port="0" to-layer="652" to-port="4"/>
		<edge from-layer="654" from-port="0" to-layer="655" to-port="0"/>
		<edge from-layer="655" from-port="1" to-layer="656" to-port="0"/>
		<edge from-layer="653" from-port="0" to-layer="656" to-port="1"/>
		<edge from-layer="652" from-port="5" to-layer="657" to-port="0"/>
		<edge from-layer="656" from-port="2" to-layer="657" to-port="1"/>
		<edge from-layer="658" from-port="0" to-layer="659" to-port="0"/>
		<edge from-layer="657" from-port="2" to-layer="660" to-port="0"/>
		<edge from-layer="659" from-port="1" to-layer="660" to-port="1"/>
		<edge from-layer="660" from-port="2" to-layer="661" to-port="0"/>
		<edge from-layer="8" from-port="0" to-layer="661" to-port="1"/>
		<edge from-layer="9" from-port="0" to-layer="661" to-port="2"/>
		<edge from-layer="10" from-port="0" to-layer="661" to-port="3"/>
		<edge from-layer="11" from-port="0" to-layer="661" to-port="4"/>
		<edge from-layer="661" from-port="5" to-layer="662" to-port="0"/>
		<edge from-layer="628" from-port="5" to-layer="662" to-port="1"/>
		<edge from-layer="662" from-port="2" to-layer="663" to-port="0"/>
		<edge from-layer="4" from-port="0" to-layer="663" to-port="1"/>
		<edge from-layer="5" from-port="0" to-layer="663" to-port="2"/>
		<edge from-layer="6" from-port="0" to-layer="663" to-port="3"/>
		<edge from-layer="7" from-port="0" to-layer="663" to-port="4"/>
		<edge from-layer="665" from-port="0" to-layer="666" to-port="0"/>
		<edge from-layer="666" from-port="1" to-layer="667" to-port="0"/>
		<edge from-layer="664" from-port="0" to-layer="667" to-port="1"/>
		<edge from-layer="667" from-port="2" to-layer="669" to-port="0"/>
		<edge from-layer="669" from-port="1" to-layer="672" to-port="0"/>
		<edge from-layer="670" from-port="0" to-layer="672" to-port="1"/>
		<edge from-layer="671" from-port="0" to-layer="672" to-port="2"/>
		<edge from-layer="668" from-port="0" to-layer="673" to-port="0"/>
		<edge from-layer="672" from-port="3" to-layer="673" to-port="1"/>
		<edge from-layer="667" from-port="2" to-layer="674" to-port="0"/>
		<edge from-layer="673" from-port="2" to-layer="674" to-port="1"/>
		<edge from-layer="663" from-port="5" to-layer="675" to-port="0"/>
		<edge from-layer="674" from-port="2" to-layer="675" to-port="1"/>
		<edge from-layer="676" from-port="0" to-layer="677" to-port="0"/>
		<edge from-layer="675" from-port="2" to-layer="678" to-port="0"/>
		<edge from-layer="677" from-port="1" to-layer="678" to-port="1"/>
		<edge from-layer="678" from-port="2" to-layer="679" to-port="0"/>
		<edge from-layer="679" from-port="1" to-layer="680" to-port="0"/>
		<edge from-layer="0" from-port="0" to-layer="680" to-port="1"/>
		<edge from-layer="1" from-port="0" to-layer="680" to-port="2"/>
		<edge from-layer="2" from-port="0" to-layer="680" to-port="3"/>
		<edge from-layer="3" from-port="0" to-layer="680" to-port="4"/>
		<edge from-layer="682" from-port="0" to-layer="683" to-port="0"/>
		<edge from-layer="683" from-port="1" to-layer="684" to-port="0"/>
		<edge from-layer="681" from-port="0" to-layer="684" to-port="1"/>
		<edge from-layer="680" from-port="5" to-layer="685" to-port="0"/>
		<edge from-layer="684" from-port="2" to-layer="685" to-port="1"/>
		<edge from-layer="686" from-port="0" to-layer="687" to-port="0"/>
		<edge from-layer="685" from-port="2" to-layer="688" to-port="0"/>
		<edge from-layer="687" from-port="1" to-layer="688" to-port="1"/>
		<edge from-layer="688" from-port="2" to-layer="690" to-port="0"/>
		<edge from-layer="689" from-port="0" to-layer="690" to-port="1"/>
		<edge from-layer="688" from-port="2" to-layer="691" to-port="0"/>
		<edge from-layer="691" from-port="1" to-layer="694" to-port="0"/>
		<edge from-layer="692" from-port="0" to-layer="694" to-port="1"/>
		<edge from-layer="693" from-port="0" to-layer="694" to-port="2"/>
		<edge from-layer="694" from-port="3" to-layer="696" to-port="0"/>
		<edge from-layer="695" from-port="0" to-layer="696" to-port="1"/>
		<edge from-layer="690" from-port="2" to-layer="697" to-port="0"/>
		<edge from-layer="696" from-port="2" to-layer="697" to-port="1"/>
		<edge from-layer="751" from-port="0" to-layer="752" to-port="0"/>
		<edge from-layer="752" from-port="1" to-layer="753" to-port="0"/>
		<edge from-layer="750" from-port="0" to-layer="753" to-port="1"/>
		<edge from-layer="663" from-port="5" to-layer="754" to-port="0"/>
		<edge from-layer="753" from-port="2" to-layer="754" to-port="1"/>
		<edge from-layer="755" from-port="0" to-layer="756" to-port="0"/>
		<edge from-layer="754" from-port="2" to-layer="757" to-port="0"/>
		<edge from-layer="756" from-port="1" to-layer="757" to-port="1"/>
		<edge from-layer="757" from-port="2" to-layer="758" to-port="0"/>
		<edge from-layer="758" from-port="1" to-layer="759" to-port="0"/>
		<edge from-layer="746" from-port="0" to-layer="759" to-port="1"/>
		<edge from-layer="747" from-port="0" to-layer="759" to-port="2"/>
		<edge from-layer="748" from-port="0" to-layer="759" to-port="3"/>
		<edge from-layer="749" from-port="0" to-layer="759" to-port="4"/>
		<edge from-layer="761" from-port="0" to-layer="762" to-port="0"/>
		<edge from-layer="762" from-port="1" to-layer="763" to-port="0"/>
		<edge from-layer="760" from-port="0" to-layer="763" to-port="1"/>
		<edge from-layer="763" from-port="2" to-layer="765" to-port="0"/>
		<edge from-layer="765" from-port="1" to-layer="768" to-port="0"/>
		<edge from-layer="766" from-port="0" to-layer="768" to-port="1"/>
		<edge from-layer="767" from-port="0" to-layer="768" to-port="2"/>
		<edge from-layer="764" from-port="0" to-layer="769" to-port="0"/>
		<edge from-layer="768" from-port="3" to-layer="769" to-port="1"/>
		<edge from-layer="763" from-port="2" to-layer="770" to-port="0"/>
		<edge from-layer="769" from-port="2" to-layer="770" to-port="1"/>
		<edge from-layer="759" from-port="5" to-layer="771" to-port="0"/>
		<edge from-layer="770" from-port="2" to-layer="771" to-port="1"/>
		<edge from-layer="772" from-port="0" to-layer="773" to-port="0"/>
		<edge from-layer="771" from-port="2" to-layer="774" to-port="0"/>
		<edge from-layer="773" from-port="1" to-layer="774" to-port="1"/>
		<edge from-layer="774" from-port="2" to-layer="775" to-port="0"/>
		<edge from-layer="775" from-port="1" to-layer="776" to-port="0"/>
		<edge from-layer="742" from-port="0" to-layer="776" to-port="1"/>
		<edge from-layer="743" from-port="0" to-layer="776" to-port="2"/>
		<edge from-layer="744" from-port="0" to-layer="776" to-port="3"/>
		<edge from-layer="745" from-port="0" to-layer="776" to-port="4"/>
		<edge from-layer="778" from-port="0" to-layer="779" to-port="0"/>
		<edge from-layer="779" from-port="1" to-layer="780" to-port="0"/>
		<edge from-layer="777" from-port="0" to-layer="780" to-port="1"/>
		<edge from-layer="776" from-port="5" to-layer="781" to-port="0"/>
		<edge from-layer="780" from-port="2" to-layer="781" to-port="1"/>
		<edge from-layer="782" from-port="0" to-layer="783" to-port="0"/>
		<edge from-layer="781" from-port="2" to-layer="784" to-port="0"/>
		<edge from-layer="783" from-port="1" to-layer="784" to-port="1"/>
		<edge from-layer="784" from-port="2" to-layer="785" to-port="0"/>
		<edge from-layer="738" from-port="0" to-layer="785" to-port="1"/>
		<edge from-layer="739" from-port="0" to-layer="785" to-port="2"/>
		<edge from-layer="740" from-port="0" to-layer="785" to-port="3"/>
		<edge from-layer="741" from-port="0" to-layer="785" to-port="4"/>
		<edge from-layer="787" from-port="0" to-layer="788" to-port="0"/>
		<edge from-layer="788" from-port="1" to-layer="789" to-port="0"/>
		<edge from-layer="786" from-port="0" to-layer="789" to-port="1"/>
		<edge from-layer="785" from-port="5" to-layer="790" to-port="0"/>
		<edge from-layer="789" from-port="2" to-layer="790" to-port="1"/>
		<edge from-layer="791" from-port="0" to-layer="792" to-port="0"/>
		<edge from-layer="790" from-port="2" to-layer="793" to-port="0"/>
		<edge from-layer="792" from-port="1" to-layer="793" to-port="1"/>
		<edge from-layer="793" from-port="2" to-layer="794" to-port="0"/>
		<edge from-layer="794" from-port="1" to-layer="795" to-port="0"/>
		<edge from-layer="734" from-port="0" to-layer="795" to-port="1"/>
		<edge from-layer="735" from-port="0" to-layer="795" to-port="2"/>
		<edge from-layer="736" from-port="0" to-layer="795" to-port="3"/>
		<edge from-layer="737" from-port="0" to-layer="795" to-port="4"/>
		<edge from-layer="797" from-port="0" to-layer="798" to-port="0"/>
		<edge from-layer="798" from-port="1" to-layer="799" to-port="0"/>
		<edge from-layer="796" from-port="0" to-layer="799" to-port="1"/>
		<edge from-layer="799" from-port="2" to-layer="801" to-port="0"/>
		<edge from-layer="801" from-port="1" to-layer="804" to-port="0"/>
		<edge from-layer="802" from-port="0" to-layer="804" to-port="1"/>
		<edge from-layer="803" from-port="0" to-layer="804" to-port="2"/>
		<edge from-layer="800" from-port="0" to-layer="805" to-port="0"/>
		<edge from-layer="804" from-port="3" to-layer="805" to-port="1"/>
		<edge from-layer="799" from-port="2" to-layer="806" to-port="0"/>
		<edge from-layer="805" from-port="2" to-layer="806" to-port="1"/>
		<edge from-layer="795" from-port="5" to-layer="807" to-port="0"/>
		<edge from-layer="806" from-port="2" to-layer="807" to-port="1"/>
		<edge from-layer="808" from-port="0" to-layer="809" to-port="0"/>
		<edge from-layer="807" from-port="2" to-layer="810" to-port="0"/>
		<edge from-layer="809" from-port="1" to-layer="810" to-port="1"/>
		<edge from-layer="810" from-port="2" to-layer="811" to-port="0"/>
		<edge from-layer="811" from-port="1" to-layer="812" to-port="0"/>
		<edge from-layer="730" from-port="0" to-layer="812" to-port="1"/>
		<edge from-layer="731" from-port="0" to-layer="812" to-port="2"/>
		<edge from-layer="732" from-port="0" to-layer="812" to-port="3"/>
		<edge from-layer="733" from-port="0" to-layer="812" to-port="4"/>
		<edge from-layer="814" from-port="0" to-layer="815" to-port="0"/>
		<edge from-layer="815" from-port="1" to-layer="816" to-port="0"/>
		<edge from-layer="813" from-port="0" to-layer="816" to-port="1"/>
		<edge from-layer="812" from-port="5" to-layer="817" to-port="0"/>
		<edge from-layer="816" from-port="2" to-layer="817" to-port="1"/>
		<edge from-layer="818" from-port="0" to-layer="819" to-port="0"/>
		<edge from-layer="817" from-port="2" to-layer="820" to-port="0"/>
		<edge from-layer="819" from-port="1" to-layer="820" to-port="1"/>
		<edge from-layer="820" from-port="2" to-layer="821" to-port="0"/>
		<edge from-layer="726" from-port="0" to-layer="821" to-port="1"/>
		<edge from-layer="727" from-port="0" to-layer="821" to-port="2"/>
		<edge from-layer="728" from-port="0" to-layer="821" to-port="3"/>
		<edge from-layer="729" from-port="0" to-layer="821" to-port="4"/>
		<edge from-layer="821" from-port="5" to-layer="822" to-port="0"/>
		<edge from-layer="785" from-port="5" to-layer="822" to-port="1"/>
		<edge from-layer="822" from-port="2" to-layer="823" to-port="0"/>
		<edge from-layer="722" from-port="0" to-layer="823" to-port="1"/>
		<edge from-layer="723" from-port="0" to-layer="823" to-port="2"/>
		<edge from-layer="724" from-port="0" to-layer="823" to-port="3"/>
		<edge from-layer="725" from-port="0" to-layer="823" to-port="4"/>
		<edge from-layer="825" from-port="0" to-layer="826" to-port="0"/>
		<edge from-layer="826" from-port="1" to-layer="827" to-port="0"/>
		<edge from-layer="824" from-port="0" to-layer="827" to-port="1"/>
		<edge from-layer="823" from-port="5" to-layer="828" to-port="0"/>
		<edge from-layer="827" from-port="2" to-layer="828" to-port="1"/>
		<edge from-layer="829" from-port="0" to-layer="830" to-port="0"/>
		<edge from-layer="828" from-port="2" to-layer="831" to-port="0"/>
		<edge from-layer="830" from-port="1" to-layer="831" to-port="1"/>
		<edge from-layer="831" from-port="2" to-layer="832" to-port="0"/>
		<edge from-layer="832" from-port="1" to-layer="833" to-port="0"/>
		<edge from-layer="718" from-port="0" to-layer="833" to-port="1"/>
		<edge from-layer="719" from-port="0" to-layer="833" to-port="2"/>
		<edge from-layer="720" from-port="0" to-layer="833" to-port="3"/>
		<edge from-layer="721" from-port="0" to-layer="833" to-port="4"/>
		<edge from-layer="835" from-port="0" to-layer="836" to-port="0"/>
		<edge from-layer="836" from-port="1" to-layer="837" to-port="0"/>
		<edge from-layer="834" from-port="0" to-layer="837" to-port="1"/>
		<edge from-layer="837" from-port="2" to-layer="839" to-port="0"/>
		<edge from-layer="839" from-port="1" to-layer="842" to-port="0"/>
		<edge from-layer="840" from-port="0" to-layer="842" to-port="1"/>
		<edge from-layer="841" from-port="0" to-layer="842" to-port="2"/>
		<edge from-layer="838" from-port="0" to-layer="843" to-port="0"/>
		<edge from-layer="842" from-port="3" to-layer="843" to-port="1"/>
		<edge from-layer="837" from-port="2" to-layer="844" to-port="0"/>
		<edge from-layer="843" from-port="2" to-layer="844" to-port="1"/>
		<edge from-layer="833" from-port="5" to-layer="845" to-port="0"/>
		<edge from-layer="844" from-port="2" to-layer="845" to-port="1"/>
		<edge from-layer="846" from-port="0" to-layer="847" to-port="0"/>
		<edge from-layer="845" from-port="2" to-layer="848" to-port="0"/>
		<edge from-layer="847" from-port="1" to-layer="848" to-port="1"/>
		<edge from-layer="848" from-port="2" to-layer="849" to-port="0"/>
		<edge from-layer="849" from-port="1" to-layer="850" to-port="0"/>
		<edge from-layer="714" from-port="0" to-layer="850" to-port="1"/>
		<edge from-layer="715" from-port="0" to-layer="850" to-port="2"/>
		<edge from-layer="716" from-port="0" to-layer="850" to-port="3"/>
		<edge from-layer="717" from-port="0" to-layer="850" to-port="4"/>
		<edge from-layer="852" from-port="0" to-layer="853" to-port="0"/>
		<edge from-layer="853" from-port="1" to-layer="854" to-port="0"/>
		<edge from-layer="851" from-port="0" to-layer="854" to-port="1"/>
		<edge from-layer="850" from-port="5" to-layer="855" to-port="0"/>
		<edge from-layer="854" from-port="2" to-layer="855" to-port="1"/>
		<edge from-layer="856" from-port="0" to-layer="857" to-port="0"/>
		<edge from-layer="855" from-port="2" to-layer="858" to-port="0"/>
		<edge from-layer="857" from-port="1" to-layer="858" to-port="1"/>
		<edge from-layer="858" from-port="2" to-layer="859" to-port="0"/>
		<edge from-layer="710" from-port="0" to-layer="859" to-port="1"/>
		<edge from-layer="711" from-port="0" to-layer="859" to-port="2"/>
		<edge from-layer="712" from-port="0" to-layer="859" to-port="3"/>
		<edge from-layer="713" from-port="0" to-layer="859" to-port="4"/>
		<edge from-layer="859" from-port="5" to-layer="860" to-port="0"/>
		<edge from-layer="823" from-port="5" to-layer="860" to-port="1"/>
		<edge from-layer="860" from-port="2" to-layer="861" to-port="0"/>
		<edge from-layer="706" from-port="0" to-layer="861" to-port="1"/>
		<edge from-layer="707" from-port="0" to-layer="861" to-port="2"/>
		<edge from-layer="708" from-port="0" to-layer="861" to-port="3"/>
		<edge from-layer="709" from-port="0" to-layer="861" to-port="4"/>
		<edge from-layer="863" from-port="0" to-layer="864" to-port="0"/>
		<edge from-layer="864" from-port="1" to-layer="865" to-port="0"/>
		<edge from-layer="862" from-port="0" to-layer="865" to-port="1"/>
		<edge from-layer="861" from-port="5" to-layer="866" to-port="0"/>
		<edge from-layer="865" from-port="2" to-layer="866" to-port="1"/>
		<edge from-layer="867" from-port="0" to-layer="868" to-port="0"/>
		<edge from-layer="866" from-port="2" to-layer="869" to-port="0"/>
		<edge from-layer="868" from-port="1" to-layer="869" to-port="1"/>
		<edge from-layer="869" from-port="2" to-layer="870" to-port="0"/>
		<edge from-layer="871" from-port="0" to-layer="872" to-port="0"/>
		<edge from-layer="872" from-port="1" to-layer="874" to-port="0"/>
		<edge from-layer="874" from-port="1" to-layer="877" to-port="0"/>
		<edge from-layer="875" from-port="0" to-layer="877" to-port="1"/>
		<edge from-layer="876" from-port="0" to-layer="877" to-port="2"/>
		<edge from-layer="873" from-port="0" to-layer="878" to-port="0"/>
		<edge from-layer="877" from-port="3" to-layer="878" to-port="1"/>
		<edge from-layer="872" from-port="1" to-layer="879" to-port="0"/>
		<edge from-layer="878" from-port="2" to-layer="879" to-port="1"/>
		<edge from-layer="870" from-port="1" to-layer="880" to-port="0"/>
		<edge from-layer="879" from-port="2" to-layer="880" to-port="1"/>
		<edge from-layer="881" from-port="0" to-layer="882" to-port="0"/>
		<edge from-layer="880" from-port="2" to-layer="883" to-port="0"/>
		<edge from-layer="882" from-port="1" to-layer="883" to-port="1"/>
		<edge from-layer="883" from-port="2" to-layer="884" to-port="0"/>
		<edge from-layer="884" from-port="1" to-layer="885" to-port="0"/>
		<edge from-layer="702" from-port="0" to-layer="885" to-port="1"/>
		<edge from-layer="703" from-port="0" to-layer="885" to-port="2"/>
		<edge from-layer="704" from-port="0" to-layer="885" to-port="3"/>
		<edge from-layer="705" from-port="0" to-layer="885" to-port="4"/>
		<edge from-layer="887" from-port="0" to-layer="888" to-port="0"/>
		<edge from-layer="888" from-port="1" to-layer="889" to-port="0"/>
		<edge from-layer="886" from-port="0" to-layer="889" to-port="1"/>
		<edge from-layer="885" from-port="5" to-layer="890" to-port="0"/>
		<edge from-layer="889" from-port="2" to-layer="890" to-port="1"/>
		<edge from-layer="891" from-port="0" to-layer="892" to-port="0"/>
		<edge from-layer="890" from-port="2" to-layer="893" to-port="0"/>
		<edge from-layer="892" from-port="1" to-layer="893" to-port="1"/>
		<edge from-layer="894" from-port="0" to-layer="895" to-port="0"/>
		<edge from-layer="895" from-port="1" to-layer="897" to-port="0"/>
		<edge from-layer="897" from-port="1" to-layer="900" to-port="0"/>
		<edge from-layer="898" from-port="0" to-layer="900" to-port="1"/>
		<edge from-layer="899" from-port="0" to-layer="900" to-port="2"/>
		<edge from-layer="896" from-port="0" to-layer="901" to-port="0"/>
		<edge from-layer="900" from-port="3" to-layer="901" to-port="1"/>
		<edge from-layer="895" from-port="1" to-layer="902" to-port="0"/>
		<edge from-layer="901" from-port="2" to-layer="902" to-port="1"/>
		<edge from-layer="893" from-port="2" to-layer="903" to-port="0"/>
		<edge from-layer="902" from-port="2" to-layer="903" to-port="1"/>
		<edge from-layer="904" from-port="0" to-layer="905" to-port="0"/>
		<edge from-layer="903" from-port="2" to-layer="906" to-port="0"/>
		<edge from-layer="905" from-port="1" to-layer="906" to-port="1"/>
		<edge from-layer="906" from-port="2" to-layer="907" to-port="0"/>
		<edge from-layer="907" from-port="1" to-layer="908" to-port="0"/>
		<edge from-layer="698" from-port="0" to-layer="908" to-port="1"/>
		<edge from-layer="699" from-port="0" to-layer="908" to-port="2"/>
		<edge from-layer="700" from-port="0" to-layer="908" to-port="3"/>
		<edge from-layer="701" from-port="0" to-layer="908" to-port="4"/>
		<edge from-layer="910" from-port="0" to-layer="911" to-port="0"/>
		<edge from-layer="911" from-port="1" to-layer="912" to-port="0"/>
		<edge from-layer="909" from-port="0" to-layer="912" to-port="1"/>
		<edge from-layer="908" from-port="5" to-layer="913" to-port="0"/>
		<edge from-layer="912" from-port="2" to-layer="913" to-port="1"/>
		<edge from-layer="914" from-port="0" to-layer="915" to-port="0"/>
		<edge from-layer="913" from-port="2" to-layer="916" to-port="0"/>
		<edge from-layer="915" from-port="1" to-layer="916" to-port="1"/>
		<edge from-layer="916" from-port="2" to-layer="918" to-port="0"/>
		<edge from-layer="917" from-port="0" to-layer="918" to-port="1"/>
		<edge from-layer="916" from-port="2" to-layer="919" to-port="0"/>
		<edge from-layer="919" from-port="1" to-layer="922" to-port="0"/>
		<edge from-layer="920" from-port="0" to-layer="922" to-port="1"/>
		<edge from-layer="921" from-port="0" to-layer="922" to-port="2"/>
		<edge from-layer="922" from-port="3" to-layer="924" to-port="0"/>
		<edge from-layer="923" from-port="0" to-layer="924" to-port="1"/>
		<edge from-layer="918" from-port="2" to-layer="925" to-port="0"/>
		<edge from-layer="924" from-port="2" to-layer="925" to-port="1"/>
		<edge from-layer="697" from-port="2" to-layer="926" to-port="0"/>
		<edge from-layer="925" from-port="2" to-layer="926" to-port="1"/>
		<edge from-layer="932" from-port="0" to-layer="933" to-port="0"/>
		<edge from-layer="933" from-port="1" to-layer="934" to-port="0"/>
		<edge from-layer="931" from-port="0" to-layer="934" to-port="1"/>
		<edge from-layer="934" from-port="2" to-layer="936" to-port="0"/>
		<edge from-layer="936" from-port="1" to-layer="939" to-port="0"/>
		<edge from-layer="937" from-port="0" to-layer="939" to-port="1"/>
		<edge from-layer="938" from-port="0" to-layer="939" to-port="2"/>
		<edge from-layer="935" from-port="0" to-layer="940" to-port="0"/>
		<edge from-layer="939" from-port="3" to-layer="940" to-port="1"/>
		<edge from-layer="934" from-port="2" to-layer="941" to-port="0"/>
		<edge from-layer="940" from-port="2" to-layer="941" to-port="1"/>
		<edge from-layer="663" from-port="5" to-layer="942" to-port="0"/>
		<edge from-layer="941" from-port="2" to-layer="942" to-port="1"/>
		<edge from-layer="943" from-port="0" to-layer="944" to-port="0"/>
		<edge from-layer="942" from-port="2" to-layer="945" to-port="0"/>
		<edge from-layer="944" from-port="1" to-layer="945" to-port="1"/>
		<edge from-layer="945" from-port="2" to-layer="946" to-port="0"/>
		<edge from-layer="946" from-port="1" to-layer="947" to-port="0"/>
		<edge from-layer="927" from-port="0" to-layer="947" to-port="1"/>
		<edge from-layer="928" from-port="0" to-layer="947" to-port="2"/>
		<edge from-layer="929" from-port="0" to-layer="947" to-port="3"/>
		<edge from-layer="930" from-port="0" to-layer="947" to-port="4"/>
		<edge from-layer="949" from-port="0" to-layer="950" to-port="0"/>
		<edge from-layer="950" from-port="1" to-layer="951" to-port="0"/>
		<edge from-layer="948" from-port="0" to-layer="951" to-port="1"/>
		<edge from-layer="947" from-port="5" to-layer="952" to-port="0"/>
		<edge from-layer="951" from-port="2" to-layer="952" to-port="1"/>
		<edge from-layer="953" from-port="0" to-layer="954" to-port="0"/>
		<edge from-layer="952" from-port="2" to-layer="955" to-port="0"/>
		<edge from-layer="954" from-port="1" to-layer="955" to-port="1"/>
		<edge from-layer="955" from-port="2" to-layer="957" to-port="0"/>
		<edge from-layer="956" from-port="0" to-layer="957" to-port="1"/>
		<edge from-layer="955" from-port="2" to-layer="958" to-port="0"/>
		<edge from-layer="958" from-port="1" to-layer="961" to-port="0"/>
		<edge from-layer="959" from-port="0" to-layer="961" to-port="1"/>
		<edge from-layer="960" from-port="0" to-layer="961" to-port="2"/>
		<edge from-layer="961" from-port="3" to-layer="963" to-port="0"/>
		<edge from-layer="962" from-port="0" to-layer="963" to-port="1"/>
		<edge from-layer="957" from-port="2" to-layer="964" to-port="0"/>
		<edge from-layer="963" from-port="2" to-layer="964" to-port="1"/>
		<edge from-layer="969" from-port="0" to-layer="970" to-port="0"/>
		<edge from-layer="970" from-port="1" to-layer="972" to-port="0"/>
		<edge from-layer="972" from-port="1" to-layer="975" to-port="0"/>
		<edge from-layer="973" from-port="0" to-layer="975" to-port="1"/>
		<edge from-layer="974" from-port="0" to-layer="975" to-port="2"/>
		<edge from-layer="971" from-port="0" to-layer="976" to-port="0"/>
		<edge from-layer="975" from-port="3" to-layer="976" to-port="1"/>
		<edge from-layer="970" from-port="1" to-layer="977" to-port="0"/>
		<edge from-layer="976" from-port="2" to-layer="977" to-port="1"/>
		<edge from-layer="893" from-port="2" to-layer="978" to-port="0"/>
		<edge from-layer="977" from-port="2" to-layer="978" to-port="1"/>
		<edge from-layer="979" from-port="0" to-layer="980" to-port="0"/>
		<edge from-layer="978" from-port="2" to-layer="981" to-port="0"/>
		<edge from-layer="980" from-port="1" to-layer="981" to-port="1"/>
		<edge from-layer="981" from-port="2" to-layer="982" to-port="0"/>
		<edge from-layer="982" from-port="1" to-layer="983" to-port="0"/>
		<edge from-layer="965" from-port="0" to-layer="983" to-port="1"/>
		<edge from-layer="966" from-port="0" to-layer="983" to-port="2"/>
		<edge from-layer="967" from-port="0" to-layer="983" to-port="3"/>
		<edge from-layer="968" from-port="0" to-layer="983" to-port="4"/>
		<edge from-layer="985" from-port="0" to-layer="986" to-port="0"/>
		<edge from-layer="986" from-port="1" to-layer="987" to-port="0"/>
		<edge from-layer="984" from-port="0" to-layer="987" to-port="1"/>
		<edge from-layer="983" from-port="5" to-layer="988" to-port="0"/>
		<edge from-layer="987" from-port="2" to-layer="988" to-port="1"/>
		<edge from-layer="989" from-port="0" to-layer="990" to-port="0"/>
		<edge from-layer="988" from-port="2" to-layer="991" to-port="0"/>
		<edge from-layer="990" from-port="1" to-layer="991" to-port="1"/>
		<edge from-layer="991" from-port="2" to-layer="993" to-port="0"/>
		<edge from-layer="992" from-port="0" to-layer="993" to-port="1"/>
		<edge from-layer="991" from-port="2" to-layer="994" to-port="0"/>
		<edge from-layer="994" from-port="1" to-layer="997" to-port="0"/>
		<edge from-layer="995" from-port="0" to-layer="997" to-port="1"/>
		<edge from-layer="996" from-port="0" to-layer="997" to-port="2"/>
		<edge from-layer="997" from-port="3" to-layer="999" to-port="0"/>
		<edge from-layer="998" from-port="0" to-layer="999" to-port="1"/>
		<edge from-layer="993" from-port="2" to-layer="1000" to-port="0"/>
		<edge from-layer="999" from-port="2" to-layer="1000" to-port="1"/>
		<edge from-layer="964" from-port="2" to-layer="1001" to-port="0"/>
		<edge from-layer="1000" from-port="2" to-layer="1001" to-port="1"/>
		<edge from-layer="1001" from-port="2" to-layer="1003" to-port="0"/>
		<edge from-layer="1002" from-port="0" to-layer="1003" to-port="1"/>
		<edge from-layer="1003" from-port="2" to-layer="1004" to-port="0"/>
		<edge from-layer="1004" from-port="1" to-layer="1008" to-port="0"/>
		<edge from-layer="1005" from-port="0" to-layer="1008" to-port="1"/>
		<edge from-layer="1006" from-port="0" to-layer="1008" to-port="2"/>
		<edge from-layer="1007" from-port="0" to-layer="1008" to-port="3"/>
		<edge from-layer="1008" from-port="4" to-layer="1010" to-port="0"/>
		<edge from-layer="1009" from-port="0" to-layer="1010" to-port="1"/>
		<edge from-layer="1010" from-port="2" to-layer="1012" to-port="0"/>
		<edge from-layer="1011" from-port="0" to-layer="1012" to-port="1"/>
		<edge from-layer="1003" from-port="2" to-layer="1013" to-port="0"/>
		<edge from-layer="1012" from-port="2" to-layer="1013" to-port="1"/>
		<edge from-layer="1013" from-port="2" to-layer="1014" to-port="0"/>
		<edge from-layer="1014" from-port="1" to-layer="1015" to-port="0"/>
		<edge from-layer="1004" from-port="1" to-layer="1015" to-port="1"/>
		<edge from-layer="1015" from-port="2" to-layer="1017" to-port="0"/>
		<edge from-layer="1016" from-port="0" to-layer="1017" to-port="1"/>
		<edge from-layer="662" from-port="2" to-layer="1018" to-port="0"/>
		<edge from-layer="1018" from-port="1" to-layer="1022" to-port="0"/>
		<edge from-layer="1019" from-port="0" to-layer="1022" to-port="1"/>
		<edge from-layer="1020" from-port="0" to-layer="1022" to-port="2"/>
		<edge from-layer="1021" from-port="0" to-layer="1022" to-port="3"/>
		<edge from-layer="183" from-port="2" to-layer="1023" to-port="0"/>
		<edge from-layer="1023" from-port="1" to-layer="1027" to-port="0"/>
		<edge from-layer="1024" from-port="0" to-layer="1027" to-port="1"/>
		<edge from-layer="1025" from-port="0" to-layer="1027" to-port="2"/>
		<edge from-layer="1026" from-port="0" to-layer="1027" to-port="3"/>
		<edge from-layer="1022" from-port="4" to-layer="1028" to-port="0"/>
		<edge from-layer="1027" from-port="4" to-layer="1028" to-port="1"/>
		<edge from-layer="1028" from-port="2" to-layer="1030" to-port="0"/>
		<edge from-layer="1029" from-port="0" to-layer="1030" to-port="1"/>
		<edge from-layer="893" from-port="2" to-layer="1031" to-port="0"/>
		<edge from-layer="1031" from-port="1" to-layer="1035" to-port="0"/>
		<edge from-layer="1032" from-port="0" to-layer="1035" to-port="1"/>
		<edge from-layer="1033" from-port="0" to-layer="1035" to-port="2"/>
		<edge from-layer="1034" from-port="0" to-layer="1035" to-port="3"/>
		<edge from-layer="1023" from-port="1" to-layer="1039" to-port="0"/>
		<edge from-layer="1036" from-port="0" to-layer="1039" to-port="1"/>
		<edge from-layer="1037" from-port="0" to-layer="1039" to-port="2"/>
		<edge from-layer="1038" from-port="0" to-layer="1039" to-port="3"/>
		<edge from-layer="1035" from-port="4" to-layer="1040" to-port="0"/>
		<edge from-layer="1039" from-port="4" to-layer="1040" to-port="1"/>
		<edge from-layer="1040" from-port="2" to-layer="1042" to-port="0"/>
		<edge from-layer="1041" from-port="0" to-layer="1042" to-port="1"/>
		<edge from-layer="1030" from-port="2" to-layer="1043" to-port="0"/>
		<edge from-layer="1042" from-port="2" to-layer="1043" to-port="1"/>
		<edge from-layer="926" from-port="2" to-layer="1044" to-port="0"/>
		<edge from-layer="1017" from-port="2" to-layer="1044" to-port="1"/>
		<edge from-layer="1043" from-port="2" to-layer="1044" to-port="2"/>
		<edge from-layer="1044" from-port="3" to-layer="1045" to-port="0"/>
	</edges>
	<meta_data>
		<MO_version value="custom_HEAD_0e242b324458ed332f0907ac6d88fc24b610d9b9"/>
		<Runtime_version value="2022.3.0-000-0e242b32445-HEAD"/>
		<legacy_path value="True"/>
		<cli_parameters>
			<caffe_parser_path value="DIR"/>
			<data_type value="FP16"/>
			<disable_nhwc_to_nchw value="False"/>
			<disable_omitting_optional value="False"/>
			<disable_resnet_optimization value="False"/>
			<disable_weights_compression value="False"/>
			<enable_concat_optimization value="False"/>
			<enable_flattening_nested_params value="False"/>
			<enable_ssd_gluoncv value="False"/>
			<extensions value="['/opt/home/sys_k8sworker/workspace/DL-Benchmark/try/convert']"/>
			<framework value="onnx"/>
			<input value="image"/>
			<input_model value="DIR/model.onnx"/>
			<input_model_is_text value="False"/>
			<input_shape value="[1,3,256,256]"/>
			<k value="DIR/CustomLayersMapping.xml"/>
			<layout value="image(nchw)"/>
			<legacy_mxnet_model value="False"/>
			<log_level value="ERROR"/>
			<mean_values value="()"/>
			<model_name value="person-vehicle-bike-detection-2000"/>
			<output value="detection_out"/>
			<output_dir value="DIR"/>
			<progress value="False"/>
			<remove_memory value="False"/>
			<remove_output_softmax value="False"/>
			<reverse_input_channels value="True"/>
			<save_params_from_nd value="False"/>
			<scale_values value="image[255.0]"/>
			<silent value="True"/>
			<source_layout value="()"/>
			<static_shape value="False"/>
			<stream_output value="False"/>
			<target_layout value="()"/>
			<transform value=""/>
			<use_legacy_frontend value="False"/>
			<use_new_frontend value="False"/>
			<unset unset_cli_parameters="batch, counts, disable_fusing, finegrain_fusing, freeze_placeholder_with_value, input_checkpoint, input_meta_graph, input_proto, input_symbol, mean_file, mean_file_offsets, nd_prefix_name, pretrained_model_name, saved_model_dir, saved_model_tags, scale, tensorboard_logdir, tensorflow_custom_layer_libraries, tensorflow_custom_operations_config_update, tensorflow_object_detection_api_pipeline_config, tensorflow_use_custom_operations_config, transformations_config"/>
		</cli_parameters>
	</meta_data>
	<quantization_parameters>
		<config>{
		'compression': {
			'algorithms': [
				{
					'name': 'AccuracyAwareQuantization',
					'params': {
						'drop_type': 'relative',
						'max_iter_num': 20,
						'maximal_drop': 0.01,
						'metric_subset_ratio': 0.2,
						'preset': 'performance',
						'stat_subset_size': 300,
						'tune_hyperparams': true
					}
				}
			],
			'dump_intermediate_model': true,
			'target_device': 'ANY'
		},
		'engine': {
			'models': [
				{
					'name': 'person-vehicle-bike-detection-2000',
					'launchers': [
						{
							'framework': 'openvino',
							'adapter': 'ssd',
							'device': 'cpu'
						}
					],
					'datasets': [
						{
							'name': 'crossroad_extra_untagged',
							'data_source': 'PATH',
							'annotation_conversion': {
								'converter': 'mscoco_detection',
								'annotation_file': 'PATH',
								'has_background': false,
								'sort_annotations': true,
								'use_full_label_map': false
							},
							'annotation': 'PATH',
							'dataset_meta': 'PATH',
							'preprocessing': [
								{
									'type': 'resize',
									'dst_width': 256,
									'dst_height': 256
								}
							],
							'postprocessing': [
								{
									'type': 'resize_prediction_boxes'
								},
								{
									'type': 'clip_boxes',
									'apply_to': 'prediction'
								}
							],
							'metrics': [
								{
									'type': 'coco_orig_precision',
									'include_boundaries': false,
									'reference': 0.1647
								}
							],
							'_command_line_mapping': {
								'annotation_file': 'PATH'
							}
						}
					]
				}
			],
			'stat_requests_number': null,
			'eval_requests_number': null,
			'type': 'accuracy_checker'
		}
	}</config>
		<version value="invalid version"/>
		<cli_params value="{'quantize': None, 'preset': None, 'model': None, 'weights': None, 'name': None, 'engine': None, 'ac_config': None, 'max_drop': None, 'evaluate': False, 'output_dir': 'PATH', 'direct_dump': True, 'log_level': 'INFO', 'pbar': False, 'stream_output': False, 'keep_uncompressed_weights': False, 'data_source': None}"/>
	</quantization_parameters>
</net>
